critic_checkpoint.pt (torch, 330853 bytes, 9 tensors)

conv1.weight f4 [8, 14, 3, 3]
000000 2d 28 d7 3d 6e 77 82 3d 7b 86 c9 3d 61 18 2b 3e
       0.1050571 0.06370436 0.09840103 0.16708519
000010 7a 4a 0c 3e e6 48 b5 3d e7 5d 00 3e 08 2a a2 3d
       0.13700286 0.08851795 0.12535821 0.07918173
000020 20 2d a0 3d 04 8f 21 3d e5 c3 14 bd 4f 8b 89 bd
       0.07821107 0.03944303 -0.036319632 -0.06716024
000030 83 2f 5c be b3 ed 83 bd c9 92 21 bd 5a 33 80 bd
       -0.215025 -0.06441822 -0.039446626 -0.062597945
000040 63 ee 20 be 53 e1 20 be 50 d7 9b bd 12 b6 35 be
       -0.15715937 -0.15710954 -0.07609427 -0.17745236
000050 8d 48 7d be e5 8d 1a bb 37 a9 be bd 33 d4 36 bb
       -0.24734707 -0.002358311 -0.09309619 -0.0027897477
000060 e1 9e a8 bd 66 48 93 bb db d2 f0 bd 8a 70 e5 bc
       -0.08233429 -0.0044947146 -0.117589675 -0.028007764
000070 0f 23 56 bd 28 72 9e bd de 8d af 3d f0 2a 7f 3c
       -0.05227953 -0.07736617 0.08571981 0.015574202
000080 b2 34 5d bd 00 a9 2f 3b 7a 3c 16 bd 40 dc fd 3c
       -0.054005332 0.0026803613 -0.03667877 0.030988812
000090 e7 4d 3a 3d 85 d5 38 3e a5 20 75 bc 36 60 87 3d
       0.04548445 0.18050201 -0.014961396 0.06610148
0000a0 04 77 03 3d 67 4d b6 3d 07 66 e7 3d fa bb 27 3b
       0.032095924 0.08901482 0.11298757 0.002559422
0000b0 1e 39 35 be 89 44 38 3d 0b 4a e5 bc 9e dc cd 3d
       -0.1769757 0.044987235 -0.027989408 0.10051845
0000c0 3b 01 d0 bd 5e 56 35 3c cd 10 ea 3b 94 61 c4 bc
       -0.10156485 0.011067955 0.007143116 -0.02397231
0000d0 fb 52 a8 3d bd 1f ae 3d 06 b2 85 3d 34 6b e0 bd
       0.08218952 0.08502147 0.06528096 -0.109579474
0000e0 a8 92 1e bd 99 7e b6 3c c5 9e 05 3e 50 50 48 3d
       -0.03871408 0.022277163 0.13048847 0.048904717
0000f0 e9 76 85 3d dd 2e 81 3c 7a fb 54 bd 80 33 93 3e
       0.06516821 0.015769416 -0.05199764 0.2875023
000100 31 8b 53 3d 87 b0 2f 3d 9c ea 2f bc 48 c8 11 bd
       0.051646415 0.04289296 -0.010737088 -0.035591394
000110 1e 29 b2 3c 1b 6c b0 3c 1e cc 0c 3e 6a ba 55 3e
       0.021748122 0.021535924 0.1374974 0.20871893
000120 46 07 03 3b 8f d2 20 be 38 2b f2 bd 88 db f2 3c
       0.001999335 -0.15705322 -0.118246496 0.029645696
000130 e4 5c 7d 3d 3c c1 a0 3d 4a 8d 39 bc b9 27 30 be
       0.061856166 0.078493565 -0.01132519 -0.17202653
000140 e7 6d da bd bc 3b 0b be 44 46 11 bd 5b 9b 57 be
       -0.106654935 -0.13597006 -0.0354674 -0.21055357
000150 c2 e5 48 bd ad 5e c3 bd b1 12 a7 bd 76 f9 56 bc
       -0.04904724 -0.09539542 -0.08157862 -0.013121
000160 8c 61 f3 ba b8 50 98 bd 74 b6 22 3d 0b 28 32 bd
       -0.00185685 -0.07437271 0.039724782 -0.04349522
000170 27 c5 b3 bd 30 38 5b bc 54 37 a9 bd 98 1a 87 3d
       -0.08777838 -0.013380095 -0.08262506 0.06596869
000180 e0 94 6c 3c 58 32 a1 3c c4 59 8d bd 24 bc d7 3c
       0.014439791 0.019677326 -0.06901887 0.02633483
000190 b0 5a 88 3c 68 06 e3 3c 00 e4 8b 38 32 2d 57 bd
       0.016644806 0.027713016 6.670505e-05 -0.052533336
0001a0 07 b6 14 bd e8 72 dd 3c 66 f1 a6 3d 99 86 8f bd
       -0.036306407 0.02703233 0.08151512 -0.07008094
0001b0 6a 9d e7 bc 73 0e 3d 3d c2 f9 69 3c de cc d3 bc
       -0.028273303 0.046156358 0.014280738 -0.025854524
0001c0 f4 a4 c1 bc a7 a4 c3 bc c5 03 ad 3d 0a 5f d3 bd
       -0.023638226 -0.023882223 0.084479846 -0.10320862
0001d0 2f e0 ab bd 02 cf 09 bc f7 3e 8d 3d ae 8c 7d be
       -0.08392369 -0.008411171 0.06896775 -0.24760696
0001e0 94 ac 66 3d 92 1b 5d bc e9 82 1e 3e 3d 27 b3 bc
       0.056316927 -0.013495343 0.15479626 -0.021869296
0001f0 1b 14 48 3d 9e 02 33 bd cd 47 ab 3d 74 0c 5f 3d
       0.0488473 -0.043703668 0.08363304 0.054455236
000200 4c 0f 70 3d 81 19 09 3d 10 47 80 bd 0e 57 cf bd
       0.05860834 0.033471588 -0.06263554 -0.10124026
000210 60 53 1d 3d 15 96 52 bd 3e 58 ab bd 98 be a1 3d
       0.03840959 -0.05141266 -0.0836644 0.07897681
000220 9c c7 00 be 1a 5c d6 3d 87 61 b4 bd 36 de f0 bd
       -0.12576145 0.10466786 -0.08807664 -0.117611334
000230 8e 36 39 bd fc 76 86 bd ad 76 3e be bc 19 d7 3d
       -0.045218043 -0.06565663 -0.18599959 0.10502955
000240 89 89 e4 bd 60 78 93 3d 2f a7 59 bd 8d 53 a7 bd
       -0.11159045 0.07200694 -0.053137954 -0.08170233
000250 93 87 5a 3d 14 2e 96 bc 8c 7a cd 3b b6 35 52 bd
       0.05335195 -0.018332519 0.0062707122 -0.051320754
000260 6d 9c 07 3c c0 79 16 3d a2 f2 f7 bc aa fd 7f bd
       0.008277041 0.036737204 -0.030267064 -0.062497772
000270 f4 e9 a6 3d 00 5b d0 ba 28 f2 3e 3d e0 b4 b9 bc
       0.08150092 -0.0015896261 0.046617657 -0.022669256
000280 b8 3e 85 3d 5c 59 b4 3c 50 8b b0 3c c0 e7 f1 3c
       0.06506103 0.022015266 0.021550804 0.029529452
000290 6c d1 a6 3d a6 c3 de 3c c4 6b 0a 3e 9e b8 19 bb
       0.08145413 0.027192902 0.13517672 -0.0023455988
0002a0 e4 ba 29 3e f1 c2 52 be 53 57 fc 3b 81 a3 20 bd
       0.165752 -0.20582177 0.0077008395 -0.03921843
0002b0 93 e8 36 be 2a 87 ea 3c 59 e2 0b bd b0 78 53 bd
       -0.17862158 0.028628904 -0.03415141 -0.05162877
0002c0 49 de 95 3c 44 28 05 3e a0 c1 a8 bd 98 e0 af bc
       0.01829447 0.13003641 -0.08240056 -0.0214694
0002d0 aa 7e b8 bd 17 c8 5b be ba f2 5c bd b9 5b 9b bd
       -0.09008534 -0.21463047 -0.05394242 -0.07585854
0002e0 98 df d6 bd 4b 94 c9 bc 32 08 1a be 69 43 2d be
       -0.10491866 -0.024606844 -0.15042189 -0.16920246
0002f0 22 20 a3 3a a1 61 05 bd e8 29 96 bb 0b 60 23 bc
       0.0012445489 -0.03256381 -0.0045826323 -0.009971629
000300 69 6c 8e bd fe ee ff bc 90 e8 2b bd bf 4c c9 bd
       -0.06954271 -0.03124189 -0.041969836 -0.09829091
000310 39 86 34 bd 6b da 88 be 0e 54 65 bd d8 2c fe bd
       -0.044073317 -0.2672914 -0.055988364 -0.12410897
000320 32 5f a9 bc 3e d7 80 3d 10 64 d2 3c 7c 52 d4 3c
       -0.020675275 0.06291054 0.02568248 0.025918238
000330 8b fd fc bd df e4 00 bd 02 9f 97 bb 2f 4f 19 bd
       -0.12353047 -0.03146827 -0.0046271095 -0.03742903
000340 3e 58 2a 3b b3 a1 5f bd 1a e4 24 bd f3 b8 49 bc
       0.0025992538 -0.054597568 -0.040256597 -0.012312162
000350 13 85 09 bd 91 79 20 3d d5 57 e6 3c 85 3f 56 bd
       -0.033574175 0.039178435 0.028118053 -0.05230667
000360 58 c7 4f bc 8a 4b f9 bc 94 42 42 3d 8c 2a a7 3d
       -0.012681805 -0.030431528 0.047426775 0.08162412
000370 58 f0 42 3c c9 b5 2c bd 40 c5 62 3b 3c 4e 44 3d
       0.011898123 -0.04216555 0.0034602433 0.047926173
000380 b8 d3 ac bd 92 dd 00 3d b2 05 06 3d 18 e1 26 3c
       -0.0843882 0.031461306 0.032720275 0.0101855025
000390 00 66 32 3d 9b 7a a7 bd 5a b8 54 bd 2b 6b 5c bd
       0.043554306 -0.08177682 -0.051933624 -0.05381314
0003a0 c8 80 18 3d 90 84 68 3c aa 91 5c bd d8 83 bd 3c
       0.03723219 0.014191762 -0.053849854 0.023134157
0003b0 db 89 b2 bc 79 f6 b6 3c 1d 65 1c 3e 33 d4 21 3d
       -0.02179425 0.022334324 0.15272947 0.03950901
0003c0 51 17 0d be 4f 3c 45 3d 33 a8 8c 3b 6c 7c d8 3e
       -0.13778426 0.048153218 0.004292512 0.42282426
0003d0 ee 13 44 3e aa 7a 82 3e 92 e5 e8 3e 0d 96 ec 3e
       0.19148228 0.2548421 0.45487648 0.4620823
0003e0 3a c8 39 3e ad 74 a9 3e 14 10 5d 3e 54 4b 85 3e
       0.18142787 0.3309683 0.21588165 0.26034033
0003f0 43 70 c0 bb 2d ca 0f 3c c7 06 5e 3e 5d d4 43 bd
       -0.0058727576 0.00877623 0.21682273 -0.047809947

conv1.bias f4 [8]
000000 00 d7 ea bc 67 71 f9 3c 46 5b 52 3c d7 51 ab bc
       -0.028666973 0.030449582 0.012839144 -0.020913048
000010 2f 0b de 3b 08 36 70 3d 7b 38 f2 3c 63 cb 41 bb
       0.0067762355 0.05864528 0.029567948 -0.002957069

conv2.weight f4 [16, 8, 3, 3]
000000 34 a6 d1 3d af b1 24 bc c3 d3 0b 3e 6b 2f 7b 3e
       0.10236779 -0.010052129 0.13655 0.24529807
000010 c0 85 20 3e c3 83 44 3e 5c 6b 10 bc 62 3e a5 3c
       0.15676022 0.19190888 -0.008814659 0.020171348
000020 d7 b4 88 bc af 34 60 3e 01 67 00 3e 6c db 9a 3e
       -0.016687794 0.21895097 0.12539293 0.3024553
000030 2f 4f 84 3d 15 a9 01 3d 6f c2 2e 3d ed 05 75 3d
       0.064604156 0.03165539 0.042665895 0.059820104
000040 aa f8 79 3c 8f 82 c2 3d 0a 91 0d bd a8 e9 30 be
       0.01525704 0.09497558 -0.03456215 -0.17276633
000050 25 9a 6f 3b f8 bf 36 3d 29 77 c6 bc 58 88 5b 3e
       0.0036560383 0.04461667 -0.024226742 0.2143873
000060 bb 48 02 3d f9 1c e5 3c 5e 33 ac 3d aa f4 d8 3d
       0.031807642 0.027967917 0.08408235 0.10593541
000070 33 8f b9 3d 57 ea ad 3d 3d 01 a0 3d ce 67 96 3d
       0.09060516 0.084919624 0.07812736 0.07344018
000080 d9 ec 50 3d 01 0d 48 3e 8c 74 84 3d fd 86 81 3e
       0.051007126 0.1953621 0.06467542 0.252983
000090 b8 dc 47 bd 7d 76 02 be 96 c7 14 bd 9d af 4c be
       -0.04879448 -0.12740512 -0.036323152 -0.19988866
0000a0 52 e7 a2 bd 54 c7 3a be 0b 59 41 be 24 2a 28 be
       -0.07954277 -0.182401 -0.18881623 -0.16422325
0000b0 ce 48 33 be 70 e5 40 bd 6c 9e 32 bd 95 e8 94 be
       -0.17508242 -0.04709381 -0.043608114 -0.29083696
0000c0 9f 5d 8b be e5 47 16 be 4e 21 5e be 52 7a f1 3c
       -0.27219865 -0.14675863 -0.21692392 0.029477272
0000d0 82 03 d4 3c 28 02 55 3c 18 ab 8e 3c 9b 4f 4e bd
       0.025880579 0.013001002 0.017415568 -0.050368886
0000e0 c4 a7 9b bd 23 ee 37 be da 29 20 bb 81 69 cc bd
       -0.07600358 -0.17961936 -0.0024439008 -0.09981061
0000f0 3b 60 0d 3e 5a b1 5d 3d 5e ad 3f 3c 11 1e 91 bd
       0.1380624 0.054124214 0.011699049 -0.07085813
000100 0c fd 12 bd 0d c2 e1 3d 43 a2 fb bd 8c 09 79 bd
       -0.035885856 0.110233404 -0.12286808 -0.06080012
000110 03 e4 bb 3d 5e 99 01 be 0a f2 87 bd d4 d1 cd 3c
       0.09174349 -0.12656161 -0.06637962 0.025124468
000120 55 4b c1 3d 1c 63 0c 3e 5b 67 90 3d 86 fa 54 bb
       0.094381966 0.13709682 0.070509635 -0.0032497956
000130 5e 31 62 3d 97 ad b9 3d 25 f1 3c bd 77 9f 90 3d
       0.05522286 0.09066313 -0.04612841 0.070616655
000140 38 e0 42 3d e6 02 00 3e d0 72 1c 3e 12 ec 40 3e
       0.047577113 0.12501106 0.15278172 0.18840054
000150 5a 19 82 be 10 a3 ad 3d a8 5d 21 3d 8c 7b 68 3d
       -0.25409967 0.08478367 0.03939596 0.05675845
000160 e8 c4 37 3e 2f 20 1b 3e 62 4e 01 be 4c 75 ba 3d
       0.17946208 0.15148996 -0.12627557 0.09104404
000170 09 b1 72 3d 19 32 a6 bc 73 fa 07 be b4 fd 18 bd
       0.059250865 -0.02028756 -0.13279133 -0.037351325
000180 8f ed 27 3d 23 bc bd bd 3a 1c d0 3c be ca 3a 3e
       0.040998038 -0.092644 0.025404084 0.18241403
000190 55 2f 58 3d 96 08 56 3c 38 05 d2 bc 0a 9e 79 bc
       0.052779514 0.0130635705 -0.025637254 -0.015235433
0001a0 6c e2 01 3d 16 b4 c1 3d ec d4 60 3d e0 b0 19 3e
       0.031710073 0.09458177 0.054890558 0.15008879
0001b0 f4 93 38 be 03 00 3b bd 05 03 4b be cb b0 b4 3b
       -0.1802519 -0.045654308 -0.1982537 0.0055142394
0001c0 5e bd e5 3d 35 dd b3 3d 89 3f 4d be 34 78 47 be
       0.112177595 0.08782426 -0.20043768 -0.19479448
0001d0 eb 2e 2a 3e f2 94 98 bd 63 10 66 3d 7f 8a 97 3c
       0.1661946 -0.07450284 0.05616797 0.018498657
0001e0 3c 89 8e bd d3 8d dd bc c8 b6 b8 3d ff 19 f8 3d
       -0.06959769 -0.027045166 0.09019238 0.12114333
0001f0 47 4f b4 bd 47 99 27 bc 06 57 3a 3e b5 ce 57 3c
       -0.088041835 -0.010229415 0.1819726 0.013171841
000200 02 62 a4 bd e7 fe dd 3d d5 b6 6c bd 31 73 1d 3e
       -0.08026506 0.108396344 -0.05779155 0.15375973
000210 a0 70 16 3c 9a 26 4b bd 63 7e 4d 3e 15 46 ca bd
       0.009182125 -0.04959736 0.20067744 -0.09876648
000220 cb dc cc bd e2 e0 92 bd c3 a5 8e 3d 6e 5b 20 3e
       -0.100030504 -0.07171799 0.0696521 0.15659878
000230 d7 de a5 3d e6 08 1f 3e 67 32 0c bd ee 41 fb bd
       0.08099144 0.15530738 -0.034227755 -0.122684345
000240 af 65 4a bd 37 43 88 ba 29 6e d6 3c d9 18 42 bd
       -0.04941338 -0.0010396008 0.026175575 -0.047386978
000250 78 c6 51 bd c5 d6 9c 3c 2e 1c dd 3b 29 8b f1 bd
       -0.051214665 0.019145379 0.006747744 -0.11794121
000260 04 28 c9 bd 07 42 ec be a2 76 13 be c4 97 c0 3d
       -0.098220855 -0.46144125 -0.14400724 0.09403947
000270 cc 77 15 3e 13 4c 99 3d ce 79 a0 bd 1c 79 87 bd
       0.1459648 0.07485213 -0.078357324 -0.06614897
000280 2f 4b b7 bd 71 94 b2 bd 78 ca 26 be 7d 70 9c 3c
       -0.08949887 -0.08719719 -0.16288173 0.019096607
000290 d4 98 70 3d 88 bf d6 3c dc b1 cd bd cd f1 92 3d
       0.0587395 0.026214376 -0.100436896 0.07175026
0002a0 01 d0 f3 3d 09 a7 57 3e ac 3a 32 3e 6f a3 9e be
       0.11904908 0.21059813 0.17405194 -0.30984065
0002b0 b6 ba 3f be 56 0e 07 be 7a 9d b7 bd c7 1b 65 be
       -0.18723568 -0.13189062 -0.08965583 -0.22373877
0002c0 9f aa 0b bc f1 a8 f5 bd c7 28 33 be 57 1d ff bc
       -0.008524566 -0.11995114 -0.17496024 -0.03114192
0002d0 1b 41 c7 bc 3a d1 86 3d df ce a3 3d db 71 06 be
       -0.024323037 0.065828755 0.07998442 -0.1312937
0002e0 b5 bd c2 bd 16 9a 04 bd 72 b4 c5 bd 26 77 4b bd
       -0.0950884 -0.03237351 -0.09653558 -0.049674176
0002f0 4f b2 35 3e 57 54 d8 bd 63 03 de bd 55 e5 f9 3c
       0.177438 -0.105629615 -0.1084049 0.030504862
000300 20 83 e4 bc d4 d4 28 3e 4b 8d 01 be 36 f5 22 3d
       -0.027894557 0.16487437 -0.12651555 0.039784633
000310 0e 87 c0 3b 58 91 7d 3d a4 00 86 3e f7 eb 8b 3e
       0.005875475 0.06190619 0.26172364 0.27328464
000320 c1 ff a1 3e a5 33 6f 3c ee 87 67 3d a4 e0 25 3e
       0.31640437 0.014599715 0.056526117 0.16198975
000330 54 e7 9d 3d 1f 95 90 bd 9e bb b3 bd 2a de 7c 3e
       0.07710138 -0.070596926 -0.087760195 0.24694124
000340 e2 be c0 3d da ae 07 be 34 4c fe bd cb fa f7 bd
       0.09411408 -0.13250294 -0.12416878 -0.12108382
000350 d8 c7 5a be 7a 3a bc 3d 5a ce 91 bb a8 5c d0 be
       -0.21365297 0.09190841 -0.004449648 -0.4069569
000360 72 e2 e2 bd c0 7b d6 ba b0 bb b3 3b 18 22 5c 3c
       -0.11078347 -0.0016363785 0.0054850206 0.013435863
000370 f7 dc c4 3d 7a ca 2a bd 8f 7d e6 bd a2 1b a2 bd
       0.09612458 -0.041697003 -0.11254417 -0.07915427
000380 15 a8 ce 3d 37 49 d4 bd 40 31 9d bd 9e 33 90 bd
       0.10090653 -0.10365527 -0.07675409 -0.07041095
000390 e1 65 ee 3c 68 41 57 bc b0 02 bf bd b6 36 6c 3d
       0.029101314 -0.013138153 -0.093266845 0.057669364
0003a0 00 08 d2 bd 72 1d 9c bd b8 98 3f 3c 8c 3a b6 3c
       -0.10255432 -0.07622804 0.011694126 0.022244714
0003b0 70 d5 97 3d 43 61 db bd cb 68 8e bd 1a 48 55 bd
       0.07413757 -0.107119106 -0.069535814 -0.052070715
0003c0 0d ab 90 bd 34 d2 5a 3a 11 9b 9a bc 5b 7f 8b 3d
       -0.07063875 0.0008347363 -0.01887277 0.068114005
0003d0 60 ab c0 bd 36 eb 80 3d 50 e5 f7 bd f6 a9 f3 bd
       -0.09407687 0.06294863 -0.12104285 -0.11897652
0003e0 ab 26 5f bc bb 0d f5 bd 3d b2 9b 3d 84 4e 71 3d
       -0.013620059 -0.119655095 0.07602356 0.05891277
0003f0 93 98 cc ba cc b7 07 bd 70 6f 24 3d cc 4e 76 bd
       -0.0015609436 -0.033134267 0.040145338 -0.06013374

conv2.bias f4 [16]
000000 c1 10 97 3b 95 3e c6 3c 54 ec a6 bc 2e 8b 1c be
       0.0046101515 0.024199763 -0.020376362 -0.15287468
000010 3b 66 76 bd a2 03 7c bd 7b be 9d bd 8e f0 13 be
       -0.06015609 -0.061526902 -0.07702347 -0.14447233
000020 30 de 3f be 60 a4 c4 bd 49 23 0f 3b 37 76 0b 3d
       -0.18737102 -0.096016645 0.00218411 0.034048285
000030 45 dd 8b bd fa 09 3c 3c 9d 13 35 bd 07 6d 2c 3d
       -0.06829313 0.011476988 -0.044208158 0.042096164

fc1.weight f4 [120, 576]
000000 91 e4 4a bd 2b a3 11 3c 64 73 b2 bd 89 cd 99 bd
       -0.049534384 0.008889 -0.08713415 -0.07509906
000010 b1 5f 38 bd c1 29 13 bd 8f 47 8e bd ad d8 7f bb
       -0.045013133 -0.03592849 -0.069472425 -0.003903906
000020 86 2d 29 bd f0 60 c1 bc 95 c7 26 3c f5 11 ff 3c
       -0.04130318 -0.023605794 0.01017942 0.031136492
000030 1b 8b 01 3d dd 7c 0b 3c 89 04 39 3c b8 19 b2 bd
       0.031626802 0.008513656 0.011292585 -0.08696312
000040 9a 8b 48 bd 3d 75 14 3c 2e 83 ae bc 0a 79 de bc
       -0.04896126 0.009061155 -0.021302786 -0.027157325
000050 39 6c a6 3b 22 d4 0e bd e5 ec bb bd 4b bd b7 bc
       0.005078819 -0.034870274 -0.091760434 -0.02242913
000060 82 b4 7b ba e6 a5 b7 bb b2 3b ab bb f0 f1 1c bd
       -0.0009601788 -0.0056044934 -0.005225622 -0.038316667
000070 a1 a4 d2 3b 4e d9 c4 bc f2 22 05 3c 6e 86 a1 3b
       0.0064283167 -0.0240294 0.008126007 0.0049293553
000080 e2 e8 5e bd e7 65 d3 bc 0a 20 76 3c a4 4e b1 bc
       -0.054421313 -0.025805427 0.015022287 -0.021643944
000090 0b 69 4c bd 54 a7 9f bd 66 35 16 bd 1a 33 20 bd
       -0.049904864 -0.07795587 -0.03667202 -0.039111234
0000a0 30 aa 38 3c 35 3a 9e bb d6 13 2f bd e7 0d 69 bd
       0.011271045 -0.004828716 -0.042743526 -0.056898024
0000b0 af 9f 24 3d 3d 0c 9f bc 12 0f 59 3c ec e2 c3 3c
       0.04019135 -0.019415015 0.013248222 0.023911916
0000c0 1b 9f 70 3c ef e9 6b bd 84 48 3c bd a1 28 15 3d
       0.014686371 -0.057596143 -0.045967594 0.0364157
0000d0 71 d0 1f bc 9d 27 0e 3c 17 5d a3 bd c0 42 9e bd
       -0.009754286 0.008676437 -0.0797674 -0.07727575
0000e0 6c f4 e3 bc 0b 99 46 bc a7 99 75 bd 7f 99 3e bc
       -0.02782651 -0.012121449 -0.059960987 -0.011633276
0000f0 64 60 a7 bd 18 e8 c8 bb 30 1c c1 3c 28 1a 38 bd
       -0.08172682 -0.0061311834 0.023573011 -0.04494682
000100 eb ff 80 bc fe 27 f3 bc 01 45 f3 3c 60 65 e0 bc
       -0.015747031 -0.029682156 0.02969599 -0.02739209
000110 ed 70 42 bd cb cc a8 3c a1 47 fe 3c e8 13 2b bd
       -0.047470976 0.020605465 0.031040015 -0.04176703
000120 82 65 cb bd 9a e8 ee bc ea fc 07 be ab ff 46 3d
       -0.099314705 -0.029163647 -0.13280073 0.048583668
000130 68 15 5e bc 7d 35 9e bc 9d 88 f7 b9 0c 61 89 3b
       -0.013554908 -0.019312615 -0.00047213296 0.004192477
000140 21 df 4b bd a9 1a 11 3d ad 86 4b 3b e2 49 ce bc
       -0.04977334 0.035425816 0.0031055615 -0.025181714
000150 ea 02 4c bd a6 74 a4 bd 9f d2 6f bd 52 99 6c 3c
       -0.049807467 -0.080300614 -0.058550473 0.014440851
000160 d9 0b 2d bd 0a c9 ad bc 20 20 94 bc b6 c9 23 bd
       -0.042247627 -0.021214027 -0.018081725 -0.03998729
000170 2b 98 8b bd 32 c5 ef 3b d2 81 76 bd 8c e6 9f bd
       -0.06816133 0.0073172087 -0.0601824 -0.07807645
000180 de 57 94 bc dd e7 f2 bc 91 8b c2 bd 2d 7f 82 bc
       -0.018108305 -0.029651577 -0.094992764 -0.015929783
000190 b1 3e 57 bd 28 eb 61 3c c7 28 82 3c fa 3f 62 bc
       -0.05255002 0.013788976 0.015888585 -0.0138091985
0001a0 49 7b 82 bb f0 66 6c bc ee 80 1f bd 23 74 d2 3b
       -0.003981982 -0.014428839 -0.038941316 0.006422536
0001b0 d8 fe 91 3c c0 97 c5 3b 14 a1 11 3c 60 ee 8f bc
       0.017821714 0.006030053 0.008888502 -0.01756972
0001c0 88 15 cf 3b be 1f 82 3c 65 cd 09 3d 84 ad 06 bc
       0.0063197054 0.015884276 0.033643145 -0.00822008
0001d0 45 14 13 3d 86 c8 c0 bc 10 12 07 bb fe 72 cd 3c
       0.035908002 -0.023533117 -0.0020610131 0.025079247
0001e0 fe 43 bd 3c a2 3c 30 bd c0 c9 bf bc 3e 34 cf bc
       0.02310371 -0.043026574 -0.023411632 -0.025293466
0001f0 9a c1 0f bd c4 8c 13 3c 52 b1 02 bd ea 86 bd 3c
       -0.035096742 0.009005729 -0.031907387 0.023135621
000200 8b eb be bc ae 6a b2 bc 7c 9e 0b 3c 8b 23 00 bd
       -0.023305675 -0.021779384 0.008521672 -0.031283896
000210 e5 c7 9d bc f2 c4 3e 3c 94 37 1c 3c b5 31 04 3d
       -0.019260356 0.011643635 0.009534735 0.032273967
000220 23 23 bc bc fa ea d9 3c fe e7 12 bd 04 03 7b 3c
       -0.022965973 0.026601303 -0.035865776 0.015320543
000230 8a 74 a1 3c 32 93 07 bd 00 36 62 ba 02 e4 cd 3c
       0.01970889 -0.03309936 -0.00086292624 0.025133137
000240 e2 8c 2c bd df f3 59 3c d0 a9 58 bd 22 ba 01 3d
       -0.042126544 0.013302772 -0.05289632 0.03167165
000250 66 3b 3d 3d bf 29 54 bd e5 93 24 3c 02 be 87 bd
       0.046199225 -0.051797625 0.010045026 -0.06628038
000260 19 41 76 bd 6e 87 91 3c 4f 98 11 3d cd 99 9a 3c
       -0.060120676 0.017764773 0.035545643 0.018872166
000270 33 e5 14 bc ef 2a c2 bd 06 04 14 bd 9c 3c 0f bd
       -0.0090878485 -0.09480845 -0.03613665 -0.03496991
000280 23 42 00 bc fe 72 a8 bc bc 62 d6 bd 0c 4e a4 bd
       -0.007828268 -0.020562645 -0.10468051 -0.08022699
000290 d8 1a d5 bc c7 36 7e bc b6 85 3d bd 8e 41 75 bd
       -0.026013777 -0.01551599 -0.046270095 -0.05987697
0002a0 85 9b 8a 3c 0b 37 40 3d 69 5c 28 bc 3e 34 65 bb
       0.01691986 0.046927493 -0.010275939 -0.0034973766
0002b0 a8 37 b3 3a 8c 68 94 bd 01 47 0f bd 03 08 92 3c
       0.0013673203 -0.07246503 -0.034979824 0.017826086
0002c0 f3 78 35 bd 5d a7 b8 bc 41 42 53 bd ff 1d 71 bd
       -0.0443048 -0.022540743 -0.051576857 -0.058866497
0002d0 d5 28 00 3c 12 7d 84 3c 36 0a 1e bd 23 44 62 bb
       0.007822235 0.01617292 -0.038583957 -0.0034525476
0002e0 5c 6d 05 3b bd 6d 23 3d 57 a4 31 bc 2c 0c bb 3c
       0.0020359373 0.039899576 -0.010842404 0.022832952
0002f0 22 19 aa 3b ca dd 82 3a 42 06 0d bd e0 d8 b2 ba
       0.0051909843 0.0009984311 -0.034429796 -0.0013644956
000300 59 1c 44 bd 25 23 e1 bc 6f c1 63 bc 31 b7 4d 3c
       -0.047878597 -0.027482579 -0.013901099 0.012555883
000310 4b 52 ca 3c 6e 7c 7f bc 4c ad 85 bb 0c 22 e6 bc
       0.024697443 -0.015593631 -0.0040794965 -0.028092407
000320 21 f3 b3 ba be e0 61 bc 6b 89 4a 3c d9 e5 a3 3c
       -0.0013729074 -0.013786493 0.012361865 0.02000706
000330 98 c4 08 bd a1 7a b3 3c 56 c7 6f bc 62 d1 0f bc
       -0.03339061 0.02190906 -0.014634928 -0.008777948
000340 5f 2b 88 bc e8 69 ab 3c d8 bf da 3c 31 0a bd 3b
       -0.016622243 0.020924523 0.026702806 0.005769037
000350 a1 0b 39 3d 7e 28 3f 3c 58 35 c5 38 c8 8c 5d bb
       0.045177106 0.011667369 9.403628e-05 -0.0033805836
000360 84 14 2d bd 59 0b 98 3c c1 aa 05 bd 00 4d 89 bc
       -0.042255893 0.018560098 -0.032633547 -0.01676035
000370 f1 96 b0 bb e1 2a ee bc c8 f9 e7 bb 9d 82 ce 3c
       -0.0053890874 -0.02907318 -0.007079337 0.025208766
000380 61 08 a6 bc 85 29 f8 bc 43 79 b1 bc d6 ef e2 bc
       -0.020267667 -0.030293236 -0.021664267 -0.027702253
000390 cf 05 5f 3d b2 39 d9 bc 53 11 15 3c 8a 84 97 bd
       0.0544489 -0.02651677 0.009098369 -0.07398327
0003a0 e4 f9 18 bd 16 f3 85 bd ac db 83 bc b5 da 47 bd
       -0.03734769 -0.065405056 -0.016095959 -0.04879256
0003b0 3a 5e 14 bd 1f d0 3a 3d 7d 4d 02 bd 87 c9 08 3d
       -0.036222674 0.045608636 -0.03181218 0.033395316
0003c0 8d d6 da 3b 6e 83 00 bc d4 b7 7f 3d 79 a6 69 bc
       0.0066784085 -0.007843835 0.06243117 -0.014260882
0003d0 8c 5a 7b bd 31 45 52 3a cf ed e8 bc 6c ff ba bc
       -0.06136565 0.00080211746 -0.028433708 -0.022826873
0003e0 44 f4 bc bc ba f8 78 3d 47 66 07 bd 1a a7 4c bd
       -0.023065694 0.06078408 -0.033056524 -0.049964048
0003f0 21 ba c3 bc 4e 8a a9 bc 39 b7 5c 3c 1d 64 72 3c
       -0.023892464 -0.020695832 0.013471418 0.014794377

fc1.bias f4 [120]
000000 43 03 f7 bc 06 4e 51 3d 3e 1d 86 3c 04 94 e0 bc
       -0.030152922 0.0510998 0.016371366 -0.02741433
000010 1f a4 5e bd d3 86 fe 3c 7b f1 92 bd e3 9a dd bc
       -0.054355737 0.031070149 -0.07174965 -0.027051395
000020 5f f0 30 bd a4 e6 d6 3c 82 ba 0d bd 25 d9 4c bc
       -0.043197986 0.026233025 -0.034601696 -0.012502943
000030 57 9d 00 bd c0 5e 9b 3c 2a 46 f5 bc 39 1d 1c bd
       -0.03140005 0.018966079 -0.029940683 -0.038113806
000040 3c d4 86 bd 7b 6c f6 bc 61 ae 9a 3a 68 30 05 bd
       -0.06583449 -0.030081024 0.0011801237 -0.032516867
000050 e3 a4 a3 bc 69 d4 9f bc 46 e3 7e 3d 56 e0 ed 3c
       -0.019976085 -0.019510465 0.062228464 0.029037636
000060 d0 33 9a bc b7 18 56 bd 53 6f 1e bd 99 fe 17 bc
       -0.018823534 -0.052269664 -0.038680386 -0.009277009
000070 e4 a7 98 3c 67 24 f4 3a 41 b2 ec 3c e3 4f 01 3d
       0.018634744 0.0018626571 0.028893592 0.031570327
000080 8b 7f 81 bd 72 2f 3d bd 06 13 e6 bc 00 b8 80 bb
       -0.06323155 -0.046187826 -0.028085243 -0.0039281845
000090 65 6a 8a 3c d3 8c ec 3c 9d 59 f5 bc 4f 16 0b 3d
       0.016896436 0.028875744 -0.029949958 0.033956822
0000a0 4a 70 6c bc f9 5e f9 bc 27 89 8c 3c 41 83 42 3c
       -0.014431069 -0.030440794 0.017155243 0.011872114
0000b0 6a f0 3a bd c7 b8 86 bd 30 31 9f bc c0 a8 86 bd
       -0.045639433 -0.06578212 -0.019432634 -0.06575155
0000c0 f6 fe d5 3d ea 88 8f 3c 90 98 d0 3b 1b 08 c7 bc
       0.104490206 0.01752134 0.006365843 -0.024295857
0000d0 00 5c 1f bc 78 12 12 bd a9 22 97 3c ea 07 20 3d
       -0.009726524 -0.035662144 0.018449144 0.039070047
0000e0 36 08 80 bd 8a f3 9e bc 79 32 31 bd b0 cc 6b 3c
       -0.06251566 -0.019403238 -0.043261025 0.014392063
0000f0 27 df 0b 3d 4c 82 42 bd 83 ce 1c bd 85 1a 1d bd
       0.03414836 -0.047487542 -0.038282882 -0.03835537
000100 e5 b1 0d bd 6b f8 21 bd 1d ca 72 bd 29 13 d9 bc
       -0.03459348 -0.03954355 -0.05927478 -0.026498394
000110 67 36 c7 bd 44 3d 3a 3c a9 c1 88 bd 9d 02 59 bd
       -0.09727173 0.011367146 -0.06677563 -0.052981008
000120 c1 c5 50 bd 5a 54 85 bd 71 9b 0b bd 00 79 c2 bc
       -0.050969843 -0.065102294 -0.034083787 -0.023739338
000130 62 e1 87 3a 61 47 e3 3c 94 3a 52 bd 21 a2 84 bd
       0.0010366852 0.027743997 -0.051325396 -0.06476236
000140 6a a9 82 bd 14 3c 1b bd 33 74 d2 bc 3a 3e 84 3c
       -0.063799694 -0.03789909 -0.025690174 0.016142953
000150 6e 0e f2 bc 87 2b b2 bd 19 00 a3 3d 8e db 85 3c
       -0.029547896 -0.086997084 0.07959003 0.016340043
000160 27 f4 0a 3c 08 88 0f bd ee 38 7e bd b8 3d d5 bc
       0.008481062 -0.03504184 -0.06206601 -0.026030406
000170 6f 9a b8 bd 20 61 64 bd b0 45 c0 bc 1c 11 3c bd
       -0.09013831 -0.055756688 -0.02347073 -0.045914754
000180 74 19 a2 ba ca d5 64 bd b4 d0 d5 bc be 48 2e bd
       -0.0012367205 -0.055867948 -0.026100494 -0.04254984
000190 a6 9c ba bc 7a 89 25 bd ed 3b 4f bd a0 59 62 bd
       -0.022779774 -0.04041431 -0.05059426 -0.055261254
0001a0 29 7f 72 3d 91 b0 92 bd 65 b7 75 3d 2e 8a 47 bd
       0.0592033 -0.071625836 0.05998935 -0.048715763
0001b0 6d c3 01 ba 16 ee 2c bd 2c 6e 92 bb 9d 08 63 3d
       -0.000495008 -0.042219244 -0.0044687 0.055428136
0001c0 f4 13 53 bb 5a 89 28 bd 49 6c 4a bd 9e f7 86 bd
       -0.0032207938 -0.041146614 -0.049419675 -0.06590198
0001d0 b6 9e 48 3d 68 d2 9a bc 98 53 42 bd 8e db 05 3d
       0.048979484 -0.018899158 -0.047443002 0.032680087

fc2.weight f4 [84, 120]
000000 1c f0 98 bd 14 de 74 be 2f e3 37 be 8f 1b 98 3d
       -0.07467672 -0.23912841 -0.17957757 0.074271314
000010 fa 13 84 bd bd a6 24 3e 32 86 3c bc bb db 86 3d
       -0.06449123 0.1607923 -0.011506604 0.06584879
000020 41 d2 1c bd 49 3d 46 3d 15 18 9f bd 01 13 79 be
       -0.03828645 0.04839829 -0.07768265 -0.24323656
000030 30 5b 89 3d 8d 16 2e be 63 83 08 3d cc 00 a7 3d
       0.06706846 -0.1700079 0.033328425 0.08154449
000040 e2 4a 9c 3d f8 8b b8 3d 47 86 1f 3c 4f f3 c7 3c
       0.0763147 0.09011072 0.009736604 0.02440801
000050 db c4 52 bd 49 00 8e bc 7a 4e e4 bd 02 e6 b7 bd
       -0.051457267 -0.01733412 -0.11147781 -0.089794174
000060 ca 10 d6 bd b7 34 b0 bd 60 a0 96 3d 19 2f 00 be
       -0.10452421 -0.086038046 0.07354808 -0.12517966
000070 04 68 44 3d b1 d3 a1 3c 20 ba e7 3d f5 0e fc bd
       0.04795076 0.019754263 0.113147974 -0.1230754
000080 47 ed 29 3d 0e dd 91 3d ce 44 61 3d 6f 8d 6b 3d
       0.04148605 0.07122241 0.054997258 0.05750793
000090 56 0d 07 3e 00 65 fa bd 83 0d b0 3c c5 cd 2a be
       0.13188681 -0.122262955 0.021490818 -0.16680057
0000a0 1a d5 63 3c 07 6d dd 3c 21 59 c4 3d 32 43 6e bc
       0.013905788 0.027029527 0.095873125 -0.014542388
0000b0 88 70 c1 3d 1c 72 32 bd b3 69 98 bd 9f 47 85 bd
       0.09445292 -0.043565854 -0.074420355 -0.06507801
0000c0 56 31 e3 bd 05 84 9a 39 a2 07 5b bd 21 15 43 3e
       -0.110933945 0.0002947153 -0.053474076 0.19051029
0000d0 a0 36 53 be 80 ff 0a bb 6b 83 e4 bd 11 8d 7d bd
       -0.20626307 -0.0021209419 -0.111578785 -0.06190211
0000e0 9d 7a c6 bd c0 e1 bb 3d 86 7e 1f 3e fc b1 b1 bd
       -0.096913554 0.09173918 0.15575609 -0.08676526
0000f0 ae cd 0a be 01 50 90 3d af 00 87 3c e1 21 0f 3d
       -0.13555023 0.070465095 0.016479818 0.03494442
000100 71 07 a2 bd fa 96 90 bd 0c ee 2a 3d ba f9 4f 3d
       -0.079115756 -0.070600465 0.041730925 0.050775267
000110 5e 49 cf bc dd 5b 98 3d 71 ab 7f bd fa 06 8a bd
       -0.025303539 0.074393965 -0.06241936 -0.06739612
000120 5b 73 60 3d cf 26 79 bd c7 aa 0e bd 41 3c 67 3b
       0.05479751 -0.060828026 -0.034830835 0.0035283717
000130 40 48 dc bd 7d 24 bf 3d 5e d5 9d 3d 74 62 5a bd
       -0.10755968 0.093331315 0.07706712 -0.05331655
000140 25 30 5d 3d 03 09 12 3c f0 90 33 3c 5a 28 3b 3e
       0.054000992 0.008913281 0.010959849 0.18277112
000150 1f 3c 19 be 13 06 50 3c e0 92 04 be fe 03 d7 bd
       -0.1496434 0.012696761 -0.12946653 -0.10498808
000160 04 7b bf bd 4e 12 70 3d c8 57 0b bd c6 39 43 bd
       -0.09349635 0.058611207 -0.03401926 -0.04766252
000170 9e 49 aa bb f5 bb 72 bd d1 4b a7 3d b0 39 3a 3d
       -0.005196764 -0.05926128 0.08168758 0.04546517
000180 9e 80 1b 3d 95 52 4f bd 30 f2 67 3d bf 30 50 bd
       0.037964456 -0.050615866 0.056627452 -0.050827738
000190 2b f6 21 bc f4 83 d8 bc f1 bf 27 be c6 c6 16 bd
       -0.009885351 -0.026430108 -0.16381814 -0.03681066
0001a0 08 4f 57 be 30 71 ca 3d 86 75 28 be cf ca 80 3d
       -0.21026242 0.0988487 -0.16451082 0.06288683
0001b0 41 1e 0c 3e a9 0b b8 3d a8 0b e0 3d 72 d0 64 3d
       0.13683416 0.08986599 0.10939723 0.05586285
0001c0 ca d2 80 bd 00 d1 a4 bd 82 a9 20 3d 76 25 b5 3d
       -0.06290205 -0.08047676 0.039224155 0.08845036
0001d0 86 05 29 be 10 34 84 3d c1 01 9a 3d 81 08 3e be
       -0.16506013 0.06455243 0.07519866 -0.18557931
0001e0 cc 5f 68 3d 54 87 c2 bd c0 7b 22 3d 5c c8 94 bc
       0.056731984 -0.09498468 0.0396688 -0.018161945
0001f0 f6 f1 8f bd f2 47 29 bd e4 69 89 bb 17 c9 35 bd
       -0.07028572 -0.041328378 -0.0041935313 -0.044381227
000200 68 73 84 bc 6f 84 0d be cb eb cb bc 8e f7 37 bc
       -0.016168311 -0.1382005 -0.024892708 -0.011228455
000210 bb c2 46 bd a6 5c 10 bd 02 ce 47 bd 87 1e 9e bd
       -0.048525553 -0.035244606 -0.04878045 -0.077206664
000220 74 b6 ef 3c 54 3c 59 3d b0 a6 80 bd a0 d3 3b bd
       0.029261805 0.05303605 -0.06281793 -0.04585612
000230 d1 d3 88 bd 58 a6 99 3d c0 12 93 3c 6d 33 fe bd
       -0.06681026 0.07502431 0.017953277 -0.124121524
000240 2e e4 87 3d 41 ba 88 bd 89 dd 6a bd c0 f0 47 3d
       0.06635319 -0.0667615 -0.05734018 0.04881358
000250 b4 da 05 3c 98 7c 25 3d 62 85 b6 bd 5d 94 a8 bc
       0.008169819 0.040402025 -0.089121595 -0.020578558
000260 40 f7 f8 ba 7c 20 75 3d bb 76 3e bd 27 16 8e 3d
       -0.0018994585 0.059845433 -0.04649995 0.06937819
000270 51 93 40 bd 31 91 81 bd d0 d4 b6 3d 77 8f 92 bb
       -0.047015492 -0.06326521 0.089273095 -0.0044726687
000280 f8 f5 75 bd 29 b3 a9 b9 d6 10 06 bd cc 06 6c 3d
       -0.060049027 -0.00032367677 -0.0327309 0.05762367
000290 08 73 6d 3d 4e 38 ee bc 20 35 11 3d 04 dd f6 bc
       0.05797103 -0.029079583 0.035451055 -0.030134685
0002a0 a5 83 b5 3c 86 75 f1 bc ed fb c8 bd 04 da 4e 3d
       0.0221575 -0.029474985 -0.09813676 0.050500885
0002b0 45 ce 96 bd b6 b1 94 bd 40 fd ec bc 27 11 73 3d
       -0.073635615 -0.07260458 -0.028929353 0.05934253
0002c0 b4 74 97 bd a9 4e ed 3b 90 a6 0e bd ff 2d 73 bd
       -0.07395306 0.007242043 -0.034826815 -0.059370037
0002d0 5a dc ba 3d 40 f5 44 bd 9a 27 b2 bd 22 34 7d bd
       0.0912406 -0.04808545 -0.0869896 -0.061817296
0002e0 a6 79 1a 3d c0 56 e4 3b c1 0a 92 bd e0 89 82 bc
       0.03771367 0.006968349 -0.071309574 -0.015934885
0002f0 fb da a2 bd bc 0c 83 bd 4b a4 b4 bc 10 4e dd 3b
       -0.079519235 -0.06398913 -0.022050997 0.0067536905
000300 20 83 b6 3b 14 09 ad bd 50 83 31 3c 8a e0 00 3d
       0.0055698305 -0.08448997 0.01083453 0.031464137
000310 76 b9 ea 3c 5a 62 a9 bd 30 52 14 3d f0 e4 a2 3b
       0.028652888 -0.08270712 0.036211193 0.004971139
000320 ee 41 48 bd 24 80 7b 3d d8 98 ed 3c 4f 5a d0 3c
       -0.048891 0.0614015 0.029003546 0.025433687
000330 08 88 ab bd 20 38 76 bc 1f 80 6a bb 37 18 6c 3b
       -0.08375555 -0.01502803 -0.0035781933 0.0036025175
000340 b1 32 b7 3c 14 2b 84 3c 24 a6 83 bd ed e2 58 bc
       0.022363039 0.016133823 -0.06428173 -0.013237697
000350 6c 3f ec 3d a2 73 5d bd d2 8e a9 bd 8c c9 45 3d
       0.11535534 -0.054065354 -0.08279194 0.048287913
000360 90 0e 76 3d 1a 04 ab bd 0b d5 3d bc 0e b0 9c 3d
       0.06007248 -0.08350392 -0.011586438 0.07650767
000370 34 c6 58 bd 20 de 4f bb 0b 3a b5 bd 54 da 04 3d
       -0.052923396 -0.003171809 -0.088489614 0.032434776
000380 6f 9d 32 bb 58 4c b4 bc a1 53 bb 3d 50 80 8c bb
       -0.0027254482 -0.02200906 0.0914681 -0.004287757
000390 59 f4 53 3c d1 0a 8e bd fd 48 6d bd 0d d6 a1 3d
       0.012936675 -0.06935657 -0.057930935 0.07902155
0003a0 27 84 a8 bd 82 38 a4 3d c3 78 59 3d 15 0c 7c 3d
       -0.08228331 0.080185905 0.053093683 0.06153496
0003b0 38 43 ac 3d ec 49 a4 3d 43 4d 80 bd 63 1f 26 3d
       0.084112585 0.08021912 -0.062647365 0.040557276
0003c0 46 03 14 3d f7 b7 0d 3e 73 e9 cc 3d 2e 2c 29 3d
       0.036135934 0.13839708 0.100054644 0.0413019
0003d0 63 47 9f bd 8c 97 10 be ff 1a 12 3e fe 31 93 3d
       -0.07777288 -0.1412031 0.1426811 0.0718727
0003e0 d4 e8 4b 3d c8 9d cc bc 83 78 4f bc 29 4d 2f 3e
       0.04978259 -0.02497758 -0.01266301 0.17119278
0003f0 e2 3d 1f 3c fb 48 b7 3d 8f 33 0c bd ee ca af 3d
       0.009719344 0.08949467 -0.034228858 0.08583628

fc2.bias f4 [84]
000000 e2 f6 fc 3d ad 6d 4d bd 45 ee e0 bc cf 10 a1 3d
       0.12351777 -0.050153423 -0.027457366 0.07864534
000010 a9 6a 92 3d 4d 7c ad bd ee 04 b2 3c 22 0a 0b be
       0.0714925 -0.08470974 0.021730866 -0.13578084
000020 92 1b d2 3d c6 2d cd bd 9a c6 2a bd 70 c7 6d bd
       0.10259165 -0.10018496 -0.041693307 -0.058051527
000030 1e 29 cd bd 5b 3b 3d 3d d8 1a 0e 3e 81 60 06 3e
       -0.10017608 0.046199184 0.13877428 0.13122751
000040 9b ed b2 bc d3 8e fe bd 55 16 a7 3d 1d fc 58 bd
       -0.021841815 -0.12429585 0.08158556 -0.05297481
000050 18 67 0c 3e 54 c8 af 3d 32 0e 5f 3d 8b 86 20 3e
       0.13711202 0.085831314 0.054456897 0.15676324
000060 61 e9 ba bd 9a 86 1c bd f4 d9 07 3e 48 35 13 3d
       -0.09126545 -0.038214304 0.13266736 0.035939485
000070 97 e5 30 3e 33 fe f2 bd 7d 3e e5 3d 7c 1d 9d 3a
       0.17275082 -0.11864891 0.11193559 0.0011986936
000080 2e c6 eb 3d 3e 83 02 3e 73 be 2e be 0a 39 90 3d
       0.11512409 0.12745377 -0.17064838 0.07042129
000090 23 a6 45 3e 82 f0 23 be 20 cc ce 3d 5e 21 f7 3d
       0.19301657 -0.16009715 0.100975275 0.12066911
0000a0 12 22 9b 3d c6 8e 3a 3d 83 ef 22 3d 3a e0 7b 3d
       0.07574858 0.045546316 0.039779197 0.061493136
0000b0 d7 69 fa bd 76 53 03 3e 69 88 16 be 1f 2c a3 3d
       -0.122272186 0.12824807 -0.14700474 0.079674
0000c0 d1 3e d1 3d 1e 8d 1e 3e 08 d8 a6 3d f3 68 08 3e
       0.102170594 0.1548352 0.081466734 0.13321285
0000d0 f4 03 ff 3d 51 e9 06 3e fb ff a4 3d 53 28 6d 3d
       0.12451926 0.1317494 0.08056637 0.057899784
0000e0 9f e4 d4 3d e7 ff 07 be 3a 00 ad 3c 79 1e cd 3d
       0.103951685 -0.13281213 0.021118272 0.10015578
0000f0 e4 86 05 3e 14 f5 9d 3d 3a ca c1 3d d8 43 d4 3d
       0.13039738 0.077127606 0.094624 0.10364503
000100 49 13 f6 bd 61 2c bd 3d fb 89 ea 3d ec 5a 9c 3c
       -0.12015397 0.0923698 0.11452099 0.019086324
000110 99 ce ae 3d 8e 82 31 3e 36 0a 01 be cf 09 ec 3d
       0.08535499 0.17334959 -0.12601551 0.11525308
000120 31 1a 93 3d ae 00 39 3d 7c d9 8d bd da 51 ed bd
       0.0718273 0.045166664 -0.069262475 -0.115878776
000130 b3 93 03 3e 0e 23 e4 3a c1 de 0e 3e 60 cb 0b 3d
       0.12849312 0.0017405467 0.13952161 0.0341295
000140 66 a1 fb bd b9 1c 21 3e 24 62 8b bd 4f 21 19 3e
       -0.12286644 0.15733613 -0.06805828 0.14954112

fc3.weight f4 [1, 84]
000000 16 38 26 bd 3d d5 16 3d 7a 9d a6 3d 50 4e ae 3d
       -0.04058083 0.036824454 0.08135505 0.08511031
000010 5f d1 b1 bd 5e 93 a7 bc de 3b 98 3d ae 40 76 bc
       -0.086825125 -0.020456012 0.07433294 -0.015030069
000020 0e 01 a6 bd 89 77 53 3d 8a c1 6b bd 44 35 1e bc
       -0.0810567 0.05162767 -0.05755762 -0.009656254
000030 e1 54 b3 bb 04 37 99 3d 5b 0b 67 bd 8f c5 c5 3d
       -0.005472765 0.074811965 -0.056407314 0.09656822
000040 37 2d b5 bd 03 f2 e0 bc 6a 60 62 bd 4c d1 cc 3c
       -0.08846515 -0.02745915 -0.05526773 0.025002144
000050 fa 55 ae 3d 24 bf 30 bd b0 4e 58 bd e4 7f cd 3d
       0.085124925 -0.043151036 -0.052809417 0.10034159
000060 ef 96 1e 3d 28 e2 f8 3c 31 e2 bd 3d 1e 0a 82 3d
       0.03871816 0.030381277 0.09271658 0.06349586
000070 a7 66 91 3d 07 37 07 3d a8 03 58 bd 82 40 7b 3d
       0.070996575 0.033011463 -0.052737862 0.061340816
000080 be d2 00 3e 13 98 a0 3d 42 71 17 3b ae 9a 6a bd
       0.12580392 0.07841506 0.0023108278 -0.05727642
000090 69 81 db 3d 85 43 24 bb ed 64 3e bd 41 3f b7 3d
       0.107180424 -0.002506466 -0.04648297 0.089476116
0000a0 88 26 7d 3d 0d 9c e7 3d e1 20 b2 3d c3 10 9a bd
       0.061804324 0.11309061 0.086976774 -0.07522728
0000b0 32 7e 8a ba d3 6f 5a bd 02 5b b1 bb e9 c1 c6 3d
       -0.0010566174 -0.0533293 -0.0054124603 0.09704954
0000c0 08 4c d7 3d c3 5c bc bd 00 bd 4f 3d 69 1b a3 bd
       0.10512549 -0.091973804 0.050717354 -0.079642124
0000d0 40 aa 75 bd 01 bd af bd e0 e8 ce bd 04 3d db bd
       -0.059976816 -0.085809715 -0.10103011 -0.10704997
0000e0 68 3b 90 bd 0b 30 81 3d b0 31 61 3d e7 f4 9e 3d
       -0.07042581 0.063079916 0.054979026 0.07761555
0000f0 82 ed ae bd b0 76 49 bd 27 59 cc bd 60 db 84 bd
       -0.08541395 -0.049185455 -0.09977942 -0.06487155
000100 37 cf d9 bc e4 39 c5 3d c5 2b a3 3d 21 f2 b5 bd
       -0.026588066 0.096301824 0.07967333 -0.08884073
000110 63 8a 12 3e ac ea c7 3d 89 37 fe 3b f4 a6 9b bd
       0.14310603 0.09761557 0.007758085 -0.07600203
000120 47 db 9e bd a4 d6 e0 bd 50 bb 20 3c b3 ad b0 3d
       -0.077566676 -0.109784395 0.009810284 0.086268805
000130 c8 ae d6 3d 14 be 68 bd a1 8a 85 bd 57 1d 11 be
       0.10482556 -0.056821898 -0.06520582 -0.14171349
000140 6d e7 08 3c d9 86 5e bd aa 5a fe 3c 79 98 e7 3d
       0.008355957 -0.05432782 0.031049091 0.11308379
