critic_checkpoint.pt (torch, 330853 bytes, 9 tensors)

conv1.weight f4 [8, 14, 3, 3]
0	0xbca064ba	-0.01957928
1	0x3e1ff80c	0.15621966
2	0x3db537fb	0.08848568
3	0xbc50857c	-0.012727138
4	0x3dcc5ab6	0.09978239
5	0x3be6ec0b	0.0070471815
6	0x3cd5ce75	0.026099423
7	0x3e33f33e	0.17573258
8	0x3e0430a8	0.12909186
9	0xbd56466d	-0.052313257
10	0xbdb44ac8	-0.08803326
11	0xbda6d121	-0.08145357
12	0xbdbf2144	-0.09332517
13	0xbe589ea7	-0.21154271
14	0xbdebbde7	-0.115108304
15	0xbd934f7f	-0.07192897
16	0xbde1d5b9	-0.110270925
17	0xbe0ec484	-0.13942152
18	0x3db03a50	0.08604872
19	0x3d1f4cf7	0.03889176
20	0x3c336fb1	0.010951922
21	0xbc8b8dd7	-0.017035408
22	0xbd8539f7	-0.065051965
23	0x3d907edc	0.070554465
24	0xbc8ebd27	-0.01742418
25	0x3caa5844	0.020794041
26	0x3d48c8b8	0.049019545
27	0x3ce7ea7c	0.028310053
28	0xbd7d71f8	-0.061876267
29	0x3c15a638	0.009133868
30	0xbce41e46	-0.027846467
31	0xbd964b4c	-0.073385805
32	0xbd36c9bd	-0.044625986
33	0x3ce9e6b8	0.028552398
34	0xbd9456a8	-0.07243091
35	0x3d76bffc	0.060241684
36	0xbd07653a	-0.03305552
37	0xbdd4d797	-0.10392683
38	0x3e03967f	0.12850378
39	0x3e14a107	0.14514552
40	0xbcd48013	-0.025939977
41	0xbcac42e8	-0.021027997
42	0xb958b0ec	-0.00020665274
43	0x3d400cd3	0.04688723
44	0x3e2f15b9	0.1709813
45	0xbd359ab2	-0.044336982
46	0xbcb6d90d	-0.022320295
47	0xbdfe0f3c	-0.124052495
48	0xbdfa4b47	-0.12221389
49	0xbd0b60ac	-0.03402774
50	0xbdcfebc4	-0.101523906
51	0xbd9f3408	-0.07773596
52	0xbd036b18	-0.032084554
53	0xbe329541	-0.17439748
54	0xbc874806	-0.016513836
55	0x3d6f7457	0.05846056
56	0x3ddbd8e4	0.10734728
57	0xbd2addf3	-0.041715574
58	0xbab440d0	-0.0013752226
59	0x3d852edb	0.065030776
60	0x3de4b12a	0.11166604
61	0x3dfdc6ce	0.123914346
62	0x3e319484	0.1734181
63	0x3c837a89	0.01604964
64	0x3ca24cd9	0.019812034
65	0x3d999a87	0.07500177
66	0xbd016bb3	-0.03159685
67	0x3de8644e	0.113472566
68	0xbddcd860	-0.10783458
69	0x3d80e0f2	0.06292905
70	0x3d835230	0.064121604
71	0x3e03d096	0.12872538
72	0xbc2b3066	-0.010448551
73	0x3ce968c5	0.02849234
74	0x3cdd6c04	0.027029045
75	0xbcc62138	-0.024185762
76	0xbca28c00	-0.019842148
77	0x3d838400	0.064216614
78	0x3aced1e1	0.0015779102
79	0x3cc9ac36	0.02461825
80	0x3a94867c	0.0011331583
81	0x3c5712fe	0.013127087
82	0x3d098aff	0.033579823
83	0xbdc05921	-0.09392
84	0xbb258fda	-0.0025262744
85	0xbd40579a	-0.046958543
86	0x3c0d9ccd	0.008643341
87	0x3ae3700d	0.0017352119
88	0xbcd238ae	-0.025661793
89	0xbd363c5c	-0.044491157
90	0x3dad4fda	0.08462496
91	0x3da8c83a	0.08241315
92	0x3d73c060	0.059509635
93	0x3d445c90	0.047939837
94	0xbd6e6878	-0.058205098
95	0xbd8a09b3	-0.06740131
96	0x3c77ab98	0.015116595
97	0xbcbcca2c	-0.023045622
98	0x3b41d080	0.0029573739
99	0x3d9067e4	0.070510656
100	0x3d8bb44c	0.06821498
101	0xbc2095e8	-0.009801365
102	0xbc5e4448	-0.013566084
103	0x3bf49640	0.0074642003
104	0xbcf8ab00	-0.030354977
105	0xbd8939ec	-0.06700501
106	0xbc84d858	-0.016216442
107	0xbda489e8	-0.08034116
108	0x3dcf7e82	0.10131551
109	0x3cc9d712	0.024638686
110	0x3d729093	0.059219908
111	0x3de89f7d	0.11358545
112	0x3cf9efc5	0.030509839
113	0x3da050fb	0.07827946
114	0xbc6d462b	-0.014482061
115	0x3c9c0840	0.019046903
116	0xbcf976f1	-0.030452223
117	0x3d701f34	0.058623508
118	0x3cab9e6f	0.02094957
119	0xbd589e86	-0.052885555
120	0x3d54f8a3	0.05199493
121	0x3e9a292c	0.30109537
122	0x3c9c8a41	0.019108893
123	0x3cd332dd	0.02578109
124	0xbd7c3d5f	-0.061581966
125	0xbd55adb4	-0.05216761
126	0x3d2664e9	0.04062358
127	0x3ccc815c	0.024964027
128	0x3d9bb93f	0.07603692
129	0xbd558701	-0.052130703
130	0xbcf5b008	-0.029991165
131	0x3dd439e3	0.103626035
132	0x3cc1824d	0.023621703
133	0x3dbe1f87	0.09283357
134	0x3e4fbcc3	0.2028685
135	0xbd8e3fb3	-0.069457434
136	0x3d214377	0.03937098
137	0xbd7b42f0	-0.061343133
138	0xbc8f83af	-0.017518846
139	0xbda90ee4	-0.08254793
140	0xbe54edeb	-0.20793884
141	0xbd0cf27d	-0.034410942
142	0xbe1f3d6e	-0.15550777
143	0xbe3c6b74	-0.18400365
144	0x3c8f78ec	0.017513715
145	0x3d8ef035	0.069794096
146	0xbcaabf6d	-0.020843232
147	0xbb9c33e8	-0.00476693
148	0xbceafcab	-0.028684935
149	0xba4917e3	-0.0007671101
150	0xbd5cfb2a	-0.053950466
151	0xbd8a7218	-0.06760043
152	0xbe080e2c	-0.13286656
153	0xbda3026b	-0.079594456
154	0xbd8090a8	-0.06277591
155	0xbd77df3d	-0.06051563
156	0xbd1007a4	-0.035163537
157	0xbd0f73b3	-0.03502245
158	0x3cb4d14c	0.022072457
159	0xbd32fce5	-0.04369821
160	0x3c76d438	0.015065245
161	0x3be63a50	0.0070259944
162	0x3d2839ec	0.041070864
163	0xbdc69620	-0.09696603
164	0xbcb63457	-0.022241754
165	0x3c94e755	0.018176714
166	0xbca9a1ba	-0.020707
167	0xbcaa5f08	-0.020797268
168	0x3dc1592a	0.09440835
169	0xbdf0e36b	-0.117621265
170	0x3d93f03d	0.07223556
171	0xbdc8b80e	-0.09800731
172	0x3dd79a22	0.105274454
173	0xbdd3b1a2	-0.10336615
174	0xbb2e86ee	-0.0026630717
175	0x3da0f03e	0.078583226
176	0xbd2b7663	-0.04186095
177	0xbd55c9d9	-0.05219445
178	0xbe510221	-0.20410968
179	0xbdccfbeb	-0.10008987
180	0x3a54decd	0.0008120358
181	0x3dd397bb	0.10331675
182	0x3dbac2a3	0.09119155
183	0xbc246081	-0.010032774
184	0xbdf9d9e8	-0.121997654
185	0x3dc9e2f7	0.09857743
186	0xbd62e659	-0.055395458
187	0x3d0da5f1	0.034582082
188	0x3e459034	0.1929329
189	0xbd59364f	-0.05303031
190	0xbd28127d	-0.041033257
191	0xbbbb7153	-0.0057202964
192	0xbd789650	-0.060690224
193	0xbd10fd1d	-0.035397638
194	0x3dae3c91	0.08507646
195	0x3cef2f4b	0.029197356
196	0xbb09d1c2	-0.0021029566
197	0x3dbc251f	0.09186768
198	0x3da7e277	0.081974916
199	0xbc83cc43	-0.01608861
200	0xbc3a56a6	-0.011373198
201	0xbd5f97b3	-0.05458803
202	0xbd8eca97	-0.06972235
203	0xbdb33630	-0.0875057
204	0x3b143329	0.0022613502
205	0x3dff826f	0.1247605
206	0xbde0ed7d	-0.10982797
207	0xbd116ebc	-0.035505995
208	0xbd4b27a6	-0.04959836
209	0x3c6d5ea3	0.014487895
210	0xbc7ed375	-0.015553345
211	0xbcc5b283	-0.024132973
212	0xbda64096	-0.081177875
213	0x3d6bceaf	0.057570156
214	0xbda00d56	-0.07815044
215	0xbd4a4538	-0.04938242
216	0xbd8f24e0	-0.06989455
217	0xbd83ce5e	-0.06435846
218	0x3d746fc4	0.0596769
219	0x3d7eea88	0.062235385
220	0xbc5dde60	-0.013541788
221	0x3cdf9bcc	0.02729597
222	0x3d4cc818	0.04999551
223	0xbbe7e600	-0.0070769787
224	0x3da2ea7a	0.07954879
225	0x3abe4780	0.0014517158
226	0xbd9593c3	-0.07303574
227	0xbbd2a650	-0.0064285174
228	0x3d8be568	0.06830865
229	0x3daab19c	0.083346575
230	0xbd044ecc	-0.03230171
231	0xbd9d27c3	-0.076735996
232	0xbd7f457c	-0.062322125
233	0x3d22f830	0.03978747
234	0xbd8d680d	-0.06904612
235	0xbcc3a48d	-0.023882175
236	0x3cde9e68	0.027175143
237	0xbd957e40	-0.07299471
238	0xbdbd2af4	-0.09236708
239	0xb8bd282e	-9.019706e-05
240	0x3d81c71d	0.06336806
241	0x3de558d9	0.11198587
242	0x3bcd47cc	0.0062646624
243	0x3a829363	0.0009962138
244	0x3d399701	0.045310024
245	0x3c6d1990	0.014471427
246	0x3e792891	0.24331881
247	0x3e7e1b42	0.24815086
248	0xbbf8f1e5	-0.0075971955
249	0x3d4a2c63	0.049358737
250	0x3ca750c4	0.020424254
251	0x3e0d0d24	0.13774544
252	0xbdc6b9cb	-0.09703406
253	0xbdfc1f92	-0.12310709
254	0xbde2d52d	-0.11075816
255	0xbe0cf958	-0.13766992

conv1.bias f4 [8]
0	0xbcb401ec	-0.021973573
1	0xbc8e9be9	-0.017408328
2	0x3dd02e59	0.1016509
3	0x3d842184	0.06451705
4	0x3d5cb9a1	0.053887967
5	0xbda04dac	-0.07827315
6	0xbd02fe98	-0.03198108
7	0x3c13fdff	0.009032725

conv2.weight f4 [16, 8, 3, 3]
0	0xbd266bba	-0.04063008
1	0x3cf31775	0.029674271
2	0xbe57ff5f	-0.2109351
3	0xbe1f0f74	-0.15533239
4	0xbdc436ed	-0.09580789
5	0x3d827f1c	0.063719004
6	0xbdafc98f	-0.08583366
7	0xbbf0db02	-0.0073503265
8	0xbdb13220	-0.08652139
9	0xbcbdf500	-0.023188114
10	0xbc910d06	-0.017706405
11	0xbbfa3057	-0.007635157
12	0x3ab6e8e4	0.0013954905
13	0x3dae00d7	0.08496254
14	0xbd7abaa0	-0.061213136
15	0x3d290bf4	0.041271165
16	0x3e02819a	0.12744752
17	0x3d8b7e95	0.06811253
18	0x3dc397d3	0.095504425
19	0x3daba543	0.083811305
20	0xbdfda6b6	-0.12385313
21	0x3d9398d3	0.07206883
22	0x3d471229	0.048601303
23	0xbd573d66	-0.05254879
24	0xbc5b29c6	-0.013376659
25	0xbd784aae	-0.060618095
26	0xbe343ace	-0.17600557
27	0xbd89f3e6	-0.06735973
28	0xbdac3893	-0.08409228
29	0x3ba287e9	0.0049600494
30	0x3ada26c5	0.0016643634
31	0xbcf5298e	-0.029927041
32	0xbdf2b894	-0.11851612
33	0xbda845fb	-0.08216473
34	0x3db90bd5	0.0903546
35	0xbdd8b418	-0.10581225
36	0xbe1616ca	-0.14657131
37	0x3d0d6629	0.034521256
38	0x3cb399cc	0.021923922
39	0xbdeab311	-0.114599355
40	0x3dfe64f6	0.124216005
41	0x3d91f259	0.07126302
42	0xbd1a76f3	-0.037711095
43	0x3c944287	0.018098129
44	0x3af2ed3d	0.0018533837
45	0xbdbce6e1	-0.09223724
46	0x3da45202	0.08023454
47	0xbe38cd1c	-0.18046993
48	0xbdf28856	-0.1184241
49	0xbd15f330	-0.036608875
50	0xbde6d467	-0.11270981
51	0xbb4ada74	-0.0030952962
52	0x3c1815c4	0.009282533
53	0x3d197b86	0.037471317
54	0x3da96129	0.08270485
55	0x3d3f733f	0.046740767
56	0xbdd5badd	-0.10436032
57	0xbd0526aa	-0.032507576
58	0xbe15da1c	-0.14633983
59	0xbe1e39ba	-0.15451708
60	0xbe03d70d	-0.12875004
61	0xbd6832eb	-0.056689184
62	0xbe6b6504	-0.22987753
63	0xbd525e9a	-0.05135975
64	0xbd961676	-0.07328503
65	0xbbc06d74	-0.005872423
66	0xbde03707	-0.10947996
67	0xbd864bdc	-0.06557438
68	0xbe28fb37	-0.16502081
69	0xbd8fa9ed	-0.07014833
70	0x3d62f302	0.05540753
71	0xbd563393	-0.05229528
72	0x3d938c43	0.07204487
73	0xbd23c60a	-0.039983787
74	0x3d452d6a	0.048139013
75	0x3c6c9e4c	0.014442038
76	0xbe1eb597	-0.15498959
77	0xbc958f70	-0.018256873
78	0xbbb85828	-0.0056257434
79	0xbe0d7318	-0.13813436
80	0xbcf939f5	-0.030423144
81	0x3d0f48ff	0.034981724
82	0x3ca3782b	0.019954761
83	0x3d9f4b1a	0.07777996
84	0x3cb3df07	0.021956934
85	0x3c8e8e1b	0.017401746
86	0x3db2db3d	0.08733223
87	0x3cc4a402	0.024003986
88	0xbcf62146	-0.030045163
89	0xbdddb06b	-0.10824665
90	0xbd3e7573	-0.046498727
91	0xbe03e503	-0.1288033
92	0xbcdf3564	-0.027247138
93	0xbbb9b710	-0.0056675747
94	0x3b2117c5	0.0024580818
95	0x3da1da30	0.07902944
96	0xbb7def64	-0.0038747424
97	0x3c3be25f	0.011467545
98	0x3b916e38	0.004438188
99	0x3d07bdf2	0.03314013
100	0x3d95e473	0.07318964
101	0x3cba0354	0.022706665
102	0x3dce947c	0.10086915
103	0xbcc140b7	-0.023590429
104	0x3d319030	0.0433504
105	0xbcffb226	-0.031212877
106	0xbd806130	-0.06268537
107	0x3cc1fe5f	0.023680864
108	0x3d4704cb	0.048588555
109	0x3dc83f4c	0.09777698
110	0x3d66e4c6	0.05637052
111	0xbcea5029	-0.028602676
112	0x3d5d353d	0.05400585
113	0x3aa2bd9c	0.0012416127
114	0x3d8082bf	0.06274938
115	0x3d8ae2f9	0.06781573
116	0x3d8b69a6	0.0680726
117	0x3ddcef49	0.107878275
118	0x3e05286f	0.13003705
119	0x3d96cc34	0.073631674
120	0xbdf1aae0	-0.1180017
121	0xbe253144	-0.16132075
122	0xbe255a89	-0.16147818
123	0x3dc1761f	0.09446358
124	0x3bf70fe6	0.007539737
125	0xbb6aa53b	-0.0035804051
126	0xbe28d480	-0.16487312
127	0xbe26d404	-0.16291815
128	0xbcdf4d93	-0.02725867
129	0xbe10efea	-0.1415402
130	0xbda94a73	-0.08266153
131	0xbca415d6	-0.020029943
132	0xbd90b477	-0.07065671
133	0x3c901d61	0.017592134
134	0xbc5c16c5	-0.013433163
135	0xbda73cb5	-0.08165876
136	0xbda41f19	-0.08013744
137	0x3d1d89c8	0.038461477
138	0xbdf7f4ae	-0.12107216
139	0x3d8ede16	0.06975953
140	0x3c8897a9	0.01667388
141	0xbe1d5faf	-0.15368532
142	0xbd5a4df4	-0.053297
143	0xbe0d5618	-0.13802373
144	0x3db5facd	0.08885727
145	0xbe0d9399	-0.13825835
146	0x3d97e88a	0.074174
147	0x3d5ee28c	0.05441527
148	0x3db1aa33	0.08675041
149	0xbd131992	-0.035913058
150	0x3c18bfa3	0.0093230335
151	0x3d94acd1	0.072595246
152	0xbdd10f71	-0.10208023
153	0xbcac6d66	-0.021048259
154	0xbdc5d7fb	-0.09660336
155	0x3d999256	0.074986145
156	0x3d4a2c3d	0.049358595
157	0xbb516530	-0.0031951182
158	0x3d45ceea	0.04829303
159	0xbd6ccb1f	-0.0578109
160	0xbced7766	-0.028987598
161	0xbe10d896	-0.14145121
162	0x3d744367	0.059634592
163	0xbd846a53	-0.06465592
164	0x3d5c1f61	0.053740863
165	0xbe1f1bb1	-0.15537907
166	0x3da80739	0.082045026
167	0xbc9b511f	-0.01895958
168	0xbd8f9017	-0.07009905
169	0x3db05c24	0.086113244
170	0xbdc15c2b	-0.09441408
171	0x3e279ab9	0.16367616
172	0xbb9d26e7	-0.0047958973
173	0xbd4d7924	-0.050164357
174	0x3b7aca2b	0.0038267474
175	0x3db85b44	0.090017825
176	0x3c8b3908	0.016994968
177	0x3dc62a94	0.0967609
178	0xbdc5a009	-0.09649665
179	0x3d919f9a	0.0711052
180	0x3e1546cd	0.1457779
181	0xbe23d16f	-0.15997861
182	0xbc879b27	-0.016553475
183	0x3ca32b75	0.019918183
184	0x3c819157	0.015816374
185	0xbe1e0987	-0.15433322
186	0x3dc70615	0.09717957
187	0xbe2d2484	-0.16908461
188	0x3d4a28f2	0.049355455
189	0xbb869d9f	-0.0041081454
190	0x3dfb5dc1	0.122737415
191	0x3d61d4fc	0.05513476
192	0x3d4d8dea	0.050184168
193	0xbd949d5d	-0.07256577
194	0xbdfb4b9b	-0.1227028
195	0x3d203431	0.039112274
196	0xbe22e4ac	-0.15907544
197	0xbe3059a6	-0.17221698
198	0xbdf7f4be	-0.12107228
199	0xbd7b2cb1	-0.061321918
200	0xbc660cb3	-0.014041114
201	0xbdc1d575	-0.09464542
202	0x3e2259de	0.15854594
203	0x3c77b121	0.015117914
204	0xbd389b8d	-0.04507022
205	0xbca50d21	-0.020147862
206	0x3e26a59f	0.16274117
207	0x3dfdbad5	0.12389151
208	0x3d7fb336	0.06242677
209	0xbd1fc48c	-0.0390058
210	0x3cc833f9	0.024438845
211	0xbc284833	-0.01027112
212	0x3c3a7c5b	0.011382188
213	0x3be7f3cf	0.007078625
214	0x3d84da0c	0.06486902
215	0xbc8c8422	-0.01715285
216	0xbe0dd3a0	-0.1385026
217	0xbd122d06	-0.03568747
218	0xbdeeb728	-0.11656028
219	0xbd609545	-0.054829855
220	0xbd99f53c	-0.07517478
221	0xbd788fd2	-0.060684033
222	0x3d6912e7	0.056902792
223	0x3db5cf6c	0.08877453
224	0xbd25f340	-0.040515184
225	0xbd9f2dd1	-0.07772411
226	0x3d7b093f	0.061288115
227	0x3da1e3b1	0.07904757
228	0xbdbf2b38	-0.09334415
229	0xbdf83553	-0.12119546
230	0x3da452f7	0.08023637
231	0x3e056fb4	0.13030893
232	0x3c64ed1c	0.013972547
233	0x3d7cb05d	0.06169163
234	0xbdf60b42	-0.12013866
235	0x3c263be5	0.010146116
236	0xbcabcfdd	-0.02097314
237	0xbd2c33ab	-0.042041462
238	0xbdc4a7a9	-0.09602291
239	0x3cc5c96f	0.024143903
240	0xba42ab78	-0.00074260635
241	0x3d06793a	0.032830454
242	0xbd671a5a	-0.056421615
243	0x3ca0f331	0.019647213
244	0x3dbccdcf	0.092189424
245	0xbc668760	-0.014070362
246	0xbc9b9dea	-0.018996198
247	0x3c52f460	0.012875646
248	0xbdb5b4fa	-0.08872409
249	0x3e3f3142	0.18671134
250	0x3de82fb2	0.11337222
251	0x3e16c510	0.14723611
252	0xbbef6139	-0.007305291
253	0xbd0b9fec	-0.03408806
254	0xbd458f5c	-0.04823242
255	0xbe0538c1	-0.13009931

conv2.bias f4 [16]
0	0xbd2c7ff6	-0.04211422
1	0x3a42f824	0.00074374885
2	0xbd0651e3	-0.032792937
3	0x3cfd97f8	0.030956253
4	0x3d8adfeb	0.0678099
5	0x3c9b54f7	0.018961413
6	0xbd3ae1f9	-0.04562566
7	0xbd9babb8	-0.07601112
8	0xbd952cdd	-0.072839476
9	0xbd0e23d4	-0.034702137
10	0xbd87f861	-0.066391714
11	0xbbd6164b	-0.0065334192
12	0xbd2aa509	-0.041661296
13	0xbd583114	-0.05278118
14	0x3d28f040	0.041244745
15	0xbd3514b5	-0.0442092

fc1.weight f4 [120, 576]
0	0xbd87d5b0	-0.066325545
1	0xbccb9933	-0.024853325
2	0xbd956ace	-0.07295762
3	0xbc32b1f9	-0.01090669
4	0xbcad16b8	-0.021128997
5	0x3d3b86da	0.0457829
6	0xbdcac133	-0.09900131
7	0x3d0b83a6	0.034061097
8	0xbcc2cd59	-0.023779558
9	0x3ce209b5	0.02759252
10	0xbdb1583f	-0.0865941
11	0x3c0052bd	0.007832226
12	0xbc149710	-0.009069219
13	0xbb820cde	-0.003968819
14	0xbd448806	-0.047981285
15	0x3d16a705	0.036780376
16	0x3d33b9e3	0.043878447
17	0x3cc16454	0.02360741
18	0xbd58d65d	-0.052938808
19	0xbd6fc3df	-0.058536407
20	0x3cb9203a	0.022598375
21	0xbd2e4461	-0.04254568
22	0x3d3811dd	0.04493891
23	0x3d15242a	0.03641144
24	0xbd655ad2	-0.055994816
25	0x3a605170	0.0008557057
26	0x3d618aa3	0.055063855
27	0xbcb59ed1	-0.022170456
28	0xbd60909c	-0.05482541
29	0xb963f6c6	-0.00021740337
30	0xbda1aca0	-0.07894254
31	0x3b2104d3	0.0024569526
32	0x3d5c60f5	0.053803403
33	0x3d928f08	0.07156187
34	0xbd600516	-0.05469235
35	0xbd7ce5c2	-0.06174255
36	0xbc05ec49	-0.008174011
37	0xbc272639	-0.010201984
38	0xbc2ce43c	-0.010552462
39	0x3d534866	0.051582716
40	0x3d238aac	0.03992717
41	0x3d59aabe	0.053141348
42	0x3cc866a6	0.02446301
43	0xbcc31238	-0.023812398
44	0xbd1871ee	-0.037218027
45	0x3d28d44b	0.041218083
46	0x3b3cdc5d	0.002881787
47	0x3d2e3658	0.042532295
48	0x3d5772e4	0.052599803
49	0x3d8a83c5	0.06763414
50	0x3daddaae	0.084889755
51	0x3da7650e	0.081735715
52	0x3c96105f	0.018318353
53	0x3ca5c5ce	0.020235922
54	0xbaa14ecf	-0.0012306812
55	0x39f7173f	0.0004712883
56	0x3c51717e	0.012783406
57	0x3cebc0be	0.02877843
58	0x3ce10afb	0.027471056
59	0xbd169510	-0.03676325
60	0x3b8e242d	0.0043378086
61	0xbd08f58d	-0.0334373
62	0x3c09662b	0.008386175
63	0xbd439815	-0.04775246
64	0xbc92df01	-0.017928602
65	0xbc6828e4	-0.014169905
66	0xbc6f276c	-0.014596801
67	0xbcf701a6	-0.030152153
68	0x3cc57b88	0.024106756
69	0x3d2ec11d	0.042664636
70	0x3bd4f8e6	0.0064993976
71	0x3c45a2a1	0.0120626995
72	0x3d215aeb	0.039393347
73	0xbc10ed36	-0.008845618
74	0x3bcb4d07	0.0062042507
75	0x3d3a3d0c	0.045468375
76	0x3da71255	0.081577934
77	0x3d8a5622	0.0675471
78	0x3dc6ca2e	0.097065315
79	0xbcae2e1c	-0.021262221
80	0x3d2dcfe3	0.042434584
81	0x3d7f4f17	0.062331285
82	0x3da33d4f	0.07970678
83	0x3cac19de	0.021008428
84	0x3db0365a	0.08604117
85	0x3d4743f2	0.048648782
86	0x3d83d271	0.06436623
87	0x3d818c9f	0.063256495
88	0x3d961ef5	0.07330123
89	0xbc2a7adf	-0.010405271
90	0x3d81ed4e	0.063440904
91	0x3b6d74de	0.0036232988
92	0x3d86bf65	0.06579474
93	0x3daa4888	0.083146155
94	0xbcb08547	-0.021547927
95	0x3dcfc422	0.10144831
96	0x3c37be58	0.011214815
97	0x3de5287b	0.11189362
98	0xbba2fc20	-0.0049739033
99	0xbd6533ca	-0.055957593
100	0x3c14625b	0.009056653
101	0xbd9bce95	-0.07607762
102	0x3d8ecde3	0.069728635
103	0xbc890f5f	-0.016730962
104	0x3ba73713	0.005103001
105	0x3c0d66e0	0.008630484
106	0x3c856f05	0.01628829
107	0x3ccab24f	0.024743227
108	0x3cf03022	0.029319827
109	0x3cdefad8	0.027219221
110	0x3d836bb5	0.06417028
111	0x3d439129	0.047745857
112	0x3d3f26f0	0.046667993
113	0x3d7680cc	0.060181424
114	0x3d8ded22	0.06929995
115	0x3d32edd1	0.04368383
116	0x3bc856d3	0.006113866
117	0x3d41d2a3	0.04732002
118	0x3dc24f3b	0.09487768
119	0x3dd7c3fa	0.105354264
120	0x3c8ed69c	0.017436318
121	0xbbcd7a8b	-0.006270712
122	0xbc070c66	-0.008242702
123	0x3da48390	0.08032906
124	0x3dc815fc	0.09769818
125	0x3d7a4c74	0.061108068
126	0x3d4621bc	0.048372015
127	0x3c272d7b	0.0102037145
128	0xbc9767e0	-0.018482149
129	0xbd809453	-0.062782906
130	0xbd271bb5	-0.040797908
131	0xbc9ef526	-0.019404005
132	0x3c4915ef	0.012273296
133	0xbcc10719	-0.023562955
134	0xbcf9fd0f	-0.030516176
135	0xbd4886ab	-0.048956554
136	0x3d4e3722	0.050345547
137	0xbc064646	-0.008195465
138	0x3c8a3629	0.016871529
139	0xbc12e7bd	-0.0089663835
140	0x3c786519	0.015160822
141	0x3d5f2624	0.054479733
142	0xba466b88	-0.0007569124
143	0x3d414035	0.047180373
144	0x3d843404	0.06455234
145	0xbd221f3c	-0.03958057
146	0x3c600d59	0.013675057
147	0x3d178747	0.036994245
148	0xbba422c8	-0.005009029
149	0x3ccdaed9	0.025107788
150	0x3d157944	0.0364926
151	0xbbb51e95	-0.0055273273
152	0x3c8e1a1c	0.017346434
153	0xbb40347d	-0.002932816
154	0x3cab15a5	0.020884344
155	0xbc85572f	-0.016276924
156	0x3d9fcb8b	0.078024946
157	0x3dd48c2a	0.10378297
158	0x3d985812	0.07438673
159	0x3d517d71	0.05114502
160	0x39094142	0.00013089649
161	0xbc6a345b	-0.014294709
162	0x3df690ac	0.12039313
163	0x3d7e2bec	0.062053606
164	0x3d9cc7a0	0.07655263
165	0x3d90a90d	0.07063494
166	0x3d987a9c	0.07445261
167	0x3da8fc33	0.08251228
168	0x3dc5e843	0.09663441
169	0x3db73f9c	0.089476794
170	0x3dbf80ca	0.093507364
171	0x3d4b92bf	0.049700495
172	0xbae24a12	-0.0017264506
173	0x3d61f4f7	0.055165257
174	0x3cc8b7f9	0.024501787
175	0xbc15764f	-0.009122445
176	0xbd9242b7	-0.07141631
177	0xbd22d0ca	-0.039749898
178	0xbd128e97	-0.035780516
179	0x3c024225	0.00795034
180	0x3d536aa9	0.05161539
181	0x3e235fb4	0.15954477
182	0x3c2517b8	0.010076456
183	0x3cc7ab4f	0.024373678
184	0x3dccc360	0.09998202
185	0x3d4a7737	0.0494301
186	0xbd6076bc	-0.054800734
187	0x3d0a8b78	0.033824414
188	0xbd1b4537	-0.037907805
189	0x3da8377f	0.0821371
190	0x3b9bc898	0.0047541372
191	0xbae43e69	-0.0017413619
192	0x3d22821a	0.039674856
193	0x3d8fb2e7	0.07016545
194	0xbb6d89f5	-0.003624556
195	0x3c4ae13f	0.012382804
196	0x3c6aff50	0.014343098
197	0xbb2aec12	-0.002608065
198	0xbd0f1e58	-0.034941047
199	0x3d08192a	0.033227123
200	0x3c96211d	0.018326337
201	0x3d84d4ae	0.06485878
202	0x3d6201bd	0.05517744
203	0x3d1e1f16	0.038603865
204	0x3d3f3f6a	0.046691336
205	0x3d7119f0	0.058862627
206	0x3e020b51	0.1269963
207	0x3d93eeee	0.072233066
208	0x3d9f5e06	0.077816054
209	0x3dab95c2	0.083781734
210	0x3cd1ae7c	0.025595896
211	0xbcda4f7d	-0.026649231
212	0x3dd9b37d	0.10629938
213	0xbcbd2d99	-0.023093032
214	0x3e05a88e	0.1305258
215	0x3e547027	0.20745908
216	0x3cf9689d	0.030445391
217	0xbc7f8fb1	-0.015598224
218	0x3d0da43f	0.034580465
219	0xbb87264f	-0.00412444
220	0x3c838d23	0.01605851
221	0x3d46b8d6	0.048516117
222	0x3d13191c	0.035912618
223	0x3d98f03d	0.07467697
224	0x3cff4d0d	0.03116467
225	0x3d2f589c	0.042809114
226	0x3c66ac58	0.014079176
227	0xbb23c01f	-0.002498634
228	0x3c80a50d	0.015703702
229	0xbd40502d	-0.04695146
230	0xbc1172b0	-0.008877441
231	0x3cb09bd8	0.021558687
232	0xbc91b290	-0.01778534
233	0x3d5573b5	0.0521123
234	0x3d3c9b47	0.04604652
235	0xbb870fc0	-0.0041217506
236	0xbd9e8f14	-0.07742134
237	0x3b051e61	0.0020312297
238	0xbc099ded	-0.008399469
239	0x3cbc37dc	0.022975855
240	0x3d397f68	0.04528752
241	0x3c91f25c	0.017815761
242	0x3c447304	0.0119903125
243	0xbca84e74	-0.020545222
244	0xbc3a00ee	-0.011352761
245	0x3d3b5e8b	0.04574446
246	0x3a80ab7a	0.0009816729
247	0xbce5ea4a	-0.02806582
248	0x3a64670f	0.00087128667
249	0x3d4b3fbe	0.049621336
250	0xbc8945d1	-0.016756924
251	0x3be1c0be	0.0068894317
252	0x3b02e02d	0.0019970045
253	0x3d1a86f3	0.037726354
254	0xbcd53f50	-0.026031166
255	0x3c7e52b8	0.015522651

fc1.bias f4 [120]
0	0x3d17a549	0.037022863
1	0x3dc8fcd1	0.09813846
2	0x3cc37ee5	0.023864219
3	0xbc33a753	-0.010965186
4	0xbc375f26	-0.011192119
5	0xbcf2b59c	-0.029627614
6	0xbc592d87	-0.0132554835
7	0x3d9893ab	0.074500404
8	0x3dd34b12	0.10317053
9	0x3c0e4ebd	0.008685765
10	0xbcfb5b3d	-0.030683154
11	0x3d88a33e	0.06671761
12	0x3db55420	0.08853936
13	0xbd37e744	-0.044898286
14	0xbcdbf52a	-0.026850302
15	0x3c1903a6	0.009339249
16	0x3d36868f	0.04456192
17	0xbd5ab9cb	-0.053399842
18	0xbc6502b9	-0.0139777
19	0x3d56f1b7	0.05247661
20	0x3d08416f	0.033265527
21	0x3d44e605	0.048070926
22	0xbd9eadef	-0.07748019
23	0xbc297c60	-0.010344595
24	0xbd3389e4	-0.043832675
25	0xbd192ed2	-0.037398167
26	0xbc376f3d	-0.011195955
27	0xbd2831c1	-0.041063074
28	0xbd78a878	-0.06070754
29	0x3c1b1102	0.009464504
30	0xbcb473e0	-0.02202791
31	0x3cc5f830	0.024166197
32	0xbc82b28c	-0.015954278
33	0x3dbbc32d	0.09168086
34	0x3d36e175	0.044648606
35	0xbd214cac	-0.03937976
36	0x3d6874b8	0.056751937
37	0xbcc04b36	-0.023473363
38	0xbaeacda7	-0.0017914072
39	0xbce559ef	-0.027996985
40	0xbda64c7d	-0.08120058
41	0xbcb72dd9	-0.022360729
42	0xbb866484	-0.004101338
43	0xbb844148	-0.0040361024
44	0x3d3df9c4	0.046380773
45	0xbc63a103	-0.013893369
46	0xbd4b4a2d	-0.049631286
47	0xbd55e482	-0.052219875
48	0xbc5b3fb4	-0.013381887
49	0xbcf215ea	-0.029551465
50	0x3d46f852	0.04857666
51	0x3df6cb29	0.120504685
52	0x3d720650	0.05908805
53	0xbd5181dd	-0.051149238
54	0xbd1c47b0	-0.038154304
55	0x3dad1f78	0.08453268
56	0xbd53b427	-0.05168548
57	0x3d31f4f9	0.043446515
58	0xbc144374	-0.009049285
59	0xbd53689b	-0.05161343
60	0x3d390ed3	0.045180153
61	0xbd8b105a	-0.06790228
62	0xbc5bcd71	-0.01341568
63	0xbd1e8428	-0.038700253
64	0x3b9d7c88	0.004806105
65	0xbd0d381e	-0.034477346
66	0x3cc74c9c	0.024328522
67	0x3d61c930	0.055123508
68	0xbccaf581	-0.024775269
69	0x3d61f996	0.055169664
70	0x3d0397fd	0.03212737
71	0xbd9c4ea1	-0.07632185
72	0xbd254467	-0.040348437
73	0x3cd29540	0.025705934
74	0x3c9d2d4e	0.019186642
75	0xbbce8418	-0.006302368
76	0xbd33988a	-0.043846644
77	0xbc828ae5	-0.01593537
78	0x3df6b421	0.120460756
79	0x3da72ec5	0.081632175
80	0x3a8c1646	0.001068779
81	0xbd38231a	-0.04495535
82	0x3d43853f	0.047734495
83	0xbb808712	-0.0039223516
84	0x3a8ffaaa	0.0010984738
85	0xbccd46b6	-0.025058132
86	0xbb6f6d94	-0.003653382
87	0xbcab7768	-0.02093096
88	0x3d98f356	0.07468288
89	0xbd132254	-0.03592141
90	0xbd1997f1	-0.03749842
91	0x3d0f0f92	0.03492696
92	0x3d4dfb6d	0.050288606
93	0xbc3e4009	-0.011611947
94	0xbd19e1b2	-0.037568755
95	0xbbe45554	-0.0069681797
96	0xbd3df7d5	-0.04637893
97	0xbcdf18a4	-0.02723343
98	0x3d66efe7	0.056381132
99	0x3d58e6c0	0.052954435
100	0xbd6d0816	-0.05786904
101	0xbd51c2e4	-0.051211253
102	0xbd7b5e90	-0.06136948
103	0x3d222a08	0.039590865
104	0x3ddbb346	0.10727553
105	0xbd0a98d5	-0.03383716
106	0xbb835fc3	-0.0040092184
107	0x3cd002a2	0.02539188
108	0xbca13403	-0.019678121
109	0xbc40f5c7	-0.011777348
110	0xbd1133a3	-0.035449635
111	0x3dd5af14	0.10433784
112	0xbd11e156	-0.035615288
113	0xbba07b0f	-0.004897482
114	0x3c664d3c	0.0140565
115	0xbc3e13b6	-0.011601379
116	0xbd4b8e4f	-0.049696263
117	0x3cc9313c	0.02455961
118	0xbbd25601	-0.006418944
119	0xbd0be8e0	-0.034157634

fc2.weight f4 [84, 120]
0	0xbdb28649	-0.08717019
1	0x3dbf90d3	0.09353795
2	0x3def2583	0.11677077
3	0xbcb541c7	-0.022126092
4	0x3d5529ce	0.05204182
5	0xbd011d71	-0.03152222
6	0x3d34b0e2	0.044114
7	0xbd726d26	-0.059186123
8	0x3e47b8da	0.19504109
9	0x3d4a195b	0.049340587
10	0x3ce2dad2	0.027692232
11	0xbca78208	-0.020447746
12	0x3e273830	0.16330028
13	0xbdaf276d	-0.08552442
14	0xbd676798	-0.05649528
15	0xbd9c10ce	-0.07620393
16	0xbd7feeff	-0.062483784
17	0xbd79427e	-0.060854428
18	0x3d93c598	0.072154224
19	0x3cf59228	0.02997692
20	0xb9c30dcb	-0.00037203575
21	0xbe01f723	-0.12691931
22	0xba820463	-0.000991952
23	0xbb89942a	-0.0041985707
24	0xbd1e99a0	-0.038720727
25	0xbd987880	-0.074448586
26	0xbd8b7541	-0.06809474
27	0x3d9304f6	0.071786806
28	0xbd433bc9	-0.047664437
29	0xbe1e7abd	-0.15476508
30	0xbb8a96a6	-0.0042293845
31	0x3d9ff949	0.07811219
32	0x3d328485	0.04358341
33	0x3d39e460	0.04538381
34	0xbdb4d033	-0.08828773
35	0x3c9a20c2	0.018814448
36	0x3dd6e553	0.10492959
37	0xbd4548b8	-0.048165053
38	0x3bdfea58	0.006833356
39	0xbda354ad	-0.07975135
40	0x3ca51e6c	0.020156108
41	0x3dbf7596	0.093485996
42	0x3cb93272	0.022607062
43	0xbd82161a	-0.06351872
44	0x3df7e051	0.12103332
45	0x3d0151b4	0.03157206
46	0xbcdd14dc	-0.026987486
47	0xbdcd1b32	-0.10014953
48	0x3cd5ff45	0.026122699
49	0xbd86f885	-0.0659037
50	0x3d572d42	0.052533396
51	0x3e70c83f	0.23513888
52	0xbd943c6d	-0.07238088
53	0xbd80fda5	-0.06298379
54	0xbdf0271c	-0.117262095
55	0xbdece600	-0.115673065
56	0xbd8389d6	-0.064227745
57	0xbd2ca9b9	-0.042154048
58	0x3d2b6e05	0.04185297
59	0xbbca2bb1	-0.006169759
60	0xbd8a58a7	-0.0675519
61	0xbd852cde	-0.06502698
62	0x3d5eaee3	0.054366004
63	0x3c4baa66	0.012430763
64	0x3c954f4b	0.018226286
65	0x3ce4da2f	0.02793607
66	0xbcc0e5c3	-0.023547059
67	0xbd9ff9cb	-0.07811316
68	0xbd4fb96b	-0.050713938
69	0xbe0274bf	-0.12739848
70	0x3cdfaae0	0.02730316
71	0xbdc086a7	-0.09400683
72	0xbd5108ee	-0.051033907
73	0xbc2b1413	-0.010441798
74	0xbd578194	-0.05261381
75	0xbd2ef475	-0.0427136
76	0x3da2b78a	0.079451635
77	0x3ccd17cd	0.025035763
78	0x3e270608	0.16310894
79	0x3e118227	0.14209805
80	0xbd92a9bb	-0.0716128
81	0xbd0bf52a	-0.034169354
82	0x3d3ea533	0.046544265
83	0x3d7e7b86	0.06212952
84	0x3cb77bec	0.022397958
85	0xbd8ee093	-0.06976428
86	0x3db3e8e8	0.08784658
87	0x3d3743ae	0.04474228
88	0x3d906ead	0.0705236
89	0xbd233ffe	-0.03985595
90	0x3cf26c78	0.029592738
91	0xbce38366	-0.027772617
92	0x3cbee63f	0.02330315
93	0xbcc4919f	-0.023995219
94	0x3d20c848	0.039253503
95	0x3d561a63	0.052271258
96	0xbd0be5c3	-0.034154665
97	0xbd1dbb4b	-0.038508695
98	0xbd36fd1c	-0.044674978
99	0xbc39d51c	-0.011342313
100	0x3c927fb5	0.017883161
101	0xbaea58a1	-0.0017879197
102	0xbda457a5	-0.08024529
103	0xbd5a2a3e	-0.05326294
104	0x3d9618c6	0.07328944
105	0x3d3fb699	0.046804998
106	0xbd41dd43	-0.047330152
107	0xbdf88bd6	-0.121360466
108	0x3c2a4d59	0.010394418
109	0x3d775a62	0.06038893
110	0x3d8c4681	0.06849385
111	0x3dec3c21	0.11534906
112	0xbd81d45c	-0.063393325
113	0xbda3e468	-0.080025494
114	0xbded0c5c	-0.11574623
115	0x3dae1e88	0.08501917
116	0xbd6ccbad	-0.057811428
117	0x3dbb0bec	0.09133133
118	0xbd88320a	-0.06650169
119	0x3d880ec6	0.06643443
120	0xbd821876	-0.06352322
121	0xbd5f22d8	-0.05447659
122	0xbdc111df	-0.09427237
123	0x3d34fccf	0.04418641
124	0xbd89ebe3	-0.06734445
125	0x3da016ca	0.07816847
126	0x3d8294be	0.063760266
127	0xbd1324ce	-0.03592377
128	0xbdbe29bc	-0.09285304
129	0x3d8d528f	0.069005124
130	0x3d344dd3	0.04401953
131	0xbd2b8cd4	-0.04188235
132	0x3cfbed5d	0.030752832
133	0x3bc9fec3	0.006164403
134	0x3cdd7468	0.027033046
135	0xbd95924b	-0.07303294
136	0xbdd10313	-0.102056645
137	0xbc9c83dd	-0.019105846
138	0xbb209b00	-0.002450645
139	0x3d7dbfe8	0.061950594
140	0x3d35d5be	0.044393294
141	0xbc75b665	-0.0149970995
142	0x3da7cdbf	0.0819354
143	0xbc9a87a8	-0.018863514
144	0xbd17845a	-0.036991455
145	0xbb8df8f1	-0.0043326546
146	0x3da7f016	0.0820009
147	0xbd86e42a	-0.065864876
148	0xbcb043ac	-0.021516643
149	0xbd6d21d3	-0.057893585
150	0xbd7e97b2	-0.062156387
151	0xbd1904b7	-0.037358012
152	0x3cf2d9b8	0.029644832
153	0x3d058b24	0.032603398
154	0xbd9d5871	-0.076828845
155	0xbc9fbc99	-0.01949911
156	0xbd1b350a	-0.03789238
157	0x3d42e54c	0.047581956
158	0xbd7e2658	-0.062048286
159	0x3ccd6f53	0.025077498
160	0xbd8dddfe	-0.06927107
161	0xbcddd96c	-0.027081214
162	0xbb8dd0a1	-0.004327849
163	0xbcef7df5	-0.029234866
164	0xbd1f5308	-0.038897544
165	0x3d53b0dc	0.051682338
166	0xbd3ffab0	-0.046869934
167	0xbd5881fc	-0.052858338
168	0x3d2d07ba	0.042243697
169	0xbd73397c	-0.059380993
170	0xbca228b8	-0.019794807
171	0x3d3d555d	0.046223987
172	0xbcaec392	-0.02133349
173	0xbd9e67a8	-0.077346146
174	0xbdb71ad5	-0.08940665
175	0xbc9610c7	-0.018318547
176	0xbd88392c	-0.0665153
177	0x3d8a3c5f	0.06749796
178	0xbd6a7172	-0.057237096
179	0x3c1b4468	0.009476759
180	0x3ca5dc04	0.020246513
181	0x3d832ff4	0.06405631
182	0x3b008a80	0.0019613802
183	0x3bf57368	0.007490564
184	0x3caccbf0	0.021093339
185	0x3daa7cb6	0.08324568
186	0x3d73b21d	0.059496034
187	0xbe051f5a	-0.13000241
188	0xbd84c600	-0.06483078
189	0x3bfb922a	0.007677336
190	0x3d4329f4	0.04764743
191	0x3d32a927	0.043618347
192	0x3dbe901c	0.093048304
193	0xbd9d4fc7	-0.07681232
194	0x3d33978d	0.043845702
195	0xbd6ba80d	-0.057533313
196	0xbdba2281	-0.09088612
197	0x3cb71e6f	0.022353379
198	0x3c520906	0.012819534
199	0x3c575388	0.013142474
200	0xbcc0a3cb	-0.023515603
201	0xbdaed999	-0.08537597
202	0xbd933249	-0.071873255
203	0x3d7fd36b	0.062457483
204	0xbda3268d	-0.07966337
205	0xbda9df85	-0.08294586
206	0xbd6ff37c	-0.058581814
207	0x3db0f638	0.086407125
208	0xbd13f005	-0.036117572
209	0x3b966fd2	0.0045909667
210	0xbaeccc80	-0.0018066317
211	0x3d117666	0.035513304
212	0x3d901c40	0.07036638
213	0xbcc893e0	-0.024484575
214	0x3d04bf4d	0.032409
215	0x3d84e118	0.06488246
216	0x3d53d980	0.051721096
217	0xbda18806	-0.078872725
218	0xbe1369d2	-0.14395836
219	0xbb5a8118	-0.0033341106
220	0xbd02a67f	-0.031897064
221	0xbcd16d68	-0.025564864
222	0x3cda61dc	0.026657991
223	0xbda5e9fc	-0.081012696
224	0x3c9ba099	0.018997477
225	0x3d8ba6e0	0.06818938
226	0x3d18bbfe	0.03728866
227	0x3ca5a4f6	0.020220261
228	0xbd86f1a5	-0.06589059
229	0xbca72604	-0.02040387
230	0x3d2dcfe0	0.042434573
231	0x3d1cb0ea	0.038254656
232	0xbd828726	-0.06373434
233	0x3cd55e46	0.02604593
234	0x3d2da6dd	0.04239546
235	0x3d775c27	0.060390618
236	0x3d3bce54	0.045851067
237	0xbd2aadec	-0.04166977
238	0xbd17cbdf	-0.03705966
239	0x3d94ff98	0.07275313
240	0x3d40a213	0.047029566
241	0x3cc08441	0.023500564
242	0xbdebcab7	-0.11513274
243	0x3d48ff1d	0.04907142
244	0x3d3484fa	0.04407213
245	0x3dc58a33	0.096455
246	0xbd2e4b9e	-0.042552583
247	0xbdbe2653	-0.092846535
248	0xbd9b8529	-0.07593758
249	0xbc9115a8	-0.017710522
250	0x3c318cd6	0.010836801
251	0xba7ff99c	-0.0009764673
252	0x3c23edde	0.010005442
253	0xbd82413b	-0.06360098
254	0xbdb6b7f0	-0.08921802
255	0xbdd83159	-0.10556287

fc2.bias f4 [84]
0	0x3e0079b9	0.12546434
1	0xbd84de50	-0.06487715
2	0xbd13cf76	-0.036086522
3	0x3d5ca6ba	0.05386994
4	0x3cf9a0b8	0.030472144
5	0x3e1d125b	0.15339033
6	0xbe02c2b7	-0.1276959
7	0xbd9fb75d	-0.07798646
8	0x3e16005e	0.14648578
9	0x3d89cfdf	0.067291014
10	0x3ccc4737	0.024936302
11	0x3de80332	0.113287345
12	0xbe0f4026	-0.13989314
13	0x3d2f7422	0.042835362
14	0x3dd8db71	0.1058873
15	0xbc4cb1c9	-0.012493559
16	0x3de6eed9	0.11276025
17	0xbd8aa8c7	-0.06770473
18	0xbd9b29d2	-0.07576336
19	0xbdae1bd3	-0.08501401
20	0xbda1ff26	-0.07909994
21	0x3d66e746	0.056372903
22	0xbd59d567	-0.053182032
23	0xbdd45b51	-0.1036898
24	0x3dcbe420	0.09955621
25	0x3d94eccb	0.07271727
26	0xbdfd6e90	-0.12374604
27	0x3ded20f1	0.11578549
28	0x3de9a204	0.11407855
29	0x3dc24044	0.09484914
30	0xbd49229e	-0.04910528
31	0x3d37adfc	0.04484366
32	0xbc101db2	-0.008796142
33	0x3d30b5f7	0.043142285
34	0xbbec15e9	-0.0072047603
35	0x3d6959d3	0.05697043
36	0x3d5a5a62	0.053308852
37	0x3d0fcd6c	0.035108015
38	0x3d93739f	0.07199787
39	0x3d017579	0.03160617
40	0x3dad5254	0.084629685
41	0xbd43ecba	-0.047833182
42	0x3dbfc3a3	0.093634866
43	0x3e1a5f61	0.15075447
44	0x3dbd233a	0.092352346
45	0x3d68e8ce	0.056862645
46	0x3d0f4847	0.03498104
47	0xbda1c416	-0.078987285
48	0x3e011c44	0.12608439
49	0xbcb4980a	-0.022045154
50	0x3d3d6522	0.046239026
51	0xbdb5a6be	-0.08869694
52	0xbd99b7be	-0.07505749
53	0xbd3ca047	-0.04605129
54	0x3d8c9e13	0.06866088
55	0x3dc25577	0.094889574
56	0x3bce82b6	0.006302203
57	0xbdf6e3d9	-0.12055177
58	0xbd1b50f3	-0.037918996
59	0x3d838785	0.06422333
60	0x3db538c7	0.0884872
61	0x3dcf6ca2	0.10128142
62	0xbd44a249	-0.04800633
63	0xbde2e77f	-0.110793106
64	0xbdb47534	-0.08811417
65	0xbdc30d9a	-0.09524079
66	0x3d98eb9e	0.074668154
67	0xbde0a18a	-0.10968311
68	0x3c5b2109	0.013374575
69	0x3dbf08e8	0.093278706
70	0x3dd13f65	0.1021717
71	0x3d920b2e	0.071310386
72	0x3d5f245f	0.054478046
73	0x3e006bd9	0.1254114
74	0xbdd3823a	-0.10327573
75	0x3de2f4e3	0.11081865
76	0xbd37f641	-0.04491258
77	0x3de61edf	0.11236357
78	0x3def479d	0.11683581
79	0x3dedfc4f	0.1162039
80	0x3ca87e4c	0.020568036
81	0xbce9eb7f	-0.028554676
82	0xbdc7d5dd	-0.09757588
83	0x3dca29e9	0.09871275

fc3.weight f4 [1, 84]
0	0x3e22f318	0.15913045
1	0xbc9acb1d	-0.01889568
2	0xbd36860d	-0.044561435
3	0xbc8f49b0	-0.017491192
4	0x3e204975	0.15653022
5	0xbe029e49	-0.12755693
6	0x3c99513c	0.018715493
7	0x3cae5f0e	0.02128556
8	0xbe0def80	-0.13860893
9	0xbcd92379	-0.026506172
10	0xbda2d638	-0.07951015
11	0xbd84580e	-0.064621076
12	0x3d7bf1f2	0.061510034
13	0x3e137dce	0.1440346
14	0x3e0e1f7e	0.13879201
15	0x3820f3bd	3.837397e-05
16	0xbd994eda	-0.07485743
17	0xbb0ede82	-0.0021800105
18	0x3db2ac2b	0.08724245
19	0x3b0ce787	0.0021500306
20	0x3d5cab8d	0.05387454
21	0xbd8b0066	-0.06787185
22	0x3a72bfdd	0.0009260157
23	0xbb2a9e0d	-0.0026034147
24	0xbdb9f7b7	-0.09080451
25	0x3de6184c	0.11235103
26	0x3c721840	0.014776289
27	0xbddc4001	-0.10754395
28	0xbd91b0c6	-0.07113795
29	0x3dbdf09b	0.092744075
30	0x3ba7db0d	0.0051225484
31	0xbdae3a79	-0.085072465
32	0xba6864ad	-0.00088650995
33	0xbdb54107	-0.088502936
34	0xba4d139a	-0.000782305
35	0xbd65097e	-0.055917256
36	0xbd539a37	-0.051660743
37	0xbe0d3ba5	-0.13792284
38	0xbd419c7b	-0.047268372
39	0xbd246c06	-0.04014208
40	0xbdc5bdb7	-0.09655326
41	0x3b692ccd	0.0035579682
42	0x3e2035d5	0.15645535
43	0xbd8a87bf	-0.06764173
44	0xbd7e1f0c	-0.062041327
45	0x3df7e7d1	0.12104762
46	0xbd764afe	-0.060130112
47	0x3ce87949	0.028378146
48	0x3e038668	0.1284424
49	0xbd4ba5b4	-0.049718574
50	0xbd684d7a	-0.056714512
51	0x3d0775f4	0.033071473
52	0xbb026692	-0.0019897562
53	0x3b99da05	0.0046951794
54	0xbd942dac	-0.07235274
55	0x3daf43aa	0.08557828
56	0x3b901d0b	0.0043979934
57	0x3c88a689	0.016680973
58	0xbc60cbab	-0.013720433
59	0xbd772374	-0.060336545
60	0x3e02aa79	0.12760343
61	0x3dd95ec7	0.106137805
62	0xbd7a477f	-0.06110334
63	0x39a08ee7	0.0003062405
64	0xbd304c78	-0.043041676
65	0xbd0c045c	-0.034183845
66	0x3e0c5f56	0.13708243
67	0x3d860329	0.065435715
68	0xbd0ed82a	-0.03487412
69	0x3e0eaf3b	0.13934033
70	0xbda1afbc	-0.07894847
71	0x3e07bbdb	0.13255255
72	0xbd1901c9	-0.037355218
73	0x3e0136c4	0.12618548
74	0xbba1d640	-0.0049388707
75	0xbd1f1023	-0.03883375
76	0x3b7a2780	0.0038170516
77	0x3db41256	0.0879256
78	0xbdef6f5f	-0.11691164
79	0xbd826748	-0.063673556
80	0x3e00bde3	0.12572436
81	0x3b79c4d3	0.00381117
82	0x3d579683	0.052633774
83	0xbd928a71	-0.07155312
