manyvillager_policy_checkpoint.pt (torch, 568485 bytes, 10 tensors)

conv1.weight f4 [8, 14, 3, 3]
0	0x3ba263ba	0.004955736
1	0xbe1ce4e5	-0.15321691
2	0xbc44aad2	-0.012003617
3	0xbd41750b	-0.04723076
4	0xbe008e2d	-0.12554236
5	0xbc4cc2af	-0.012497588
6	0xbbff9994	-0.0078002904
7	0xbd9c1931	-0.076219924
8	0xbc714ffd	-0.014728543
9	0xbd976c7a	-0.07393737
10	0x3d144596	0.036199175
11	0xbdd1cb4c	-0.10243854
12	0x3d2ff7c7	0.04296091
13	0xbd09c510	-0.0336352
14	0xbddbdf2f	-0.10735928
15	0x3cd40aef	0.02588412
16	0x3c273f41	0.010207952
17	0xbcc7e7b0	-0.02440247
18	0xbdb96352	-0.09052147
19	0xbd0b3dbc	-0.03399442
20	0xbda549ce	-0.08070718
21	0xbd5cc116	-0.05389508
22	0xbd8f1d0b	-0.069879614
23	0x3b58e518	0.0033095535
24	0xbdcf0409	-0.101081915
25	0x3d0f9a69	0.035059366
26	0xbd191329	-0.03737179
27	0xbda49f09	-0.08038146
28	0xbd41d8f5	-0.047326047
29	0x3cd4e064	0.025985904
30	0xbd29e07c	-0.04147385
31	0x3dae3720	0.08506608
32	0xbc539c08	-0.012915619
33	0x3cc4d504	0.024027355
34	0xbd8c7e7d	-0.06860063
35	0x3cf46698	0.029834077
36	0xbd28581e	-0.04109966
37	0xbd9bc4a3	-0.07605865
38	0x3d998e14	0.074978024
39	0xbdd165b9	-0.1022448
40	0xbd424a1d	-0.04743396
41	0xbb83781f	-0.0040121223
42	0xbd97fade	-0.07420896
43	0x3d906f18	0.070524395
44	0xbc6c026b	-0.014404873
45	0xbd8b70df	-0.06808638
46	0xbda4494d	-0.080217935
47	0x3cc0c0db	0.02352946
48	0xbd853601	-0.06504441
49	0x3b6b9a8b	0.003595027
50	0xbddd704b	-0.10812434
51	0x3d2bfc65	0.04198875
52	0x3d8f5568	0.06998712
53	0xbccd8526	-0.025087904
54	0xbdaa1331	-0.08304442
55	0x3db6d8cf	0.08928072
56	0xbd2f792f	-0.04284018
57	0x3c7bd8f0	0.015371546
58	0xbce42160	-0.027847946
59	0xbca4df00	-0.020125866
60	0x3da8085e	0.08204721
61	0xbd15273c	-0.03641437
62	0x3cc4f089	0.024040477
63	0xbd9073c5	-0.07053331
64	0xbd25529f	-0.040361997
65	0xbdbbc82a	-0.09169038
66	0x3d20ad8b	0.039228003
67	0x3de6abfe	0.11263274
68	0xbda973a3	-0.08274009
69	0x3c0d421d	0.00862172
70	0xbcbd2beb	-0.02309223
71	0xbd508867	-0.050911333
72	0x3c5ecfcd	0.013599348
73	0x3d207f85	0.039184112
74	0x3cf70696	0.030154508
75	0xbdae3211	-0.08505643
76	0x3da1a7ee	0.07893358
77	0xbd25deed	-0.0404958
78	0xbdb04dbd	-0.086085774
79	0xbd8f920f	-0.0701028
80	0xbd37bbfc	-0.04485701
81	0xbd93b2fb	-0.07211872
82	0xbd3b08ef	-0.045662817
83	0xbdd0d102	-0.10196115
84	0xbe1fae8b	-0.15593927
85	0xbdcfc7ea	-0.101455525
86	0xbc2037d5	-0.009778936
87	0x3c40cf9d	0.011768249
88	0x3d2a0e0f	0.041517314
89	0xbd77af77	-0.06047007
90	0xbdb1a1bf	-0.08673429
91	0x3d8480ba	0.06469865
92	0x3d56e71c	0.052466497
93	0xbd74988c	-0.059715793
94	0x3c9a1bc0	0.01881206
95	0xbd4fcf80	-0.050734997
96	0xbc5e3aa8	-0.013563789
97	0xbce1c288	-0.02755858
98	0xbd9d7dbb	-0.07689997
99	0x3d30329c	0.043017015
100	0xbda022e0	-0.07819152
101	0xbd15b3fc	-0.0365486
102	0xbd48d03f	-0.049026724
103	0x3d28ba58	0.041193336
104	0x3d1ccaec	0.03827946
105	0x3d60936c	0.054828092
106	0xbd9b47c0	-0.075820446
107	0x3daef062	0.08541943
108	0x3a6bbb4e	0.0008992449
109	0xbde9e281	-0.11420155
110	0x3d8f3f88	0.069945395
111	0x3d75b5b9	0.059987757
112	0xbd437a3b	-0.04772399
113	0xbd5653e6	-0.052326106
114	0xbcbffa75	-0.023434857
115	0x3d1b6287	0.03793576
116	0xbdb73600	-0.089458466
117	0x3c76f16c	0.015072208
118	0xbd85af4a	-0.06527574
119	0xbdb5adc4	-0.08871034
120	0xbb15b3c7	-0.0022842751
121	0xbcf14909	-0.029453771
122	0xbdc02b2d	-0.09383235
123	0x3c9798d8	0.018505499
124	0x3d1f15d4	0.038839176
125	0xbcc7ba15	-0.024380723
126	0x3d827274	0.063694865
127	0xbd3a58cd	-0.045494843
128	0x3dfdfcf3	0.12401762
129	0x3e18dd63	0.14928202
130	0x3df97dd2	0.121822014
131	0x3daba21f	0.083805315
132	0x3cabc675	0.020968655
133	0xbd832d34	-0.06405106
134	0x3db5e9e6	0.08882503
135	0xbd636a73	-0.05552144
136	0xbc7187a9	-0.014741817
137	0x3c99fdc6	0.018797766
138	0x3bf591ca	0.007494186
139	0x3d60865c	0.054815635
140	0x3d1061f9	0.035249684
141	0x3da01266	0.07816009
142	0x3dd4f7ab	0.103988014
143	0x3d4fb8b2	0.05071325
144	0x3d7bb7d7	0.06145462
145	0x3d20d6f0	0.03926748
146	0xbd96d042	-0.07363941
147	0x3b5c228d	0.003358993
148	0xbd189c55	-0.037258465
149	0xbcdb8c6a	-0.026800353
150	0xbdda844e	-0.10669766
151	0xbe0942cc	-0.13404387
152	0xbe0257c6	-0.12728795
153	0xbcbfbac0	-0.023404479
154	0x3c5286e0	0.0128495395
155	0x3c94097c	0.018070929
156	0xbd42f827	-0.047599938
157	0x3d2ffa10	0.042963088
158	0xbd2f1f04	-0.04275419
159	0x3da24140	0.07922602
160	0x3c8d1c4c	0.017225407
161	0xbd49f566	-0.049306296
162	0x3db8e3d3	0.09027829
163	0x3d8e9d56	0.06963603
164	0x3be6d39b	0.0070442683
165	0x3dae9542	0.085245624
166	0x3e660a9f	0.22464989
167	0x3e6e0169	0.23242725
168	0x3d616800	0.055030823
169	0x3e377814	0.179169
170	0x3ebbb479	0.36661127
171	0x3dca9324	0.09891346
172	0x3ce8c7bf	0.028415559
173	0x3e122177	0.14270578
174	0xbdcf4b8c	-0.10121831
175	0xbdbf832c	-0.09351191
176	0x3da69bbe	0.08135174
177	0xbd092090	-0.03347832
178	0xbccf9faf	-0.025344698
179	0xbe093203	-0.13397984
180	0x3d366d56	0.044537865
181	0x3e326ddf	0.17424725
182	0xbc1c6c0d	-0.009547246
183	0x3e08a918	0.13345754
184	0x3e452649	0.19252886
185	0x3d3b4269	0.04571763
186	0x3e177909	0.14792265
187	0x3e55ae1a	0.20867196
188	0x3e80eb0c	0.25179327
189	0x3d66edcd	0.05637913
190	0x3e36a6fb	0.17837135
191	0x3db4c277	0.08826154
192	0x3dc1d33a	0.094641164
193	0x3e74160d	0.23836537
194	0x3e00478f	0.12527297
195	0x3e194636	0.1496819
196	0x3dff96b4	0.12479916
197	0x3e0c22f9	0.13685216
198	0xbdc85c53	-0.097832344
199	0xbcb1a506	-0.021685135
200	0xbd90756f	-0.07053649
201	0x3d11415c	0.035462722
202	0x3db297d0	0.08720362
203	0xbd15275f	-0.0364145
204	0x3ca4a466	0.020097923
205	0xbcc98d8c	-0.024603628
206	0x3c166a8f	0.009180679
207	0x3b46fdb8	0.003036363
208	0x3c947dab	0.01812633
209	0xbbbefe77	-0.0058286744
210	0xbd43f8c0	-0.04784465
211	0xbcd79f6c	-0.026321135
212	0xbd3e6f92	-0.04649312
213	0xbd36acf1	-0.044598524
214	0xbd9628fc	-0.07332036
215	0xbe70b5a8	-0.23506796
216	0xbc8dc198	-0.017304227
217	0xbb1c1880	-0.0023818314
218	0xbd9928b5	-0.074784674
219	0x3d986e0c	0.07442865
220	0x3d4616b8	0.04836151
221	0x3d437b44	0.047724977
222	0x3d6d2480	0.057896137
223	0xbd61ed68	-0.05515805
224	0xbda9e07c	-0.0829477
225	0xbc53ab58	-0.0129192695
226	0xbd9a9433	-0.07547798
227	0xbd7ff807	-0.062492397
228	0xbdab1836	-0.08354227
229	0xbd84372c	-0.06455836
230	0xbd8c88f2	-0.06862058
231	0xbd408ce6	-0.04700937
232	0xbd596026	-0.05307021
233	0x3cc12ff0	0.023582429
234	0xbd41fbb1	-0.047359172
235	0xbac4e971	-0.0015023184
236	0x3d3b1ed9	0.045683715
237	0x3dcf211a	0.101137355
238	0x3e3574e5	0.17720373
239	0x3d863b8e	0.06554328
240	0x3da9fac1	0.08299781
241	0x3cf138b3	0.029445982
242	0x3d7e276f	0.062049326
243	0xbe31e1ff	-0.17371367
244	0xbe000b57	-0.12504326
245	0xbe3c36da	-0.18380299
246	0xbe07e35e	-0.13270327
247	0xbdee43c1	-0.11634017
248	0xbd3ab579	-0.045583222
249	0x3da34e09	0.079738684
250	0x3e044b3b	0.12919323
251	0xbbc1daa0	-0.0059159547
252	0xbe2fbb9a	-0.17161408
253	0xbdf8613f	-0.12127923
254	0x3e0bd93e	0.1365709
255	0xbe242a74	-0.1603182

conv1.bias f4 [8]
0	0xbdbb8efc	-0.091581315
1	0xbc816053	-0.015793001
2	0xbb1adf09	-0.0023631474
3	0xbda9f081	-0.082978256
4	0x3d3b29e8	0.04569426
5	0xbc3e5979	-0.011618012
6	0x3ca4df59	0.020126032
7	0xbdfc79f8	-0.12327951

conv2.weight f4 [16, 8, 3, 3]
0	0x3dd6a3ce	0.10480462
1	0x3dad00f1	0.08447445
2	0x3d0eb4f4	0.03484054
3	0xbd923798	-0.0713951
4	0xbd61a02b	-0.05508439
5	0xbd472e52	-0.04862816
6	0xbdc93a89	-0.09825618
7	0xbda7d47a	-0.081948236
8	0x3ddf0a2d	0.10890613
9	0xbce4a85e	-0.027912315
10	0xbda0c62a	-0.07850297
11	0xbdfbccad	-0.12294898
12	0xbd9a63e0	-0.07538581
13	0x3a3ae46f	0.0007129376
14	0xbe22fe88	-0.15917408
15	0xbdd2c731	-0.10291899
16	0xbe96e5d3	-0.29472217
17	0xbdf42fc2	-0.119231716
18	0xbd9eba10	-0.07750332
19	0x3d8e2156	0.06939952
20	0x3d88f71b	0.06687757
21	0x3cb1f371	0.021722527
22	0xbc0b625d	-0.008507338
23	0xbe7b918a	-0.24567237
24	0x3dabc34a	0.08386858
25	0xbdc6660c	-0.09687433
26	0x3dd6b2b1	0.104833014
27	0xbe25ed0f	-0.16203712
28	0x3d4e0eee	0.050307207
29	0xbda28aab	-0.07936605
30	0xbd2ae5c8	-0.041723043
31	0x3d1b7996	0.03795775
32	0x3ca2464d	0.019808913
33	0xbdc91312	-0.098180905
34	0xbdd20175	-0.10254184
35	0xbe82670a	-0.25469238
36	0xbe58fdc7	-0.21190558
37	0xbca772a5	-0.020440409
38	0xbe697de4	-0.2280193
39	0x3d104335	0.035220344
40	0xbdfd0578	-0.12354559
41	0xbe0c5dc5	-0.13707645
42	0x3cb58096	0.022156041
43	0x3dbc3f4c	0.091917604
44	0x3d0cc059	0.034363125
45	0xbe2d251b	-0.16908686
46	0x3cad0cda	0.021124292
47	0xbd92b0ce	-0.07162629
48	0xbdc792bd	-0.09744785
49	0x3d842218	0.06451815
50	0xbd731ddd	-0.05935465
51	0xbe78bd6e	-0.24291012
52	0xbe0eb27c	-0.13935274
53	0xbdc6511b	-0.096834384
54	0xbd1355ad	-0.03597038
55	0x3d61cbe5	0.05512609
56	0x3da3f6e6	0.080060765
57	0xbd31bf4c	-0.043395326
58	0xbe05e6a0	-0.13076258
59	0xbbfe8fdc	-0.007768614
60	0x3d5df824	0.054191723
61	0xbb4a716b	-0.0030890356
62	0xbe27ce0c	-0.16387194
63	0xbdbfba09	-0.09361655
64	0xbd00df4d	-0.031462956
65	0xbd4abd14	-0.049496725
66	0xbcc2e547	-0.023790969
67	0xbd89f37d	-0.06735895
68	0xbb8460b5	-0.0040398487
69	0x3ca4502d	0.020057762
70	0xbd799a04	-0.060937896
71	0x3c4c71f8	0.012478344
72	0x3dcc176e	0.09965406
73	0x3db02bac	0.0860208
74	0x3d98d092	0.07461657
75	0xbd44bcbd	-0.048031557
76	0x3d708252	0.058718033
77	0xbde603ac	-0.11231169
78	0xbc640299	-0.013916635
79	0xbc861c16	-0.016370814
80	0xbd41de5e	-0.047331207
81	0xbd9875eb	-0.07444366
82	0xbb255b7f	-0.0025231538
83	0x3d5617d7	0.05226883
84	0xbe0d9d64	-0.13829571
85	0xbde80c10	-0.11330426
86	0x3ddb2825	0.10701016
87	0xbe2b82c7	-0.16749106
88	0xbdc45375	-0.09586231
89	0xbde3e61a	-0.11127873
90	0xbe1d1d0e	-0.15343115
91	0xbd88f64d	-0.06687603
92	0xbdd53911	-0.10411275
93	0x3d988336	0.074469015
94	0xbd9e2ef1	-0.07723797
95	0xbd886c19	-0.06661243
96	0x3d732b9b	0.059367757
97	0x3e2c608a	0.16833702
98	0x3cf75a60	0.030194461
99	0x3d5626dd	0.052283157
100	0xbdf05892	-0.117356434
101	0x3d96ff8c	0.073729604
102	0xbc2ce981	-0.010553719
103	0xbde39c66	-0.11113815
104	0x3c8b2c58	0.016988918
105	0xbe77f8f3	-0.2421606
106	0x3d313495	0.043263037
107	0x3cfee456	0.031114738
108	0x3ded80fe	0.11596869
109	0x3e291a88	0.16514027
110	0x3e57f785	0.21090515
111	0x3e32ddb0	0.1746738
112	0x3ebc8aaf	0.36824557
113	0x3d9a0ef1	0.07522381
114	0x3dec7c14	0.115471035
115	0xbcf8dfa6	-0.030380081
116	0x3e056ea7	0.13030492
117	0x3e6e5b2d	0.23276968
118	0x3edb87ae	0.42876953
119	0x3e85965e	0.26091284
120	0x3d9d3cca	0.0767761
121	0x3dc360b1	0.09539927
122	0x3e80fa73	0.25191078
123	0xbe2ce32e	-0.16883537
124	0xbe9c4bba	-0.30526525
125	0xbe9389c6	-0.2881605
126	0xbdc8c78b	-0.09803685
127	0xbcd7ede6	-0.026358556
128	0xbd00b0b6	-0.031418525
129	0xbd9d5e64	-0.07684019
130	0xbdcd9e8c	-0.10040006
131	0xbc86ccb8	-0.01645504
132	0x3dc151ce	0.09439431
133	0x3cf393be	0.029733535
134	0xbcf080c8	-0.029358283
135	0x3e058692	0.13039616
136	0xbb1b327c	-0.0023681214
137	0x3d24ca72	0.04023213
138	0x3d952573	0.072825335
139	0x3d7a7f69	0.061156664
140	0x3dbaaee7	0.09115391
141	0xbca53a7a	-0.020169485
142	0x3c7b51ed	0.015339357
143	0xbcd6c7e9	-0.026218371
144	0xbdf6529f	-0.120274775
145	0x3de3e78e	0.1112815
146	0xbc80b535	-0.015711406
147	0xbab57e9e	-0.0013846939
148	0xbc046c4b	-0.00808246
149	0xbe044e7b	-0.12920563
150	0x3dc66b0a	0.09688385
151	0xbd136da6	-0.03599324
152	0xbc3c0ccb	-0.011477659
153	0x3e137a4f	0.14402126
154	0x3e0e28aa	0.138827
155	0xbd1d8dbc	-0.038465247
156	0x3d2fe18b	0.042939704
157	0xbdba33fd	-0.09091947
158	0xbb176c4b	-0.002310532
159	0xbe03833f	-0.12843035
160	0xbd822157	-0.06354015
161	0xbe3b4361	-0.18287422
162	0xbd37dd3f	-0.04488873
163	0x3c1c445a	0.009537781
164	0x3a5685c8	0.0008183387
165	0x3dca3cee	0.09874903
166	0xbdcfe157	-0.10150402
167	0x3dfc2fbb	0.12313791
168	0xbc77caa9	-0.015124002
169	0x3de5e13c	0.11224601
170	0xbdcbc800	-0.09950256
171	0xbde76131	-0.11297835
172	0x3de3ecbd	0.111291386
173	0xbb2f5ff7	-0.002676008
174	0x3d34723b	0.04405425
175	0xbe374130	-0.17895961
176	0xbda408af	-0.08009469
177	0xbdc43e73	-0.09582224
178	0xbc0cbbc7	-0.0085896915
179	0x3c2a892b	0.01040868
180	0xbe2b438e	-0.16724989
181	0xbe48a4a5	-0.19594057
182	0xbe4f1eef	-0.20226644
183	0xbcee0319	-0.029054211
184	0xbd9b7c6b	-0.0759209
185	0x3cbef8d4	0.02331201
186	0xbda7e68b	-0.081982695
187	0x3d827fae	0.06372009
188	0x3bea48b5	0.0071497806
189	0xbe820d2e	-0.2540068
190	0x3d71eff1	0.059066717
191	0xbdb7920d	-0.08963404
192	0xbd5061c7	-0.050874498
193	0xbe4c9c0b	-0.199814
194	0x3b2c2f99	0.0026273488
195	0xbebdc0dd	-0.37061206
196	0xbe836261	-0.25660995
197	0xbde97961	-0.11400104
198	0xbdeaab5c	-0.114584655
199	0xbd809f32	-0.06280364
200	0xbe2b716d	-0.16742487
201	0xbd51d40d	-0.051227618
202	0xbd4bb1ed	-0.04973023
203	0x3d63dfbb	0.055633288
204	0xbd559003	-0.052139293
205	0x3dda5e43	0.1066251
206	0xbc6ed5b5	-0.014577319
207	0xbdb26ecc	-0.08712539
208	0x3d511c16	0.051052175
209	0xbd20c855	-0.03925355
210	0xbda0c008	-0.07849127
211	0xbd0deba3	-0.03464855
212	0x3d693fec	0.056945726
213	0xbe6c9bdd	-0.23106332
214	0xbc3a4cb5	-0.011370827
215	0x3cf18b70	0.029485434
216	0x3d6e165a	0.058126785
217	0xbdeb652c	-0.114939064
218	0xbd85e630	-0.065380454
219	0xbdee89b6	-0.1164736
220	0x3dbf78d7	0.0934922
221	0x3cd920fc	0.026504986
222	0xbd39716e	-0.04527419
223	0x3d678dbe	0.05653166
224	0x3dd25165	0.10269431
225	0xbe0af667	-0.13570558
226	0xbc65344d	-0.01398952
227	0xbdf9b391	-0.12192453
228	0xbdca627a	-0.09882064
229	0x3d4fc778	0.050727338
230	0xbd969f1c	-0.073545665
231	0xbd915adc	-0.07097408
232	0x3c65a5aa	0.014016548
233	0xbde2bc34	-0.11071053
234	0x3cfe6558	0.031054184
235	0xbd15a095	-0.036530096
236	0xbd8a58d2	-0.067552224
237	0xbd2c81f4	-0.04211612
238	0xbe02ec8a	-0.12785545
239	0xbc6daa1b	-0.014505888
240	0xbdb240e7	-0.087037854
241	0x3d8d33e0	0.0689466
242	0x3d5c713a	0.05381892
243	0x39bee3dc	0.00036409392
244	0x3d8de211	0.06927884
245	0xbdaae456	-0.08344333
246	0x3d5ba285	0.053621788
247	0x3ac20cef	0.001480488
248	0xbdd7dcb2	-0.10540141
249	0x3d41d2e9	0.04732028
250	0xbd90b3c3	-0.07065537
251	0x3d27db71	0.04098076
252	0x3d11284f	0.035438832
253	0xbe025092	-0.12726048
254	0x3d6fe7dc	0.058570728
255	0x3c2cf692	0.010556834

conv2.bias f4 [16]
0	0x3cb9812d	0.022644604
1	0xbd6cd1ef	-0.057817396
2	0x3db315a8	0.08744365
3	0xbe283041	-0.16424657
4	0x3e065cc2	0.13121322
5	0x3c41206e	0.011787517
6	0x3d2e2b4e	0.042521767
7	0xbadef2ef	-0.0017009656
8	0x3de72cbf	0.112878315
9	0x3ddf755e	0.10911058
10	0x3c944d95	0.0181034
11	0xbc8b61f6	-0.017014485
12	0x3c56ba13	0.013105887
13	0x3dbc988b	0.09208783
14	0xbe144a36	-0.14481434
15	0xbe2eb93b	-0.17062847

fc1.weight f4 [120, 576]
0	0xbd18a1cf	-0.037263688
1	0xbb009b06	-0.0019623651
2	0xbd4fc539	-0.050725196
3	0x3d3368fd	0.043801297
4	0x3de6fcd8	0.11278695
5	0x3e032896	0.12808451
6	0x3d8b8410	0.06812298
7	0x3db2b75a	0.08726378
8	0x3cf093a6	0.02936728
9	0x3cb3a0e1	0.021927299
10	0x3dcc3d62	0.09972645
11	0x3d29610d	0.04135232
12	0x3e0a7e8e	0.1352484
13	0x3db182f7	0.08667558
14	0x3d606ccb	0.054791253
15	0x3d7fee4c	0.062483117
16	0x3cf93903	0.030422693
17	0x3dd382b7	0.10327666
18	0x3c6ea0f7	0.014564744
19	0x3d964f1b	0.07339307
20	0xbc62c5ad	-0.013841075
21	0x3c18a265	0.009316062
22	0x3e18e063	0.14929347
23	0x3d939d9b	0.07207795
24	0xbcf7815b	-0.030213049
25	0xbd28c9d2	-0.041208096
26	0xbd1d1bda	-0.03835664
27	0xbcd026be	-0.025409099
28	0xbb8e4682	-0.0043419013
29	0x3d55f4fd	0.052235592
30	0xbddd8e96	-0.10818212
31	0x3ca99169	0.02069922
32	0xbd430c6c	-0.04761927
33	0xbd1d47f6	-0.038398705
34	0x3d3f038b	0.04663424
35	0xbd41fe3b	-0.047361594
36	0x3d98c9f4	0.074603945
37	0xbda03acf	-0.07823717
38	0xbd19100a	-0.03736881
39	0xbca2c206	-0.019867908
40	0x3da02e94	0.07821384
41	0x3dfc309b	0.12313958
42	0x3e16f81a	0.1474308
43	0x3c8da769	0.017291741
44	0x3ad435bd	0.0016190332
45	0xbd91aed8	-0.07113427
46	0xbcf3d25e	-0.029763397
47	0x3d198652	0.037481613
48	0x3df78dba	0.12087579
49	0x3daeb2dc	0.085302085
50	0x3cf5ec79	0.030019986
51	0xbcba166b	-0.022715768
52	0xbd85d514	-0.06534782
53	0x3d9eeb16	0.07759683
54	0xbdb4257f	-0.08796214
55	0xbc2ecaa4	-0.0106684305
56	0xbdc32c33	-0.09529915
57	0xbde419b0	-0.11137712
58	0xbca1ca1d	-0.019749695
59	0x3d222e88	0.039595157
60	0xbd77183a	-0.06032584
61	0xbe175e31	-0.14782025
62	0xbd48d9db	-0.04903589
63	0xbc774695	-0.015092512
64	0xbd5a3be8	-0.053279787
65	0xbdcf76be	-0.1013007
66	0x3db8405b	0.0899665
67	0xbd7e41d3	-0.062074494
68	0xbe4dc104	-0.20093161
69	0xbd25ec72	-0.040508695
70	0x3d8f6678	0.07001966
71	0x3e2cc174	0.16870672
72	0xbd887023	-0.066620134
73	0xbbe5d042	-0.0070133517
74	0xbd2bb9a0	-0.041925073
75	0x3e6006d3	0.21877603
76	0x3dcf8a0a	0.10133751
77	0x3c5b5f58	0.013389431
78	0x3cad7a5b	0.021176508
79	0x3cad5d2d	0.021162594
80	0xbb82a138	-0.003986504
81	0xbd118526	-0.03552737
82	0xbd9a4bdc	-0.07534
83	0x3d348716	0.04407414
84	0x3d55a2ea	0.05215732
85	0xbd95233d	-0.07282112
86	0x3dfc78c8	0.12327725
87	0x3ddeb985	0.10875229
88	0x3e15cd1c	0.14629024
89	0x3c955afb	0.01823186
90	0x3d34e556	0.044164024
91	0x3c15d009	0.009143838
92	0x3cb6747e	0.022272345
93	0x3de3973a	0.111128286
94	0x3cda4dd7	0.026648445
95	0x3d8b2856	0.06794803
96	0xbe298c2e	-0.1655738
97	0xbe02d79e	-0.12777564
98	0xbd6f0151	-0.058350865
99	0x3d053f43	0.032531034
100	0x3cfc8be8	0.030828431
101	0xbd6f75bc	-0.05846189
102	0xbe15843c	-0.14601225
103	0xbdaaac9a	-0.083337024
104	0xbdff7a42	-0.12474491
105	0xbcd06121	-0.02543694
106	0xbd97ee1f	-0.07418465
107	0xbb1e5aef	-0.0024163087
108	0xbd18d334	-0.037310794
109	0x3d314ed6	0.043288074
110	0xbd019705	-0.031638164
111	0x3d05e743	0.03269125
112	0xbca274a4	-0.01983101
113	0xbd13f03a	-0.03611777
114	0xbcff967b	-0.031199684
115	0xbd1f238f	-0.03885227
116	0xbd1c0e28	-0.038099438
117	0xbba659c9	-0.005076621
118	0x3d01c74a	0.031684197
119	0x3c9fe108	0.019516483
120	0x3cf464e6	0.029833268
121	0xbc38a1c4	-0.011269037
122	0xbc941b40	-0.0180794
123	0x3bb5c0fb	0.0055466867
124	0x3c18343c	0.009289797
125	0xbcb6ab23	-0.022298401
126	0x3d130ca7	0.035900738
127	0xbcbb6b26	-0.02287824
128	0xbb507350	-0.0031807013
129	0xbce837ee	-0.028346982
130	0x3bf1cfe0	0.007379517
131	0xbb919ba8	-0.0044436045
132	0x3cf308e6	0.029667329
133	0xbceda853	-0.029010927
134	0x3d1179a5	0.0355164
135	0xbcd6299e	-0.026142891
136	0xba7fa300	-0.0009751767
137	0xbd28fb9b	-0.041255575
138	0xbd17dab4	-0.037073806
139	0xbd01124e	-0.031511597
140	0x3cfeb6e9	0.031093078
141	0x3d414fcd	0.047195245
142	0x3bc806a9	0.0061043096
143	0xbd0226e8	-0.031775385
144	0x3c869599	0.016428756
145	0x3e6edb80	0.2332592
146	0x3d4a084b	0.049324315
147	0xbcdd14db	-0.026987484
148	0x3d294f62	0.04133547
149	0x3da8637e	0.08222102
150	0x3cdaef1b	0.026725342
151	0x3e0c3e19	0.13695563
152	0x3d760fe0	0.060073733
153	0xbd390fe8	-0.045181185
154	0xbcf673f1	-0.030084582
155	0x3d4d98a0	0.050194383
156	0x3db41545	0.08793119
157	0x3e006829	0.12539734
158	0x3e153885	0.14572342
159	0x3d956e9b	0.07296487
160	0x3d939d63	0.072077535
161	0x3e04968e	0.12948057
162	0x3db1468d	0.086560346
163	0x3d9c96b1	0.076459296
164	0xbc23d6ba	-0.009999925
165	0x3db4ee6d	0.088345386
166	0x3e1c9af9	0.15293492
167	0x3d8e22fb	0.06940266
168	0xbe0f1074	-0.1397112
169	0xbdd5f884	-0.10447791
170	0xbd893bec	-0.06700882
171	0xbd86ad02	-0.06575967
172	0xb99dc63e	-0.00030093075
173	0x3c8aeef9	0.016959654
174	0xbe488347	-0.19581328
175	0xbdea6b51	-0.1144625
176	0xbe017700	-0.12643051
177	0xbe0bafcc	-0.1364128
178	0xbda7f837	-0.0820164
179	0xbd90ad4c	-0.07064304
180	0x3dc05752	0.09391655
181	0xbad20014	-0.0016021752
182	0x3d79e31c	0.061007604
183	0x3c7a983d	0.0152950855
184	0x3d80c734	0.06287995
185	0x3d68a66d	0.05679934
186	0x3ddf2134	0.10895005
187	0x3de60e30	0.11233175
188	0x3df16071	0.11785973
189	0xbd2033f5	-0.03911205
190	0x3c72fe9c	0.014831211
191	0x3d8585b8	0.065196455
192	0x3e5e7b4c	0.21726722
193	0x3e33e306	0.17567071
194	0x3de4a8d4	0.11165014
195	0x3c1b9100	0.00949502
196	0x3b148f6e	0.0022668499
197	0x3d25b2f1	0.040453855
198	0xbca278e2	-0.019833032
199	0x3d1f5884	0.038902774
200	0x3d7d9042	0.061905153
201	0x3bfd6ae8	0.0077336915
202	0xbd1d0013	-0.03833015
203	0xbd1752ee	-0.036944322
204	0xbc9b116b	-0.018929204
205	0xbdd827d6	-0.10554473
206	0xbdff6190	-0.124697804
207	0xbd934f1f	-0.071928255
208	0xbd9b997a	-0.07597633
209	0xbdef026f	-0.11670386
210	0xbc064140	-0.008194268
211	0xbd6fd50a	-0.05855278
212	0xbd4fe3c7	-0.050754335
213	0x3a6fa7fe	0.0009142159
214	0xbcfbd414	-0.030740775
215	0x3d68228f	0.056673583
216	0x3d3a70e3	0.045517813
217	0xbdcc03f5	-0.09961692
218	0x3cc60581	0.024172546
219	0x3d88f278	0.06686872
220	0x3c4df072	0.012569534
221	0x3cd254aa	0.025675137
222	0x3d996af5	0.074911036
223	0xbc86b7db	-0.016445091
224	0xbd1280b2	-0.035767265
225	0x3da69279	0.08133406
226	0x3b96f448	0.0046067573
227	0x3d85afa3	0.06527641
228	0xbd783739	-0.06059954
229	0xbe0376aa	-0.12838235
230	0xbc1934ff	-0.009351014
231	0x3d6c284b	0.057655614
232	0x3d96d613	0.0736505
233	0x3d78a9ec	0.060708925
234	0x3dabf7f1	0.083969004
235	0x3d340b41	0.043956045
236	0x3cd1d8d2	0.025616083
237	0x3ddd8164	0.10815695
238	0x3df3422b	0.11877855
239	0x3d7466bb	0.059668284
240	0xbd4ff10e	-0.050766997
241	0x3c25f261	0.010128588
242	0x3e57907b	0.21051209
243	0x3da0a495	0.078438915
244	0x3d441d69	0.04787961
245	0xbc92f837	-0.017940624
246	0xbe869cff	-0.26291654
247	0xbdacfe92	-0.08446993
248	0x3d064f13	0.032790255
249	0x3d95ca45	0.073139705
250	0xbd80cd46	-0.06289153
251	0xbdc4ed65	-0.09615592
252	0x3df87119	0.12130947
253	0x3dc1c4bd	0.09461353
254	0x3e02207f	0.12707709
255	0x3c36697b	0.011133547

fc1.bias f4 [120]
0	0x3d90ce9f	0.0707066
1	0xbd7aa99e	-0.061196916
2	0xbd938b04	-0.072042495
3	0xbd8865e9	-0.06660063
4	0xbc5e499b	-0.013567354
5	0x3a987833	0.0011632502
6	0xbd1c4a6c	-0.03815691
7	0xbc9c1b38	-0.019055948
8	0x3cdacc76	0.026708823
9	0xbd41fdbe	-0.047361128
10	0xbc888c69	-0.016668515
11	0x3d9bea1b	0.076130114
12	0x3cb2a8f2	0.021809075
13	0x3b97ad2d	0.0046287985
14	0xbd24bec6	-0.040221
15	0xbd0ee368	-0.03488484
16	0xbce27156	-0.027641933
17	0xbd17b92e	-0.037041835
18	0x3d16e23d	0.03683685
19	0xbd627ef6	-0.05529686
20	0x3a0c4955	0.00053515035
21	0xbd75ccfb	-0.060009938
22	0xbda5471e	-0.08070205
23	0x3d48a523	0.04898561
24	0xbd57bc69	-0.052669916
25	0xbcc57d20	-0.024107516
26	0x3bb4e697	0.0055206525
27	0x3dbdd26a	0.09268649
28	0x3afa912c	0.0019116751
29	0x3d133e7b	0.035948258
30	0xbc899676	-0.016795378
31	0x3c0b7113	0.008510846
32	0x3ae1fbdb	0.0017241196
33	0xbd7477e9	-0.059684668
34	0xbc4b17d5	-0.012395819
35	0xbd164fe2	-0.036697276
36	0x3b0b8a95	0.0021292318
37	0x3d74a08f	0.059723433
38	0xbd6b6bd4	-0.05747588
39	0x3d279c46	0.04092052
40	0xbc45e87f	-0.012079357
41	0xbd560939	-0.05225489
42	0x3d2fea3b	0.04294799
43	0xbc86581c	-0.016399436
44	0xbb5e7244	-0.003394262
45	0xbd6dd160	-0.058061004
46	0xbd856e00	-0.065151215
47	0x3b477e76	0.0030440367
48	0xbd0d30f3	-0.03447051
49	0xbd01915e	-0.031632774
50	0xbd61fb77	-0.055171456
51	0xbb889ce3	-0.004169093
52	0xbc5504e9	-0.013001659
53	0xbd80ef6e	-0.062956676
54	0xbd9940e4	-0.0748308
55	0x3cf46bc4	0.029836543
56	0xbcef9710	-0.029246837
57	0xbc92d928	-0.017925814
58	0xbd3589b0	-0.044320762
59	0xbcb9ef35	-0.02269707
60	0x3dbefe9a	0.09325905
61	0xbd1f933e	-0.03895878
62	0xbcfb76d4	-0.03069631
63	0xbce187bb	-0.027530542
64	0x3de27db1	0.1105913
65	0xbc09b0c0	-0.008403957
66	0xbd2f4196	-0.042787157
67	0xbd8a2cd6	-0.06746833
68	0x3c667e4c	0.014068197
69	0xbb987055	-0.004652063
70	0xbcf3b41e	-0.029748973
71	0xbceb33aa	-0.028711159
72	0xbb10d969	-0.0022102243
73	0xbce7bd4c	-0.028288506
74	0xbd6c9a00	-0.057764053
75	0x3c28041e	0.010254888
76	0xbaa837c1	-0.0012833999
77	0xbd5313eb	-0.051532667
78	0x3bfd89b7	0.007737364
79	0xbc13ca21	-0.009020359
80	0xbd778ce4	-0.0604371
81	0xbd439721	-0.04775155
82	0xbd903f13	-0.070432805
83	0xbcb9455a	-0.022616077
84	0x3c8bf352	0.017083798
85	0xbc81c74c	-0.015842102
86	0xbc8234b2	-0.015894268
87	0xbd89d766	-0.06730537
88	0xbc3601db	-0.011108841
89	0xbb5b79dc	-0.0033489382
90	0x3d09af65	0.033614535
91	0x3e0b50fc	0.13605112
92	0xbd25c5a2	-0.04047168
93	0xbd756751	-0.059912983
94	0xbc362d97	-0.011119268
95	0xbc6fd855	-0.01463898
96	0xbd13eda9	-0.036115322
97	0xbd31ab7b	-0.043376427
98	0xbd009da9	-0.031400356
99	0xbccdb64b	-0.025111338
100	0xbd536a6b	-0.05161516
101	0xbba5c93d	-0.00505939
102	0xbd356ba7	-0.04429212
103	0xbcb0435a	-0.02151649
104	0xbd3274f1	-0.043568555
105	0xbb8984f7	-0.004196759
106	0xbc43a15f	-0.011940329
107	0xbd2aafa0	-0.041671395
108	0xbc934b7f	-0.017980335
109	0xbc8ccf4b	-0.017188689
110	0xbcd02ee9	-0.025412994
111	0x3b8c321c	0.0042784344
112	0xbd8a7fc6	-0.06762652
113	0x3c13dcf3	0.009024846
114	0xbd3856d0	-0.045004666
115	0x3d76490f	0.060128268
116	0xbd0fb968	-0.035088927
117	0xbcf00477	-0.029299004
118	0xbd881f8c	-0.06646642
119	0x3aa2ba3f	0.0012415125

fc2.weight f4 [84, 120]
0	0xbda312c0	-0.07962561
1	0x3d97a978	0.074053705
2	0xbd77399c	-0.060357675
3	0xbd2550a3	-0.040360104
4	0x3acbb1f0	0.00155407
5	0xbcdcd85a	-0.026958633
6	0xbd93ab4c	-0.07210407
7	0x3d2a458e	0.04157024
8	0xbd61a053	-0.055084538
9	0xbd9cc786	-0.076552436
10	0x3cbe5d7f	0.023237942
11	0x3cd34eee	0.025794473
12	0x3d407944	0.046990648
13	0xbd09574e	-0.033530526
14	0xbc30f5ca	-0.010800788
15	0xbd3aee53	-0.04563744
16	0xbda1dbb2	-0.07903232
17	0xbd73aec4	-0.05949284
18	0x3e082f63	0.13299327
19	0x3cb8374a	0.022487301
20	0x3d829aa5	0.06377152
21	0xbd008d2f	-0.031384643
22	0xbd851fe7	-0.065002255
23	0x3d819e02	0.06328966
24	0x3cdebc8c	0.027189516
25	0xbd669c60	-0.056301475
26	0x3e335938	0.17514503
27	0x3d518376	0.05115076
28	0x3bea5290	0.0071509555
29	0xbc8729d4	-0.016499437
30	0xbc8b8552	-0.017031346
31	0xbb981bde	-0.004641994
32	0xbd05aef3	-0.032637548
33	0xbc4d7e82	-0.012542369
34	0xbde27c02	-0.11058809
35	0x3d68ea44	0.056864038
36	0xbd0464aa	-0.032322563
37	0xbdac948f	-0.08426773
38	0xbb3440d1	-0.0027504454
39	0x3db475c5	0.08811525
40	0x3d09b792	0.033622332
41	0x3b83ca2c	0.0040219035
42	0x3d552b54	0.052043274
43	0xbcd596e5	-0.026072929
44	0x3b52acba	0.003214641
45	0xbd8c279a	-0.06843491
46	0x3da159c5	0.0787845
47	0xbcb008b8	-0.021488532
48	0xbd5726d7	-0.052527275
49	0xbd1ce77c	-0.0383067
50	0x3d95009c	0.07275507
51	0x3d634f4a	0.055495538
52	0xbd0eb165	-0.034837145
53	0xbce075d8	-0.027399942
54	0xbcf6a873	-0.03010962
55	0xbdf8648e	-0.12128554
56	0x3d7f50b3	0.06233282
57	0xbd1dc17d	-0.038514603
58	0xbd8f4bbb	-0.06996866
59	0xbce38d6f	-0.027777402
60	0x3daa0b82	0.08302976
61	0xbdb98db0	-0.09060228
62	0xbd408a32	-0.047006793
63	0x3d1224b5	0.035679538
64	0x3de472e9	0.1115473
65	0x3df80554	0.12110391
66	0x3da6e379	0.08148856
67	0xbd8c91e6	-0.068637654
68	0xbbcab3ec	-0.006185999
69	0x3d68bfeb	0.056823652
70	0xbc28cdeb	-0.010303001
71	0x3d57e3c3	0.052707445
72	0xbc76e157	-0.015068374
73	0x3cb5edf8	0.022208199
74	0x3d8fae3c	0.070156544
75	0x3bea909c	0.007158352
76	0x3d084591	0.03326947
77	0xbd4d122a	-0.05006615
78	0xbd3fd95c	-0.04683815
79	0xbd87d104	-0.066316634
80	0xbd8398e9	-0.0642565
81	0x3c4b5f70	0.012412891
82	0xbcef98d5	-0.02924768
83	0x3d7b85d3	0.06140692
84	0xbd8b436b	-0.06799968
85	0x3d63b6e7	0.05559435
86	0x3daf5df5	0.08562843
87	0xbd0acf18	-0.033888906
88	0xbd07cfe3	-0.03315724
89	0x3db1cdb9	0.086818166
90	0xbd1847ff	-0.037178036
91	0xbdbbda5a	-0.09172507
92	0x3de4e93b	0.11177298
93	0xbd523c6b	-0.05132715
94	0x3ce57b0e	0.028012779
95	0x3d8ce3c5	0.06879381
96	0xbda99b8d	-0.08281622
97	0xbb434e57	-0.0029801333
98	0xbda54d78	-0.080714166
99	0xbd8f3e91	-0.069943555
100	0xbd7cef2c	-0.06175153
101	0xbd552307	-0.052035358
102	0xbd0f3081	-0.034958366
103	0x3d2c5bd7	0.042079773
104	0xbb5a59cc	-0.0033317683
105	0xbd277fe0	-0.040893435
106	0x3d6af0c7	0.05735853
107	0x3bb743e0	0.005592808
108	0xbdeb4046	-0.114868686
109	0x3d359efc	0.044341072
110	0x3ce2172e	0.027598944
111	0xbd39d840	-0.045372248
112	0xbd091389	-0.033465896
113	0x3d5edc8d	0.054409552
114	0xbc299bfc	-0.010352131
115	0x3c33119f	0.010929494
116	0x3da539f8	0.08067697
117	0x3d0efd23	0.03490938
118	0x3d2de48a	0.04245428
119	0x3d831621	0.06400705
120	0xbded5713	-0.11588874
121	0x3dcafc8e	0.09911452
122	0x3dd353f4	0.10318747
123	0xbd6d1040	-0.057876825
124	0x3d387d86	0.045041583
125	0xbc09b171	-0.008404122
126	0xbcb6045f	-0.022218881
127	0x3d6e720a	0.058214225
128	0x3dc06727	0.09394675
129	0xbd184252	-0.037172623
130	0xbe1ccff0	-0.15313697
131	0x3d0c9a13	0.034326624
132	0xbcffe99b	-0.031239321
133	0xbd6c5c8e	-0.057705455
134	0x3c5908d2	0.013246732
135	0xbd26cf31	-0.040724937
136	0xbb038449	-0.0020067862
137	0xbbf143a9	-0.007362802
138	0xbdf5ddcf	-0.12005197
139	0x3d394de5	0.0452403
140	0xbd8e5d6b	-0.06951412
141	0x3dc40606	0.095714614
142	0xbe1aadfe	-0.15105435
143	0x3e33a11b	0.17541926
144	0x3ce8abf8	0.028402314
145	0xbd6d9a1f	-0.05800831
146	0x3e62dd2a	0.2215468
147	0x3e1c1d0a	0.15245453
148	0x3d9c37d1	0.07627834
149	0xbc2e3e34	-0.010634948
150	0xbdbd7991	-0.092517026
151	0x3d72c917	0.059273805
152	0x3c84de18	0.016219184
153	0xbc7fea91	-0.01561989
154	0xbdb06d33	-0.08614578
155	0xbc47a689	-0.012185701
156	0xbd59197f	-0.05300283
157	0x3d810a8c	0.0630084
158	0x3d7d1904	0.061791435
159	0x3e4190cf	0.18902896
160	0x3cae6aff	0.021291254
161	0xbccf05a1	-0.025271239
162	0x3deaf7ab	0.1147302
163	0xbb3f697b	-0.0029207158
164	0x3e2cc669	0.16872562
165	0x3d4e7656	0.050405823
166	0x3bd2495a	0.0064174356
167	0x3d62bde9	0.055356894
168	0xbd5b749e	-0.05357801
169	0x3bdf8307	0.0068210396
170	0x3d7eb5c8	0.06218508
171	0xbd85790c	-0.065172285
172	0x3c35da63	0.011099431
173	0x3d956664	0.0729492
174	0xbd85f52e	-0.06540905
175	0xbd3f6189	-0.046723876
176	0x3cd8a200	0.026444435
177	0x3da52e81	0.080655105
178	0x3da666d2	0.0812508
179	0x3bee1ce2	0.0072666267
180	0x3dacc5d0	0.08436167
181	0xbdeff5b4	-0.11716786
182	0x3d2efbb0	0.042720497
183	0x3c9cdea6	0.019149136
184	0x3dd58958	0.10426587
185	0x3d98e75c	0.07466003
186	0xbd07b4dc	-0.033131465
187	0xbc339edc	-0.010963168
188	0xbdafab1b	-0.08577558
189	0xbd72edbf	-0.059308764
190	0xbd077536	-0.033070765
191	0xbd4f5bcb	-0.05062465
192	0x3d8456eb	0.06461891
193	0x3d984a90	0.07436097
194	0xbdbf053a	-0.09327169
195	0x3c58c742	0.0132311005
196	0x3ca178a3	0.019710844
197	0xbd9aa5fa	-0.07551189
198	0x3d771f4b	0.060332578
199	0xbcce7adb	-0.025205066
200	0x3c6ffbc9	0.014647433
201	0xbc9830ff	-0.01857805
202	0x3bbaaaa1	0.00569661
203	0x3e0f6f5d	0.14007325
204	0x3c2beadf	0.010493009
205	0x3d93ea3d	0.07222412
206	0xbcb749fe	-0.02237415
207	0xbd755c82	-0.059902675
208	0x3dc742a6	0.09729509
209	0x3dc43fcb	0.0958248
210	0x3e65dbfb	0.22447197
211	0x3e80801d	0.25097743
212	0x3dedc002	0.11608888
213	0x3daf1a53	0.08549943
214	0xbc9e0bde	-0.019292768
215	0xbda7fe18	-0.082027614
216	0xbcac567b	-0.02103733
217	0x3e00dec5	0.1258498
218	0xbc637592	-0.013883011
219	0xbba7ae50	-0.005117215
220	0xbd13e4e2	-0.03610695
221	0xbc9f4f93	-0.019447124
222	0x3c458714	0.012056131
223	0x3d75bfb6	0.059997283
224	0x3c9759df	0.018475471
225	0xbd660fb9	-0.056167338
226	0xbc0fb175	-0.008770336
227	0x3d772c05	0.060344715
228	0xbe259899	-0.16171493
229	0x3b2732a2	0.0025512357
230	0xbcf15588	-0.02945973
231	0xbd6493f6	-0.05580517
232	0xbcb99c5e	-0.02265757
233	0x3d94936e	0.072546825
234	0xbc4b4ed6	-0.012408933
235	0x3da9e780	0.08296108
236	0x3c740d53	0.014895755
237	0x3d96c16a	0.073611096
238	0xbd7a2660	-0.061071754
239	0x3c81b2fe	0.01583242
240	0xbdf9e797	-0.122023754
241	0x3db32ed7	0.08749168
242	0xbd502524	-0.05081667
243	0xbd86d5f3	-0.06583776
244	0x3cbd7128	0.023125246
245	0xbd8a09c9	-0.067401476
246	0xbd394556	-0.04523214
247	0xbd327e1b	-0.043577295
248	0x3ddbd2d4	0.10733572
249	0xbced77a7	-0.028987719
250	0x3e14f502	0.14546588
251	0xbcdb5dbf	-0.0267781
252	0xbd5dde15	-0.054166872
253	0xbd8dfcf9	-0.06933016
254	0x3d9722e5	0.073797025
255	0xbd2c062f	-0.041998085

fc2.bias f4 [84]
0	0xbd6c40a7	-0.057678845
1	0x3d4f388f	0.050591048
2	0x3d4b6690	0.049658358
3	0xbd9e2320	-0.07721543
4	0x3e05dfa2	0.1307359
5	0xbdf98142	-0.12182857
6	0xbd8b173b	-0.0679154
7	0xbdd504d2	-0.1040131
8	0xbdb18972	-0.08668794
9	0x3d070e95	0.03297289
10	0x3d8938b7	0.067002706
11	0x3da75477	0.08170407
12	0xbe1dc0a5	-0.1540552
13	0xbd8e5765	-0.06950263
14	0xbe07a4b6	-0.13246426
15	0x3de47787	0.111556105
16	0xbdb2c57f	-0.08729076
17	0xbdb1b0ed	-0.08676324
18	0x3e08d4fb	0.13362496
19	0x3ddbe258	0.10736531
20	0xbccc19ce	-0.024914648
21	0x3a6b2226	0.0008969627
22	0xbd23a166	-0.039948843
23	0xbd721f49	-0.059111867
24	0xbbaa3545	-0.0051943385
25	0x3ddeda19	0.108814426
26	0xbe00b484	-0.12568861
27	0xbdfc85e0	-0.12330222
28	0xbdda6883	-0.10664465
29	0x3d6624d9	0.056187484
30	0xbdd1c535	-0.102426924
31	0xbda0e60c	-0.07856378
32	0xbd005e5d	-0.03133999
33	0xbe102c2e	-0.14079353
34	0xbe2c1897	-0.16806255
35	0x3d17012f	0.036866363
36	0xbda1336f	-0.07871138
37	0xbdea0cd2	-0.114282265
38	0xbd9b3cd2	-0.0757996
39	0xbe1da022	-0.15393117
40	0xbd4dcfae	-0.050246887
41	0x3e265e67	0.16246949
42	0xbdd5a553	-0.10431924
43	0xbce0e5ed	-0.027453387
44	0x3c8f2ea6	0.017478298
45	0xbe3f0f67	-0.1865822
46	0xbd290084	-0.041260257
47	0xbcf158b8	-0.02946125
48	0x3c408270	0.011749849
49	0xbd66fa8f	-0.056391295
50	0x3b795711	0.003804628
51	0xbde8c886	-0.11366372
52	0xbdf22cb0	-0.1182493
53	0xbda48c5a	-0.080345824
54	0xbdc32d96	-0.09530179
55	0xbdc98e90	-0.09841645
56	0xbd6be969	-0.057595644
57	0x3d85b5b4	0.06528798
58	0x3d2ad166	0.041703604
59	0xbcdad72d	-0.026713932
60	0xbdd52281	-0.10406972
61	0xbdcf0434	-0.101082236
62	0x3d634230	0.055483043
63	0x3d90a08b	0.07061871
64	0xbde0ddf9	-0.10979838
65	0x3d4c51ed	0.049882818
66	0xbd638ce5	-0.05555429
67	0xbdd0c3c5	-0.1019359
68	0xbd576660	-0.052587867
69	0xbdb78ad8	-0.08962029
70	0xbca7c4b2	-0.020479534
71	0x3d25a92d	0.04044454
72	0xbdb3e8da	-0.08784647
73	0xbca3fa8e	-0.020016935
74	0x3dd84a65	0.10561065
75	0xbdb1ab15	-0.086752094
76	0xbe131967	-0.14365159
77	0x3d0d7513	0.03453548
78	0x3e03b685	0.12862594
79	0xbd9aa3ea	-0.075507954
80	0xbd8c5294	-0.06851688
81	0xbe0450f7	-0.1292151
82	0xbe1f6a9d	-0.15568013
83	0xbc0aed96	-0.008479496

fc3.weight f4 [700, 84]
0	0xbc96ff10	-0.01843217
1	0xbd322065	-0.043487925
2	0x3d4a900f	0.04945379
3	0xbd8a5c7a	-0.0675592
4	0xbdc45121	-0.095857866
5	0xbd741259	-0.05958781
6	0x3d8c6a46	0.068562075
7	0x3db73968	0.08946496
8	0xbdbadb91	-0.0912391
9	0x3e387e7c	0.18017
10	0xbd2b11c7	-0.041765
11	0xbd52b7fa	-0.051444985
12	0x3e164375	0.1467417
13	0xbdfda2d8	-0.123845756
14	0xbd0d5819	-0.034507845
15	0x3d8602e4	0.0654352
16	0x3cc0b970	0.023525923
17	0xbd4ab976	-0.049493276
18	0xbd0f0319	-0.034915064
19	0x3dc4b8cb	0.09605559
20	0x3db82a52	0.08992447
21	0x3bb049ed	0.0053799064
22	0x3e2c5f7c	0.168333
23	0x3d826194	0.06366268
24	0xbd105f50	-0.035247147
25	0x3d14f098	0.03636226
26	0x3badfac9	0.005309437
27	0xbd8dcdef	-0.06924044
28	0x3ddf21e7	0.10895138
29	0x3e30e860	0.17276144
30	0x3d7b8605	0.061407108
31	0xbc8125ef	-0.015765158
32	0x3d9d65ba	0.076854184
33	0x3d1f832d	0.03894346
34	0xbc3c428c	-0.011490475
35	0x3d1be569	0.03806058
36	0x3d8d8e57	0.06911915
37	0xbcb335f6	-0.021876317
38	0x3d453109	0.048142467
39	0x3db3fac7	0.08788066
40	0x3d8d85f3	0.069103144
41	0x3d5832e2	0.0527829
42	0xbda9aec9	-0.08285291
43	0x3d0170f3	0.031601857
44	0x3e7aa25f	0.24476002
45	0x3df40482	0.11914922
46	0xbca41a1e	-0.020031985
47	0x3df31e9b	0.11871072
48	0x3d8f512a	0.06997903
49	0x3e01a5cd	0.12660904
50	0xbccb5d39	-0.024824725
51	0x3e0532c3	0.13007645
52	0xbd91c063	-0.07116773
53	0x3cb066ef	0.021533458
54	0xbe2536ea	-0.1613423
55	0xbbb88e9f	-0.005632236
56	0x3daf9ec6	0.085752055
57	0x3be0ed80	0.0068642497
58	0xbd02c18e	-0.03192287
59	0x3d3c7b93	0.046016287
60	0x3dde7993	0.10863032
61	0x3e460912	0.19339398
62	0xbcd28548	-0.02569832
63	0xbbca02dc	-0.0061648916
64	0x3c8326b2	0.016009662
65	0x3d78111f	0.060563203
66	0xbdb21e8e	-0.08697234
67	0x3dd5ef34	0.10446015
68	0xbbf0261f	-0.007328763
69	0xbd420165	-0.04736461
70	0xbd91361e	-0.070904
71	0x3be2d740	0.0069226325
72	0xbc12770a	-0.008939514
73	0xbdc59a69	-0.09648592
74	0x3d4fcd10	0.050732672
75	0x3cbab16e	0.022789683
76	0xbd567d66	-0.052365683
77	0x3dca99bf	0.09892606
78	0x3d602aea	0.054728426
79	0xbd226bf9	-0.039653752
80	0xbce08042	-0.027404908
81	0x3db0d6c5	0.08634714
82	0x3da56645	0.08076147
83	0xbd50dc92	-0.050991602
84	0x3e05a919	0.13052787
85	0x3e22d3f7	0.1590117
86	0x3ca462e3	0.020066684
87	0xbd30df1a	-0.043181516
88	0x3e0a7198	0.13519895
89	0xbdc6f26e	-0.097142085
90	0x3e03fa25	0.12888391
91	0xbcd38400	-0.025819778
92	0x3d6ca940	0.057778597
93	0x3e58a0b2	0.2115505
94	0x3dcbcb2b	0.099508606
95	0x3cd806dc	0.026370458
96	0xbd45ee21	-0.0483228
97	0x3d14fb6d	0.03637259
98	0xbb986f46	-0.0046519367
99	0x3dca3eb4	0.09875241
100	0xbcbf2e92	-0.023337636
101	0xbc07ff3c	-0.008300599
102	0xbc9c69f7	-0.019093497
103	0x3d8ba33b	0.06818243
104	0x3ca1d2c3	0.01975382
105	0xbba3b644	-0.004996093
106	0xbc0f3a1a	-0.00874188
107	0x3d1cf0fe	0.038315766
108	0x3cefb3e1	0.029260578
109	0x3d032f11	0.032027308
110	0xbdcfa769	-0.10139353
111	0x3d07a1d0	0.0331133
112	0xbce40099	-0.027832316
113	0x3e0aab68	0.13541949
114	0xbb481c66	-0.0030534505
115	0xbd594e4f	-0.053053197
116	0x3e31860c	0.17336291
117	0xbb5f8454	-0.0034105973
118	0xbd543518	-0.051808447
119	0x3c2c745c	0.010525789
120	0xbd29f2c0	-0.04149127
121	0xbd1099a3	-0.03530277
122	0xbd1951e8	-0.037431628
123	0x3d03a0da	0.032135822
124	0x3e3ce867	0.1844803
125	0x3dc7989a	0.09745903
126	0xbcb99c86	-0.022657644
127	0xbd3f1c30	-0.04665774
128	0xbd718a65	-0.058969874
129	0xbd49ea12	-0.049295492
130	0xbd213b47	-0.039363172
131	0x3d609d8b	0.054837745
132	0x3d7501d4	0.059816197
133	0x3e19026b	0.14942329
134	0x3e21b7f8	0.15792835
135	0xbd589f84	-0.0528865
136	0x3d078e36	0.033094607
137	0xbdee37ba	-0.11631723
138	0x3d8ab002	0.06771852
139	0xbda3fd1e	-0.08007263
140	0xbda615ea	-0.081096485
141	0x3d40890a	0.04700569
142	0x3de4db9e	0.11174701
143	0x3c96103b	0.018318286
144	0xbd9f2c43	-0.07772114
145	0x3e2614f6	0.16218933
146	0x3ce5f38d	0.028070236
147	0xbd82d2ff	-0.063879006
148	0x3db39c98	0.08770102
149	0xbd98ffc9	-0.07470662
150	0xbd7970a6	-0.060898446
151	0xbca24c16	-0.019811671
152	0x3d6d4595	0.057927687
153	0xbd3d8951	-0.046273533
154	0xbdb326da	-0.08747645
155	0x3e005fec	0.12536591
156	0x3df642ff	0.12024497
157	0xbd1f21bb	-0.038850527
158	0xbd110c7a	-0.03541229
159	0x3cbf3957	0.023342771
160	0x3de93a59	0.11388082
161	0x3d21a92e	0.039467983
162	0x3dfb8e7d	0.12283037
163	0x3dca9002	0.098907486
164	0x3d2a8593	0.041631293
165	0xbdfe7dea	-0.1242636
166	0xbad0938c	-0.0015913113
167	0xbdafa910	-0.08577168
168	0x3d86b475	0.06577388
169	0x3ded245f	0.11579203
170	0x3e0b6145	0.13611324
171	0x3d544f35	0.05183335
172	0xbd4d8997	-0.050180044
173	0x3d8c37f8	0.06846613
174	0xbcebca91	-0.028783115
175	0xbd540e22	-0.05177129
176	0xbd8eafd0	-0.06967127
177	0x3dc49d15	0.096002735
178	0x3db3ca6e	0.08778845
179	0xbc720c42	-0.01477343
180	0x3d13f853	0.036125492
181	0xbe2dd47d	-0.16975589
182	0x3c617e84	0.013763074
183	0xbd3a8831	-0.04554004
184	0x3de95709	0.11393554
185	0x3e06c660	0.13161612
186	0x3d949cc0	0.0725646
187	0x3d239098	0.039932817
188	0x3da3d7dd	0.08000157
189	0xbd7fa5f1	-0.062414113
190	0x3c7118f5	0.014715423
191	0xbdccbf8e	-0.09997474
192	0x3ccf2a3d	0.025288695
193	0x3e66bfb0	0.2253406
194	0xbdb57fd3	-0.08862271
195	0xbde04abc	-0.109517545
196	0x3dad91dc	0.08475086
197	0x3cdea092	0.027176175
198	0x3d79e28f	0.06100708
199	0x3e79a0e4	0.24377781
200	0x3da33bfa	0.07970424
201	0x3db84bb4	0.08998814
202	0x3e013b9d	0.12620397
203	0x3d6079c9	0.054803643
204	0xbe0f0c4e	-0.13969538
205	0x3dd153b7	0.102210455
206	0xbd9895dc	-0.074504584
207	0xbdda443c	-0.10657546
208	0x3d18f043	0.037338506
209	0x3d659d8b	0.056058448
210	0x3dc57080	0.09640598
211	0xbafc7338	-0.0019260412
212	0xbd949a40	-0.07255983
213	0xbd11b8f5	-0.03557678
214	0x3c5a703f	0.013332426
215	0x3db1ef32	0.08688201
216	0xbd9a719e	-0.07541202
217	0x3ce47587	0.027888073
218	0x3bcc61e5	0.006237256
219	0xbd172c4a	-0.03690747
220	0x3d82d0a9	0.06387455
221	0xbc15a9a8	-0.0091346875
222	0x3e0aa52c	0.1353957
223	0xbd24a18d	-0.04019313
224	0x3d305408	0.04304889
225	0xbce5e5d5	-0.028063694
226	0x3da873aa	0.08225186
227	0x3d236f42	0.039901026
228	0x3dccb6a8	0.099957764
229	0xbd44e4b9	-0.04806969
230	0xbda31823	-0.07963588
231	0x3e40d5a2	0.18831494
232	0x3dea99c6	0.11455111
233	0x3d5fb628	0.054617077
234	0xbd097947	-0.033562925
235	0x3df66047	0.12030082
236	0xbd232a5f	-0.03983533
237	0xbc93712e	-0.017998304
238	0xbda0320a	-0.07822044
239	0x3d306415	0.043064196
240	0xbb3bce1d	-0.0028656789
241	0x3dc39299	0.09549446
242	0x3e3bdcb4	0.1834591
243	0xbcc901e7	-0.02453704
244	0x3ddc31da	0.10751696
245	0x3e459e70	0.1929872
246	0x3c7ba5b5	0.015359332
247	0x3d8a2aec	0.06746468
248	0xbd2d9925	-0.042382378
249	0x3dda6ac9	0.10664899
250	0xbdfa7261	-0.12228847
251	0x3e73ccc8	0.23808587
252	0xbd72df90	-0.059295237
253	0x3bb0c57e	0.0053946367
254	0xbace26bd	-0.0015728098
255	0xbd778002	-0.060424812

fc3.bias f4 [700]
0	0xbe058c1b	-0.13041727
1	0xbda4b87e	-0.080430016
2	0x3e1679e3	0.14694934
3	0xbdbff069	-0.093720265
4	0xbdf0c084	-0.117554694
5	0x3d19538e	0.0374332
6	0xbcfbb81c	-0.030727439
7	0x3d1d9762	0.038474448
8	0x3d788c32	0.060680576
9	0xbda3edcc	-0.080043405
10	0x3bb67f60	0.0055693835
11	0xbd84ae66	-0.06478576
12	0xbdaa78df	-0.083238356
13	0xbdc879eb	-0.09788879
14	0x3d29dd87	0.04147103
15	0x3de3487d	0.110978104
16	0xbcc7134f	-0.0243012
17	0x3ce0f855	0.027462164
18	0x3d0bfe82	0.034178264
19	0xbe0365c2	-0.12831786
20	0xbdb39df6	-0.08770363
21	0x3d8b0a35	0.06789056
22	0x3e08582d	0.13314886
23	0x3dbcd821	0.09220911
24	0x3dabf648	0.08396584
25	0x3de2419a	0.11047669
26	0xbdb3aca8	-0.08773166
27	0xbe3efb5b	-0.18650572
28	0x3d43594a	0.047692575
29	0x3cdad86c	0.026714526
30	0x3c02e388	0.007988818
31	0x3c1f6440	0.009728491
32	0x3cd4a874	0.025959231
33	0x3d1dde12	0.03854186
34	0x3c883e84	0.016631372
35	0xbcfb5729	-0.03068121
36	0xbcbe6868	-0.023243144
37	0x3d10758d	0.035268355
38	0xbcc0d559	-0.023539232
39	0x3e00ec69	0.12590183
40	0xbdc80623	-0.097667955
41	0xbe4d8c35	-0.20073016
42	0x3d24f5d6	0.04027351
43	0x3dd2e3d8	0.10297364
44	0x3c75c258	0.014999948
45	0x3d0dc007	0.03460696
46	0xbd86ecbe	-0.06588124
47	0xbe18fe23	-0.14940695
48	0xbe0cf01d	-0.13763471
49	0x3dde8dc1	0.10866881
50	0xbb4cf100	-0.0031271577
51	0x3be16740	0.0068787634
52	0xbda8a9cd	-0.08235512
53	0xbbb3bda0	-0.0054852515
54	0xbdc2dc92	-0.09514727
55	0x3d942a1f	0.072345965
56	0x3e29fd12	0.16600445
57	0x3de5f846	0.11228995
58	0x3c6863f5	0.014183988
59	0xbbe09ca7	-0.006854612
60	0x3d2dff7e	0.042479984
61	0xbb6a5876	-0.0035758293
62	0xbcf26ac5	-0.029591927
63	0x3d7992b3	0.06093092
64	0xbdb230af	-0.08700692
65	0xbcf02254	-0.029313244
66	0xbcb93905	-0.022610197
67	0x3bbc8564	0.005753206
68	0x3a0f1f18	0.00054596504
69	0x3b6a3dc3	0.003574238
70	0x3db3ed4f	0.087854974
71	0xbde036a2	-0.109479204
72	0x3e6c225c	0.23059982
73	0x3c86233a	0.01637422
74	0xbd372e11	-0.044721667
75	0x3d0af2a4	0.033922806
76	0xbd7aa2c7	-0.061190393
77	0x3cc08aa9	0.023503618
78	0x3c9d3f3d	0.019195193
79	0x3c17ad62	0.009257646
80	0x3e296d5c	0.16545624
81	0x3d849659	0.06473989
82	0xbcf31331	-0.029672237
83	0xbd60dc2a	-0.054897465
84	0xbc6d8ff2	-0.014499651
85	0x3daef432	0.0854267
86	0x3d2174c1	0.039417986
87	0x3dd909a3	0.10597541
88	0x3bdd62b0	0.006756149
89	0xbcf0054c	-0.0292994
90	0xbdb6dbfb	-0.08928677
91	0xbd4888ab	-0.04895846
92	0xbd969cf4	-0.07354155
93	0x3de29a23	0.110645555
94	0x3e011972	0.12607363
95	0x3d1fd09d	0.03901731
96	0x3d37a339	0.044833396
97	0xbd78bf3b	-0.060729247
98	0x3cb4106a	0.021980483
99	0xbc93cc34	-0.018041708
100	0x3d32e099	0.043671224
101	0x3de1b852	0.110214844
102	0x3d15f5e1	0.03661144
103	0xbd002a3b	-0.031290274
104	0xbd5d309b	-0.054001432
105	0xbb9c64fd	-0.004772781
106	0x3d1288ea	0.035775103
107	0x3e249545	0.16072567
108	0x3e17dd99	0.14830627
109	0x3c8a15ec	0.016856156
110	0xbd669afe	-0.056300156
111	0xbd5de00b	-0.054168742
112	0xbcb8e5da	-0.02257054
113	0x3dab87dc	0.083755225
114	0x3ca38bfe	0.019964214
115	0x3de4c83d	0.11171005
116	0xbcdebbea	-0.027189214
117	0xbd7fbb42	-0.062434442
118	0xbdf4273d	-0.119215466
119	0x3d3c75e1	0.046010856
120	0xbb889417	-0.0041680443
121	0x3d5a2e45	0.053266782
122	0x3db73b89	0.08946902
123	0x3d0471bb	0.032335024
124	0xbcf54a9a	-0.0299428
125	0xbe08a0ed	-0.13342638
126	0x3d9d3191	0.0767547
127	0x3ced7b09	0.028989332
128	0xbc561058	-0.01306542
129	0x3da6e989	0.08150012
130	0x3d00136d	0.031268526
131	0xbdd82918	-0.10554713
132	0x3df605ee	0.1201285
133	0xbdee39a7	-0.1163209
134	0x3d288198	0.041139215
135	0x3e20fb87	0.1572095
136	0xbdddc16f	-0.1082791
137	0x3e106528	0.14101088
138	0x3df8be6b	0.12145694
139	0x3d9641db	0.0733678
140	0x3d5ee037	0.054413047
141	0x3def68d1	0.11689914
142	0x3c0a5ab8	0.008444481
143	0x3df32001	0.11871339
144	0xbdb61737	-0.08891147
145	0x3d6ab8ba	0.057305075
146	0xbd684a5b	-0.056711536
147	0x3d237c3b	0.039913397
148	0xbcd67aff	-0.026181696
149	0x3d1aab97	0.037761297
150	0x3dc6685a	0.09687872
151	0x3d0124f7	0.031529393
152	0x3d127a47	0.035761144
153	0xbd156e09	-0.03648189
154	0x3caa6bdc	0.020803384
155	0x3dbcdca5	0.09221772
156	0xbccbbc0b	-0.02486994
157	0x3e3ab254	0.1823209
158	0xbb96018f	-0.0045778225
159	0xbaef9990	-0.0018280018
160	0xbe0fcef4	-0.1404379
161	0xbc8ddad4	-0.01731626
162	0xbd4ecf3e	-0.05049061
163	0x3e2e4322	0.17017797
164	0x3d42ae74	0.047529653
165	0xbc09733a	-0.008389289
166	0x3cfbd654	0.030741848
167	0x3d26c281	0.040712837
168	0xbd8ae9e4	-0.06782892
169	0x3d03ec55	0.032207806
170	0xbceee5c9	-0.029162304
171	0x3c2ffc2e	0.010741277
172	0x3e1f5c58	0.1556257
173	0xbc04f432	-0.008114861
174	0xbd1e151c	-0.03859435
175	0x3cccfaab	0.025021872
176	0x3d809a56	0.06279437
177	0xbd92e253	-0.07172074
178	0x3d87e3c2	0.06635238
179	0xbdff74c6	-0.12473445
180	0xbd7b8d1b	-0.061413866
181	0xbd75acfc	-0.059979424
182	0xbd99c01b	-0.07507344
183	0x3c25a198	0.010109328
184	0x38b6334f	8.687993e-05
185	0x3e14c37d	0.14527698
186	0xbdb93d36	-0.09044878
187	0xbdaac8cd	-0.08339081
188	0xbdc540c0	-0.09631491
189	0x3cae31f4	0.021264054
190	0xbcc205e0	-0.023684442
191	0x3be848dc	0.0070887636
192	0x3c175da8	0.009238638
193	0x3be58cc2	0.007005305
194	0xbc83d763	-0.016093915
195	0xbd1cba04	-0.038263336
196	0xbddc8d6d	-0.10769162
197	0x3d8e49e8	0.0694769
198	0xbd9bdac3	-0.07610085
199	0xbd7d1471	-0.061787073
200	0x3b281c7f	0.002565175
201	0x3cd4bb83	0.025968319
202	0x3d769671	0.060202066
203	0x3d9899a2	0.07451178
204	0x3cfcdba9	0.03086646
205	0x3dd3b666	0.10337524
206	0xbddb4d47	-0.10708099
207	0xbc4ce5dd	-0.012505976
208	0x3c340c07	0.010989196
209	0x3cc65d4e	0.024214413
210	0x3d1bf9ef	0.038080152
211	0x3d9593e9	0.07303602
212	0x3c48508a	0.012226233
213	0x3d6d7f73	0.057982873
214	0xbd138b59	-0.036021564
215	0x3dc3d21f	0.09561562
216	0xbcdd48d5	-0.027012268
217	0xbe50f9e1	-0.20407821
218	0x3cc775ae	0.024348106
219	0x3c5baafd	0.013407466
220	0x3d8fcc26	0.0702136
221	0x3aeafab7	0.0017927502
222	0x3bd0cc8e	0.006372041
223	0xbd3cfb9e	-0.0461384
224	0xbb9ff7f5	-0.0048818537
225	0xbc0be59e	-0.008538632
226	0xbe1ebc3a	-0.1550149
227	0x3d7ea26e	0.062166624
228	0x3d7733e3	0.060352217
229	0xbd160c80	-0.036633015
230	0xbd2d3e8d	-0.04229598
231	0xbcd57ede	-0.026061472
232	0xbd7acd80	-0.061231136
233	0x3d959bfe	0.07305144
234	0x3d46b93b	0.048516493
235	0x3cd3351d	0.025782162
236	0x3d801e31	0.062557586
237	0x3d2dca06	0.042428993
238	0x3d55e8d7	0.052224007
239	0x3d930a06	0.07179646
240	0x3d290b99	0.041270826
241	0xbd3f1028	-0.046646267
242	0x3cb74e3e	0.022376176
243	0xbbb2f86a	-0.005461742
244	0x3d829859	0.06376714
245	0xbd91136f	-0.07083785
246	0xbd059c9e	-0.032620065
247	0x3d02fd00	0.03197956
248	0x3d83ba1a	0.064319804
249	0x3b89f9c9	0.004210685
250	0xbe297f35	-0.16552432
251	0xbce98f23	-0.028510636
252	0xbcfb8631	-0.030703636
253	0xbd08a16d	-0.033357073
254	0x3da2a8da	0.07942362
255	0xbd19321a	-0.037401296
