manyvillager_critic_checkpoint.pt (torch, 330853 bytes, 9 tensors)

conv1.weight f4 [8, 14, 3, 3]
000000 27 2f 9b bd 6f d0 9f bd 47 bf 4c bc 04 e5 a0 bc
       -0.07577353 -0.078034274 -0.012496776 -0.019640453
000010 c8 cd e8 bb 12 0a 99 3d 29 5b c0 3c 48 d6 65 ba
       -0.007104609 0.07472624 0.023480969 -0.0008767587
000020 0c c0 a4 bd 86 d8 a2 bd e9 05 4d 3d a6 da d4 bd
       -0.080444425 -0.07951455 0.050054464 -0.103932664
000030 10 4c 22 bd 73 f0 bc bb e5 81 66 bd b7 6a 24 3d
       -0.03962332 -0.0057659685 -0.05627622 0.040140834
000040 8d 88 ba bd 6e a0 0a be b3 49 19 be 62 35 40 bc
       -0.09108076 -0.13537762 -0.1496952 -0.011731477
000050 cb 3b 11 bd df 59 a8 3c 0f 50 0d 3c 79 40 4f bd
       -0.035457414 0.020550666 0.0086250445 -0.050598595
000060 43 ae b6 bd 05 3e 52 ba 82 57 de bd e0 27 b3 3c
       -0.089199565 -0.0008020106 -0.108565345 0.0218696
000070 f8 a2 3b 3c a6 65 b5 3d f2 8b b2 3d f5 97 77 bd
       0.011452429 0.088572785 0.08718099 -0.060447652
000080 4b c6 1e bd 22 ba e7 bc 0c 86 34 bd 6b 8f 8d bd
       -0.038763326 -0.028286997 -0.04407315 -0.069121204
000090 6b 8d 2e 3d 60 63 36 bd b1 6c 18 bd 70 33 24 bb
       0.042615335 -0.044528365 -0.03721303 -0.0025055073
0000a0 f9 4c 91 3b db f7 b5 bd a1 27 b7 bc 9a 41 76 3c
       0.0044342247 -0.08885165 -0.022357764 0.015030289
0000b0 6b fa 7a 3c 7c 59 a3 3d aa 66 e8 3c ed 22 0a 3d
       0.015318493 0.07976052 0.028369267 0.033724714
0000c0 7a e9 85 bd f3 da e9 bd 93 d1 cc bc a9 99 bf bd
       -0.06538673 -0.114187144 -0.025002277 -0.0935548
0000d0 78 09 2d bd 43 9c 2f 3d 6f 5f 8f bd 1d 8a 02 be
       -0.04224536 0.042873632 -0.070006244 -0.12747999
0000e0 d9 a0 4d bc 2e ee 71 bd e2 d3 c3 bd 37 95 4d 3d
       -0.012550556 -0.059065036 -0.09561898 0.05019113
0000f0 4b 68 70 bd 37 b4 cd bc 79 48 82 3b c7 ba be bd
       -0.05869321 -0.025110347 0.0039759246 -0.09312969
000100 cf 4b eb bd ea 22 ad bd 1d 9d ab bc ef a1 e4 bc
       -0.11489069 -0.08453925 -0.02094894 -0.027909247
000110 4d 89 b8 3c 00 e7 af bc b3 9f 53 bd 21 fb f4 3c
       0.022526408 -0.021472454 -0.051665973 0.029904904
000120 9e 83 58 3d 35 63 e0 bd 19 b3 94 ba 10 f3 b3 bc
       0.052859895 -0.10956422 -0.0011344879 -0.021966487
000130 84 97 83 3d 8b 75 56 bd f2 c2 93 3d 79 db 85 bd
       0.06425384 -0.05235819 0.07214917 -0.06536002
000140 53 90 a6 bd 43 25 61 bd bf 3d c8 bd 66 2c 06 bd
       -0.081329964 -0.054967176 -0.09777402 -0.032757185
000150 6e 83 38 3b 16 99 e0 bd 08 ae 64 bd 1d c2 f0 3c
       0.002815451 -0.10966699 -0.05583003 0.029389435
000160 7c ab 45 3c 94 e2 3a bd 60 2a e6 3c a1 1f 56 bd
       0.012064811 -0.045626238 0.028096378 -0.052276257
000170 dc fc 2a 3d dc 22 ad 3d ef b2 5e bd c5 72 b5 bd
       0.04174505 0.084539145 -0.054369863 -0.08859781
000180 48 5b 7d bd 7e dd 92 bd d0 6e f9 3c 4a e5 9d bd
       -0.06185463 -0.071711525 0.030448347 -0.07709749
000190 3f f4 30 bd 2c be 6d 3d b0 85 b7 bb 72 08 3b bd
       -0.04320168 0.05804269 -0.0056006536 -0.04566235
0001a0 dc 7d 2a 3d b6 f3 27 bd 0c 71 4a 3d 60 8a 1a 3b
       0.041623935 -0.041003905 0.049424216 0.0023581013
0001b0 92 e4 50 bd 57 01 d8 bd 53 f2 33 be a2 99 09 3b
       -0.05099923 -0.105471306 -0.17572908 0.0020996113
0001c0 e3 4f 2d bd 25 c5 c0 3c 81 98 9d ba a1 a7 54 be
       -0.042312514 0.023531506 -0.0012023599 -0.2076707
0001d0 0d 42 f1 bd 47 88 08 3d 8d db 99 bd ba 56 80 3c
       -0.11780176 0.03333309 -0.07512579 0.015666354
0001e0 3f f1 d5 bc ba ec 34 bd e3 12 14 bd fb ab 41 bc
       -0.026116012 -0.044171073 -0.036150824 -0.0118207885
0001f0 f2 d5 76 bc 3d a8 2b bd ce 42 f7 bb fb 06 b0 bd
       -0.015065657 -0.04190849 -0.0075458055 -0.085950814
000200 e9 b3 d9 3c c9 f5 68 bd 86 5e 26 3d 9d 74 e9 bd
       0.026575046 -0.056875024 0.04061749 -0.11399195
000210 f2 33 59 3b c1 75 ac bd 15 04 87 bd d1 5f 78 bd
       0.0033142534 -0.08420897 -0.065925755 -0.060638253
000220 6c d4 91 bd 46 4d c2 3c eb b3 a1 bc e2 e9 25 be
       -0.071205944 0.023718487 -0.019739112 -0.162025
000230 d1 45 f7 bb 51 05 d8 3b 3c d3 31 bd 99 d7 40 bc
       -0.0075461646 0.0065924306 -0.04341434 -0.0117701525
000240 25 ea 98 bd f1 83 56 3b 20 84 81 bd fe 7b b9 3c
       -0.074665345 0.0032732452 -0.06324029 0.022642132
000250 e1 aa 4b ba a8 a1 7f 3d b7 49 9c bc fb f8 cb bc
       -0.00077692984 0.062410027 -0.019078119 -0.024898997
000260 f8 29 4e bd 38 99 a9 3c 58 24 d0 bc 1a 45 8f bd
       -0.050332993 0.020702943 -0.025407955 -0.06995602
000270 8f e8 af bd 4c 4b 6c 3d ba 69 8d 3d a6 76 90 3d
       -0.08589279 0.057688996 0.06904931 0.070538804
000280 48 75 32 3d 37 cb 63 bd b3 50 d3 ba 74 c8 01 bd
       0.04356888 -0.055613723 -0.0016122073 -0.031685308
000290 86 4e bc bd 0e 9b 93 be 51 dd 9a be 41 fe a9 bd
       -0.09194665 -0.28829235 -0.30246976 -0.08300448
0002a0 6a 3e 85 bd 95 6e 4e be 99 19 22 be 0a 13 90 3d
       -0.06506045 -0.20159371 -0.15830077 0.070348814
0002b0 e3 a4 14 3d 48 94 6e ba 5e fb e8 3d 9d dc 95 bc
       0.03629006 -0.0009101075 0.113760695 -0.018293673
0002c0 e0 18 c6 3c 3e b5 e2 3d 26 f8 db 3d 9c 3d ec 3d
       0.024181783 0.110697255 0.1074069 0.115351886
0002d0 c4 d9 43 be 06 69 ae bd d2 7d 71 bd dd 87 9a be
       -0.1912604 -0.085161254 -0.058957882 -0.3018178
0002e0 29 36 31 be 3c 03 c5 bd e3 36 4e be fb b3 fa bd
       -0.17305817 -0.096197575 -0.20138125 -0.1224136
0002f0 49 03 d3 bd 4e 42 d5 bc ec 1e 11 be 38 49 0d be
       -0.10303361 -0.026032593 -0.14171952 -0.13797462
000300 88 1c 8f bd b5 5d 17 be eb 02 ea bd 5b dd 82 bc
       -0.06987864 -0.1478184 -0.11426338 -0.015974691
000310 69 c6 35 bd 6f 27 3e bd aa c6 b5 bd 8a f5 fa bc
       -0.04437867 -0.046424326 -0.08875783 -0.03063466
000320 96 2a e2 3d 3e af 83 bd 00 b8 23 b9 d8 af 14 3c
       0.11043279 -0.06429909 -0.00015613437 0.009075128
000330 ee b0 d4 3d a7 94 a9 3c 23 ac 4d 3c df c7 20 bc
       0.10385309 0.020700766 0.012553248 -0.009813278
000340 8d c5 8e 3d 66 81 9f 3d b3 af 38 bd b0 2b 26 3d
       0.069712736 0.07788353 -0.045089435 0.040569007
000350 cf 50 51 bd 62 63 49 3d 63 46 96 3c 87 09 a1 bb
       -0.051102456 0.049167044 0.01834411 -0.004914466
000360 d8 bf 0d 3c 67 6e 20 bd e8 54 87 3d 70 b7 9e 3c
       0.008651696 -0.039167788 0.066079915 0.01937458
000370 1e b6 71 bd 90 dd 06 3d 10 45 bd 3b 5a 8b aa 3d
       -0.05901157 0.032926142 0.005776055 0.083273605
000380 d0 f8 78 3d 78 6f bd bc b6 5c af 3d 18 f7 5d 3d
       0.06078416 -0.023124442 0.08562605 0.054190725
000390 d8 93 9a 3d 50 8d 21 bc 7e 74 08 bd 60 13 82 3c
       0.0754773 -0.009860352 -0.03331422 0.01587838
0003a0 98 7f 8d 3d d4 34 0c bd 3f 73 22 be e1 5f e7 3b
       0.06909102 -0.03423007 -0.15864275 0.00706099
0003b0 ea 16 a9 bd 02 fb 57 be 82 e7 82 be 78 5b 82 bd
       -0.08256324 -0.21091846 -0.2556725 -0.063651025
0003c0 81 9c 8b 3d 86 17 19 bd 8c bb 80 bd e8 b8 4c 3e
       0.0681696 -0.03737595 -0.06285772 0.19992411
0003d0 38 3a 61 3e 23 67 36 3e 7b 1b 3b 3f 83 36 0a 3f
       0.21994865 0.17812781 0.73088807 0.5398943
0003e0 87 13 e7 3e 70 b5 95 3d 4b 4b 51 3e d8 01 5d 3e
       0.45132086 0.07309997 0.20438878 0.21582735
0003f0 90 ab b0 3e 57 dc 13 3e 60 ec af 3d b4 7f 60 3e
       0.34505892 0.14439522 0.08590007 0.21923715

conv1.bias f4 [8]
000000 6d c4 b7 bd 6b 2d d9 bd dc ed cf bd 0c 26 e7 3c
       -0.08973012 -0.10604366 -0.1015279 0.028216384
000010 22 4d 72 bd d7 30 e1 bd 60 63 cb bd f5 f8 0a bb
       -0.05915559 -0.109956436 -0.09931064 -0.002120552

conv2.weight f4 [16, 8, 3, 3]
000000 48 f6 ba bc 10 14 15 be 25 ba fb bd 68 5f f5 bd
       -0.022822514 -0.14558434 -0.122913636 -0.11981088
000010 28 4e e6 3d b7 ff 7b 3c 77 83 75 3d 75 93 fd bd
       0.11245376 0.015380791 0.059939828 -0.12381641
000020 da b4 92 bd 90 3c 3d 3e 49 87 61 3d f1 3e ca 3d
       -0.07163401 0.18480134 0.05506066 0.09875286
000030 a1 dc c4 3d 64 54 fd bd b8 7e 91 bc d7 11 8a 3d
       0.09612394 -0.12369612 -0.01776062 0.06741684
000040 b4 e2 4a 3e 58 72 bf 3d 15 26 bd bd 96 06 24 be
       0.19813043 0.09347981 -0.09235779 -0.16018137
000050 15 26 55 be 58 0f 3a be c6 70 00 be 5b f5 f2 bc
       -0.20815308 -0.18169916 -0.1254302 -0.02965801
000060 69 89 98 3d c9 ec 47 bd 36 f4 cf ba 71 e3 08 3e
       0.07448084 -0.0488098 -0.0015865627 0.13368012
000070 bc 48 59 3c 59 9a cd 3c 5c a6 08 be 06 59 bd 3d
       0.01326197 0.025098013 -0.13344711 0.092454955
000080 e0 39 f7 3d 89 d3 17 be 5f bf 12 bd 04 b6 6f bd
       0.12071586 -0.14826788 -0.035827037 -0.058523193
000090 27 2f 36 3e 8d 19 5b 3e aa eb 7e 3e 25 d6 15 3c
       0.17791425 0.21396466 0.24894586 0.009145294
0000a0 7d 0c e8 3d e6 4f 2d bd 6a 40 5d 3d 4a e0 47 bd
       0.11330507 -0.042312525 0.05401651 -0.048797883
0000b0 ab 62 2b 3d a0 3d aa bc 02 8d 11 be af 79 b9 bd
       0.041842144 -0.020781338 -0.14213946 -0.090564124
0000c0 54 f6 05 be 97 cb 8e bd 76 8a cf 3d 4f d7 9c 3d
       -0.13082248 -0.069724254 0.10133831 0.07658254
0000d0 95 e1 d5 bd 09 7a 87 3c 39 0b 4a 3e 0c 6f 3c 3e
       -0.10443417 0.016537683 0.19730844 0.18401736
0000e0 f3 fe 8c 3d 63 e3 5a 3c 84 a9 e7 bc ce ff ee bd
       0.06884565 0.013359877 -0.028279074 -0.116698846
0000f0 ee 54 2f 3d e3 15 54 3e 88 86 18 3e 3e 3b b6 bb
       0.042805605 0.20711474 0.1489507 -0.0055612614
000100 1d f9 3e be 47 19 30 be ea f5 10 bd 31 2c 9b bc
       -0.18649717 -0.17197143 -0.035390772 -0.01894197
000110 37 6b d2 bd a6 a9 6a bd da 1a 7a bc 40 ca dd 3c
       -0.10274356 -0.057290696 -0.015265191 0.02707398
000120 df ad fb bc ab c4 77 3d a1 50 a9 bd ac 58 ae bd
       -0.030722557 0.06049029 -0.08267332 -0.085130066
000130 bf 38 14 be cd 83 da bd 9d 7f 3b bd 3a 0d c1 bc
       -0.14474772 -0.1066967 -0.045776 -0.023565877
000140 d3 b7 f9 bc 99 b6 e5 3c 3f 95 90 3d 8d f8 b0 bd
       -0.030483162 0.02804117 0.070597164 -0.08641157
000150 23 fd c6 bb be 9e b1 3d a3 0f a8 3d 87 bd 31 3e
       -0.0060726567 0.08672856 0.082061075 0.17357455
000160 9f c0 e1 3d cf 7c e3 3d 23 2b 61 be aa de 9d bc
       0.11023068 0.1110779 -0.21989112 -0.019271214
000170 ea ec bf bd 63 27 3b be 98 05 20 be 9c 02 af be
       -0.0937136 -0.18276744 -0.15627134 -0.34181678
000180 a6 7d 21 be 43 5e c5 bd 44 7e 45 bc a6 ae 41 3e
       -0.15770587 -0.096371196 -0.01205403 0.1891428
000190 79 76 10 be ae 29 2e be 8e da 13 3e 9f 44 1b 3e
       -0.14107694 -0.17008087 0.14438841 0.15162896
0001a0 bb 0d 85 3d 28 cc 9e bc b0 a1 16 3d f0 66 c6 39
       0.064967595 -0.019384459 0.03677529 0.00037842197
0001b0 ed 98 19 3e 9a 23 35 bd 1f eb 0c 3d 94 78 8e 3c
       0.14999743 -0.044223405 0.034403916 0.01739148
0001c0 11 e5 67 3e a4 c1 0c 3e a5 93 5e bd e1 4d 1b be
       0.22645976 0.13745743 -0.054340024 -0.15166427
0001d0 fb 03 a1 3d 46 41 cc 3d e8 08 a6 3d 60 e3 46 3c
       0.07862087 0.099733874 0.081071675 0.012139171
0001e0 b2 b5 fb bd 0a 67 d3 bc 83 27 14 3c 0b ae 53 bd
       -0.12290515 -0.025805969 0.009042623 -0.051679652
0001f0 1c e5 25 3e 20 a3 08 3e 84 b1 1f 3d f2 68 3e be
       0.1620068 0.13343477 0.03898765 -0.18594721
000200 43 95 80 bd 60 61 14 3e 57 01 15 3d 3d d1 ab bd
       -0.062784694 0.1449027 0.03637823 -0.083895184
000210 f5 f6 22 3e fd 19 7f 3e 4d c9 9d 3c 6d 95 20 bc
       0.15914519 0.24912257 0.019261027 -0.009801251
000220 9f 06 ef bc 1c bc cf bd 1b 89 1d 3d 1b 42 ab bc
       -0.029177962 -0.10143301 0.038460832 -0.020905545
000230 70 74 1e bc 07 b3 e2 bd 15 60 8d be 52 ae 80 3d
       -0.009671316 -0.11069303 -0.27612367 0.06283249
000240 a7 68 e4 3b c6 c8 d3 bd 20 f5 8b bd 5b b9 83 bd
       0.0069704833 -0.10341029 -0.06833863 -0.06431838
000250 43 8c 34 bd 5e cd a1 3d 2a 79 82 3d 0c f4 34 3d
       -0.044079076 0.07900499 0.063707665 0.044178054
000260 14 e3 bb bd 32 ab 46 be 24 9d a1 bd 9e 96 d9 bc
       -0.09174171 -0.19401243 -0.078913 -0.026561078
000270 a9 8d ba bc 01 7a 3f bc 3b d2 b9 bd 32 0b c5 bd
       -0.022772627 -0.011686803 -0.090733014 -0.09621276
000280 76 0c 5b be ec 90 cb 3c 14 7f 51 bc 41 b0 99 bd
       -0.21391472 0.024849378 -0.012786645 -0.07504321
000290 2d c4 9c 3d 90 47 90 3d 4e f2 2e 3e c0 07 ca bd
       0.07654605 0.070448995 0.1708462 -0.098647594
0002a0 24 0c 5d 3d f1 2c e4 bc 5a 30 29 3e 51 a5 19 3e
       0.053966656 -0.027853461 0.16522351 0.1500447
0002b0 f4 10 50 be 58 5b bc bd fa eb 12 bd 82 66 19 be
       -0.20318967 -0.0919711 -0.035869576 -0.1498051
0002c0 2b f3 66 bc 39 57 a2 bc c8 a1 00 be 3f 13 4b be
       -0.014096062 -0.019816982 -0.12561715 -0.1983156
0002d0 5e 77 14 be de e9 f1 3a d8 13 9c bd fc d2 ce bd
       -0.1449866 0.0018456539 -0.076209724 -0.10098836
0002e0 6e 42 1e 3d 0e a5 d3 bd 36 80 29 3c cb 53 2e be
       0.03863757 -0.10334216 0.010345509 -0.17024152
0002f0 85 5e 1e be 74 cd 1b be 83 17 c7 3d da 24 51 3d
       -0.15465744 -0.15215093 0.097212814 0.051060535
000300 25 5a 65 bc 6c db 2b bc a0 5b 4d 3e 8c 5f d1 bc
       -0.013998543 -0.010489326 0.20054483 -0.025558256
000310 91 a9 d5 3d 8c 5a 61 3e 3f b7 4c be d3 00 30 3e
       0.10432733 0.22007197 -0.19991778 0.17187814
000320 02 46 92 be ec 9d d7 bd e1 89 ae bd 51 fe 09 be
       -0.28569037 -0.10528168 -0.08522392 -0.1347592
000330 36 ea a9 be 1f 4e 2f be 80 66 f9 bc 17 10 9b 3d
       -0.331865 -0.17119645 -0.030444384 0.07571428
000340 f6 12 f1 bd 27 a5 af bd 67 f9 68 bd 9b 4b e7 bd
       -0.11771195 -0.08576422 -0.056878474 -0.112937175
000350 7f 91 8e 3d 13 df 3f 3e f9 5b 32 3e a1 dd 2f 3e
       0.06961345 0.1873744 0.17417897 0.17174388
000360 a1 f1 21 bd 22 35 92 bd 8f b3 13 bc af 14 33 3c
       -0.039537076 -0.071390405 -0.009014978 0.010930224
000370 e1 1e ea 3d 4f 88 53 bd 68 3c 86 3d 90 db ca 3c
       0.11431671 -0.051643666 0.0655449 0.024762899
000380 82 fb 4e bd a3 7a cc 3c e1 80 44 bd ce cc 21 be
       -0.050532825 0.024960821 -0.04797447 -0.15800783
000390 a5 e1 94 bd 80 29 1a 3c 78 f9 07 3d 6a dc 72 bd
       -0.07269601 0.009409308 0.033196896 -0.059292234
0003a0 e1 78 ea bd 8a 91 ab bd a0 6e cd 3c a0 b3 c8 3c
       -0.11448837 -0.08377369 0.025077164 0.024499714
0003b0 c7 9b 88 ba e5 3a cb 3d 5e b1 85 bd 82 36 59 3d
       -0.0010422402 0.099233426 -0.06527971 0.0530305
0003c0 20 2d 10 be e9 fb 72 bc b6 46 65 bd 70 7f 6f 3c
       -0.14079714 -0.014830568 -0.05597564 0.014617786
0003d0 4e 7f 3e be 4a b9 23 3d 70 86 4b bd e3 27 89 3d
       -0.1860325 0.039971627 -0.049688756 0.06697061
0003e0 28 8d 82 3a fa ea 77 3b e4 40 d8 3d 1b cf 18 3e
       0.0009960281 0.0037829266 0.10559252 0.14922754
0003f0 c2 89 8b 3e 29 6a b6 3d fa 4c 69 3d 4e 41 b1 bd
       0.27253538 0.08906967 0.056958176 -0.08655034

conv2.bias f4 [16]
000000 8d a6 bf bd 5d 60 70 3d 9b 67 0b bd 29 d7 0a be
       -0.09357939 0.05868565 -0.034034353 -0.1355864
000010 3c 5c 4d bd 0f 67 b0 3c 28 e8 aa bd f7 c4 39 3c
       -0.05013679 0.021533517 -0.083450615 0.011338464
000020 6f f6 44 bd 9e 19 fd 3c b9 31 9d bd 1c db cb 3a
       -0.04808658 0.030896004 -0.076754995 0.001555297
000030 d0 6c cd 3c 5b 7a a6 bd cb 91 f8 bd 3e 49 0c 3d
       0.0250763 -0.08128806 -0.12137183 0.034249537

fc1.weight f4 [120, 576]
000000 bc bf 6e bc 62 cc 73 bc fd 05 88 bc f3 2b 0f bd
       -0.01457208 -0.014880272 -0.016604418 -0.034954023
000010 00 5a 88 39 76 5d 65 bc 1c ec f0 3a 71 47 c1 3c
       0.00026006997 -0.013999334 0.0018380913 0.023593636
000020 8c 84 94 3b c3 91 ce bc 9d 1e 0b 3d e2 c7 07 bd
       0.0045324024 -0.025215989 0.033964742 -0.033149607
000030 c6 17 fa bc 97 ed 05 bd 88 9e ae 3b 48 7d cd bc
       -0.030528914 -0.032697286 0.005328957 -0.025084153
000040 ec 96 00 bd c3 2e c3 bc a8 53 fa 3b 55 c5 49 bc
       -0.03139393 -0.023826009 0.007639367 -0.012315114
000050 e0 dd bc 3a 7a a0 b0 3c 16 08 f9 bc a3 da 10 3d
       0.0014409386 0.021560896 -0.030399363 0.03536476
000060 41 1d 0d 3d 20 d4 a8 bc 6c 4e 52 bc 54 57 5b 3c
       0.034451727 -0.020608962 -0.01283608 0.01338752
000070 0e 04 29 bd 8c ce 51 3b 4a 0d d5 3c 3a eb 97 3c
       -0.041263632 0.003201398 0.026007313 0.018544782
000080 88 c3 a2 bb 66 85 b6 3c 55 2d 0d 3d ac 84 59 bc
       -0.004967157 0.022280406 0.03446706 -0.01327626
000090 f6 52 11 3b cb b1 e4 ba 95 6b 09 bd c5 20 1c 3c
       0.0022174693 -0.0017448006 -0.033549864 0.009529297
0000a0 57 0c 13 bd 6f dd fa 3b e5 95 a0 3b 9b 15 55 bd
       -0.03590044 0.0076557915 0.0049006813 -0.052022558
0000b0 cd 43 31 bc 72 e2 80 bc 2c de 18 3c d4 ae 06 3d
       -0.010819388 -0.015732978 0.009330314 0.032881573
0000c0 0c 56 07 bd d6 bb b8 3b 70 1f ca 3b cb d5 26 bd
       -0.033041045 0.005637626 0.0061682984 -0.040731233
0000d0 9a fd b2 bb fe be 2a bc 61 a4 fd bb d0 7a c0 3c
       -0.0054623606 -0.010421513 -0.0077405428 0.023496062
0000e0 2e bb a3 bb 9a 7b 7b 3b 16 30 49 bc d6 f1 26 bc
       -0.004996679 0.0038373233 -0.012279531 -0.010189494
0000f0 df a0 1a bd 1f 23 2f bd fe e9 b0 3b fe 35 4f 3c
       -0.037751075 -0.042758103 0.005398988 0.01264715
000100 07 48 f3 3b 00 2d ed bc 91 8e 29 bd 75 8f c6 bc
       0.007424358 -0.028952122 -0.041395728 -0.024238328
000110 72 5b 9b bc 39 b7 30 bd 16 a7 85 bc d8 8a eb 3c
       -0.018964503 -0.043143485 -0.016315024 0.02875273
000120 a5 bd 81 bc 56 8c 90 bc 8a cb c6 3c cb 01 fd bc
       -0.0158375 -0.017645042 0.024266977 -0.030884644
000130 08 93 ed 3b 78 da ba bb 98 14 a5 3c 90 bd 3e 3b
       0.0072501935 -0.005702313 0.020151421 0.0029104687
000140 a1 6f 05 3d 8a d6 bd 3c da 7a 92 3c 5c fe 26 bc
       0.03257716 0.02317359 0.017880846 -0.01019248
000150 b6 13 ef bc 71 f4 00 3d 8b 7c da bc 66 0a e8 bb
       -0.029184204 0.031483117 -0.026670715 -0.0070813177
000160 86 9c 53 bc f4 18 20 3c 86 66 56 3b 4a c2 2a bd
       -0.012915736 0.009771574 0.0032714917 -0.041689195
000170 7a b9 09 bd 2a 6f 12 bd c0 fd 93 bc 40 c0 70 bc
       -0.03362415 -0.035750546 -0.018065333 -0.0146942735
000180 dd 23 00 3d 40 20 62 ba ed af 1f 3d 70 ff 25 bc
       0.031284202 -0.00086260214 0.038986135 -0.010131702
000190 79 52 17 3d 5b d1 d4 bc 11 bb 25 3d e5 e0 be 3c
       0.036943886 -0.025978735 0.040461604 0.023300597
0001a0 d0 cc 12 3b 40 29 6d 3b 75 7d e1 bb 6f de 06 3d
       0.002239991 0.0036187917 -0.0068814107 0.032926973
0001b0 ec f3 4e bc 30 f6 11 3b e0 5f cc 3a 7a 3f c7 3c
       -0.012631398 0.0022271983 0.0015592538 0.02432226
0001c0 f9 3d 28 3d b4 fa 25 bc 10 9e a3 3c 33 ff dc bc
       0.041074727 -0.010130573 0.019972831 -0.026977157
0001d0 68 8e bf 3b 10 c0 43 3b 5e 68 e2 3c 38 43 ae bc
       0.0058458336 0.0029869117 0.027637657 -0.021272287
0001e0 00 f7 e8 bc be 06 24 bd e2 4d 94 3c fe 54 f4 bc
       -0.028438091 -0.040045492 0.018103544 -0.029825684
0001f0 b0 6e 10 bb 18 2d 9a 3b 20 5a ef 3a 93 3f 05 bd
       -0.002203863 0.0047050826 0.0018261112 -0.032531332
000200 9c 70 2d bc c0 11 b9 bc e6 ac 6b bc 10 34 0c bc
       -0.01058593 -0.022591472 -0.014384484 -0.008557335
000210 e0 01 ab 3a 9a 9c cf 3c a0 a1 52 bc b2 5e fe 3c
       0.0013046823 0.025343228 -0.012855917 0.031051014
000220 ac db 78 bc 42 d3 84 3c 2c 88 39 3c eb 9e 9f 3c
       -0.015189093 0.016214017 0.01132397 0.019484958
000230 a4 3a 13 bc d3 fd 80 bc f6 c4 90 bc 2b 9f e7 bc
       -0.008986149 -0.015746033 -0.017672043 -0.02827414
000240 a7 97 25 bb 0c 02 03 bd 86 8b 00 bd c1 96 28 bc
       -0.0025267394 -0.031984374 -0.03138306 -0.010289849
000250 17 a8 80 bd e2 07 01 bc 09 1d 29 bc 02 67 7b 3c
       -0.062820606 -0.007875415 -0.010321864 0.015344383
000260 ca 0f c3 bc d7 7c 7b 3c 39 82 28 bd eb 03 44 bc
       -0.02381124 0.015349588 -0.041139815 -0.011963825
000270 e2 73 5e bd ff fd b4 bc b3 30 03 bd 73 5f 4a bc
       -0.054309733 -0.022093771 -0.032028865 -0.012351858
000280 1e df 0a 3b 58 40 66 bc 0b ef 91 bc 15 e8 7b 3b
       0.0021190117 -0.014053427 -0.01781418 0.0038437892
000290 d8 bc f7 3c 6e 33 31 bc 77 9a 22 bd c7 d0 01 bd
       0.030241415 -0.010815484 -0.03969809 -0.031693246
0002a0 d1 78 3d bd 60 f9 1e bc c3 11 b3 bc a6 5f 10 bd
       -0.046257798 -0.00970301 -0.021859055 -0.035247467
0002b0 e2 f5 41 bd 27 b6 04 bd 21 e6 5d 3c b9 21 ce 3c
       -0.047353633 -0.032400277 0.013543637 0.025162565
0002c0 6c 4a c9 bc 8e fe 8b bc 17 76 9b bd 1e 07 34 bd
       -0.02457162 -0.017089155 -0.07590883 -0.0439521
0002d0 ac 23 4d 3c 73 13 17 3c 25 5c 56 bd 40 db 95 3c
       0.012520712 0.009220946 -0.05233397 0.018293023
0002e0 e3 74 9a 3c c1 04 ec 3b d1 54 26 bd 64 8f 53 bc
       0.018854564 0.007202715 -0.04060823 -0.012912605
0002f0 a5 16 d0 bc 46 65 fb bc e5 ef 9d 3c 18 55 72 bc
       -0.025401423 -0.03068794 0.01927943 -0.014790796
000300 db 1a 87 bc 73 0e 27 bd 4e ad 81 bc d4 ef 01 3c
       -0.016492298 -0.040785264 -0.015829708 0.007930715
000310 51 e7 3e bc 61 21 da 3c 6c 2d 96 bc b8 0c db bb
       -0.01165183 0.026627244 -0.018332206 -0.006684866
000320 79 c5 ee 3c f8 a9 05 bb f7 58 3a bd 08 86 66 bc
       0.029146897 -0.0020395499 -0.045495 -0.0140700415
000330 ed 84 f3 bc 41 52 c2 3c dd 8f 11 bd e3 2b 69 bc
       -0.02972647 0.023720862 -0.03553759 -0.014231655
000340 09 20 da bc 10 3c 05 3c 3e 0c 2c bd ec e3 04 bd
       -0.026626604 0.008131996 -0.042003863 -0.032443926
000350 7b 26 81 3b 2a d6 0e bd c2 34 05 3d 28 37 93 bc
       0.003941355 -0.03487221 0.032521017 -0.017970636
000360 20 60 09 bd 26 dd 2a bd 09 71 25 3c 08 3f bf 3c
       -0.033538938 -0.04171481 0.01009775 0.023345485
000370 d3 1f 01 bd dd 88 5c bc fa 1d 1e 3c 85 ef 83 3c
       -0.03152449 -0.013460365 0.009650702 0.016105423
000380 33 82 20 bd d3 0c 4e bc 29 b3 8a 3c 7a ed cb bb
       -0.039186668 -0.0125763 0.016931133 -0.006223378
000390 89 b4 04 bc 22 a6 41 bd bc c1 d9 bb b6 ed e8 bb
       -0.008099684 -0.047277577 -0.0066454094 -0.0071084155
0003a0 c3 d6 ce bc 02 bb 6d 3a 50 d7 eb 3c 68 eb 36 3d
       -0.02524889 0.0009068699 0.028789192 0.044658095
0003b0 b7 75 81 3c ef 0b 0b bd b7 e5 00 3d 4a bd a2 bc
       0.015803201 -0.033946928 0.031469073 -0.01986565
0003c0 aa 74 9e bc aa ca ad bc ba d3 49 bd 2c bc b8 3b
       -0.01934274 -0.021214802 -0.049274184 0.005637666
0003d0 29 46 40 bc 9f 8d 0a bc 00 65 1e bd 72 03 bc bc
       -0.0117354775 -0.008456617 -0.03867054 -0.022950862
0003e0 71 64 80 bc e0 87 9c 3c 92 66 fd 3c 0f 12 d9 bb
       -0.015672894 0.019107759 0.030932698 -0.006624467
0003f0 62 f1 1b bc b0 3c 1f bb e6 fd d7 bb 85 d4 17 bc
       -0.009517999 -0.0024297647 -0.0065915463 -0.009266977

fc1.bias f4 [120]
000000 8e e1 5f bd 05 ab 38 bd 7c 6f db bb 8b 03 3d bd
       -0.054658465 -0.045084972 -0.0066966396 -0.046145957
000010 62 72 bb bc 55 be 05 bd 68 c7 55 bd 07 ba a4 bc
       -0.02288169 -0.032652218 -0.05219212 -0.020108236
000020 ce 90 11 bd f9 56 0f bd 80 fd e6 3c 76 d3 b0 bc
       -0.035538487 -0.034995053 0.02819705 -0.021585207
000030 54 55 1d bd c2 a1 7d bd db 46 3e bd 60 8b 22 bd
       -0.038411453 -0.061921842 -0.04645429 -0.0396837
000040 2d 16 47 bc fa 80 b6 bc 17 54 6c 3d e5 6e 14 bc
       -0.012151283 -0.022278298 0.05769738 -0.009059642
000050 09 7e 1f bd 77 84 cf bc 31 e0 41 bd e4 4a 4d bd
       -0.038938556 -0.025331719 -0.047332946 -0.05012025
000060 2c e4 c4 bc cc d5 67 bd 31 10 2f bd 03 e3 19 bd
       -0.024034582 -0.056600377 -0.04274005 -0.03757001
000070 a4 f9 2e bd ec 26 97 bc 94 da 2e bd aa 31 8e bb
       -0.042718545 -0.018451177 -0.04268892 -0.0043394165
000080 02 90 29 bd 3d 37 3f bd 8d 37 76 bd 8e 9b 2d bd
       -0.041397102 -0.04668354 -0.06011157 -0.042384677
000090 8b 03 dc bc 54 6e ee 3a b2 5f 36 bd f5 d8 55 bd
       -0.026857158 0.0018190839 -0.044524856 -0.05220886
0000a0 c0 66 3d bd e4 35 b3 bb b2 c5 bb 3b 5b a0 f5 bc
       -0.04624057 -0.0054690707 0.005730354 -0.02998369
0000b0 c1 a4 5b bd 24 1c 27 bd d6 69 50 bd 64 c4 e5 bc
       -0.05362392 -0.04079832 -0.050882183 -0.028047748
0000c0 87 8c 1f bd 54 f0 37 bd 75 a9 10 bd 27 84 7c bd
       -0.038952377 -0.04490693 -0.035317857 -0.061649468
0000d0 22 e0 da bb 62 b3 05 3d 94 c4 34 bc 7b 81 25 bd
       -0.0066795507 0.032641776 -0.011033196 -0.040406685
0000e0 72 ef 46 bd e7 45 b4 3c 84 89 7c bd 32 10 54 ba
       -0.048568197 0.022005988 -0.061654583 -0.00080895715
0000f0 8a 1f 9e bb a1 1e af 3c eb e7 e0 3c 1a 36 1f bb
       -0.004825537 0.02137691 0.027454337 -0.0024293722
000100 5e af 80 bd d4 c6 db bd 91 52 8a bc 8b 81 4c bd
       -0.06283449 -0.10731283 -0.016885074 -0.04992823
000110 51 41 24 bd b2 e1 b3 3a 23 26 81 3d 46 b1 53 bd
       -0.040101353 0.0013723879 0.06306102 -0.051682733
000120 bd 7c 0e 3d f1 b6 ca 3c 41 8b 5b 3d a5 f6 40 3d
       0.03478693 0.024745436 0.0535996 0.04711022
000130 11 a5 dc bc 53 62 8e bd 6b fe 64 bd 6c 85 34 be
       -0.026934179 -0.069523476 -0.055906694 -0.17629021
000140 ed 0e 19 bc cb 6c 90 bd c7 78 15 bd b7 fa 34 bd
       -0.0093419375 -0.070520006 -0.036492135 -0.044184413
000150 43 32 27 bc b4 46 2c bd c8 30 19 bd 0d 95 8f bd
       -0.010204854 -0.042059615 -0.037400037 -0.07010851
000160 08 af c8 bc 37 3d 20 3d 46 0a 1a 3b 76 13 02 be
       -0.024497524 0.03912088 0.0023504659 -0.12702736
000170 cd 0d ac 3b 18 df 47 bd 8c a4 7a bd e8 4c b3 3c
       0.0052506686 -0.048796743 -0.06119208 0.021887258
000180 11 4b 29 bd cf 0d 89 bd 41 96 54 bd dc ed 02 bd
       -0.041331355 -0.06692087 -0.051901106 -0.03196512
000190 90 51 94 bb c8 e9 95 bd c1 e9 18 bc e2 77 94 bd
       -0.0045263246 -0.07319981 -0.009333075 -0.07249428
0001a0 44 d3 78 bc 45 ac aa bc 79 98 67 bd 7c de 07 bd
       -0.015187088 -0.020834098 -0.056541894 -0.033171162
0001b0 12 ea 5f bd 53 fd eb ba 7e 4a ab bd 20 2a 2e 3d
       -0.054666586 -0.0018004574 -0.08363818 0.042520642
0001c0 53 f7 c6 bc 0c b4 99 bb fa 12 5f 3b 61 b9 bd bd
       -0.024287855 -0.0046906527 0.003403841 -0.09263874
0001d0 1c 80 a6 bd 59 a9 ee bc 38 8c 40 3c 49 f0 88 bd
       -0.08129904 -0.029133486 0.011752181 -0.06686456

fc2.weight f4 [84, 120]
000000 81 75 36 bd 76 83 8a bd 72 1e 58 3d 6d cd a0 3d
       -0.044545654 -0.067633554 0.05276341 0.07851682
000010 67 a7 0c 3d 65 3c 73 bd cb 5d 4b bd 57 c5 f5 3d
       0.034339335 -0.05938377 -0.049649995 0.1200053
000020 a9 3e 91 bd 0b d1 48 bc 6d 38 46 be f8 53 ab bd
       -0.070920296 -0.012256871 -0.19357462 -0.08365625
000030 ba 48 d5 bc e9 5f 2e bc 83 c8 f6 bc 73 5c cf ba
       -0.026035655 -0.010642984 -0.030124908 -0.0015820399
000040 9c af 2f 3e 3e 02 16 3d 63 73 5e bd 05 0a bc bc
       0.17156833 0.036623232 -0.05430926 -0.022953996
000050 ee 87 e8 3c f2 cd d5 3d 29 85 92 bd a4 3f 7a bd
       0.028385129 0.104396716 -0.071543045 -0.06109585
000060 b3 55 99 3d 54 c5 58 bd 69 b2 f2 bc 5b dd 15 3b
       0.07487049 -0.05292256 -0.029626088 0.0022867534
000070 10 83 e2 3c 94 d5 e0 3c 5c 20 ba 3d aa b4 20 3d
       0.027650386 0.027445592 0.09088203 0.039234795
000080 c1 e3 09 bd c7 3f cc bd 9d 85 8a bc 26 8b cf 3d
       -0.03366447 -0.09973102 -0.016909415 0.10133962
000090 78 f9 72 3d 15 11 65 bc 78 c3 e8 bc 7a 6f aa 3d
       0.059319943 -0.013981123 -0.02841352 0.08322044
0000a0 a9 3c 97 bd 67 ad 63 bc 24 af 63 3d 04 ed e4 bd
       -0.07384617 -0.013896323 0.05558695 -0.1117802
0000b0 5c dd 34 3d 32 1c 5e bd 32 5d 69 bd 18 5d aa 3d
       0.044156417 -0.054226108 -0.056973644 0.083185375
0000c0 18 13 60 3d 03 f3 94 bd 2c a6 b5 3d 63 2e 12 3e
       0.05470571 -0.07272913 0.088695854 0.14275508
0000d0 36 c5 80 3d cd fd 24 3d cf 10 c4 3b f5 c9 6b 3d
       0.06287615 0.040281106 0.005983449 0.057565648
0000e0 d1 b4 a0 bd c6 19 22 3d 42 b2 b0 bc a9 b1 05 3e
       -0.07846988 0.03957536 -0.021569375 0.13056053
0000f0 ca 84 be 3d 50 db 42 3b 5e f6 ef 3d 35 1f 01 3e
       0.09302671 0.0029732771 0.11716913 0.12609561
000100 46 f4 63 3d f3 63 b1 bd 80 28 38 3a 5f 3a aa 3c
       0.05565288 -0.08661642 0.0007025078 0.020779787
000110 9f 15 9c 3d 28 d1 b4 39 a9 9b 12 be 09 a9 54 bb
       0.076213114 0.0003448811 -0.14317192 -0.0032449386
000120 1d 27 1b 3c ed 31 b5 3d cf 2f 06 3d ab 54 48 3d
       0.009469775 0.08847413 0.032760438 0.04890887
000130 f8 06 e0 bd 9e c6 81 3d 22 9b 14 3d ff 52 60 bc
       -0.10938829 0.06336711 0.03628076 -0.013691663
000140 ba 34 e1 3d b0 9b 3c bc 60 20 c2 bc d7 d9 23 3e
       0.10996385 -0.011511728 -0.023697078 0.16001068
000150 28 49 53 bd 4f 6a 1f 3d 18 ff 37 3e f8 1c 6d 3d
       -0.05158344 0.038919743 0.17968404 0.057888955
000160 8c af 03 bd ca 70 b7 3d 25 8a 00 3c bc 78 44 bd
       -0.032149836 0.0895706 0.007845436 -0.047966704
000170 8b 40 41 bb e6 7b 87 bd 00 c4 22 3a 34 4f a7 3d
       -0.0029487933 -0.066154286 0.0006209016 0.08169404
000180 72 8a d0 bc 7b de 73 3d 36 13 91 3d 34 09 99 bd
       -0.02545664 0.059538346 0.07083742 -0.074724585
000190 cc b6 eb 3d 67 06 8b bd 78 a4 29 3d 99 bc 72 3d
       0.11509475 -0.067883305 0.041416615 0.059261892
0001a0 c3 58 92 3d 1e ba 99 3d e5 9f 59 3e ca 3f 91 3d
       0.07145836 0.07506202 0.21252401 0.07092245
0001b0 9c 28 f1 3c cc 0a 11 3e c2 38 63 3d 0f 6f a3 3d
       0.02943831 0.14164275 0.05547405 0.07980167
0001c0 30 81 e3 3c 7f f7 dc 3d f7 a7 6a 3d 0f 34 f9 3b
       0.027771562 0.10789394 0.05728909 0.007605083
0001d0 b3 8b 32 bd 28 be 86 3d e2 14 2f 3e 04 50 8b bd
       -0.04359026 0.06579238 0.1709781 -0.06802371
0001e0 8e 3e 5b bc 6c 35 2a 3d e2 c9 23 bc 21 1e 25 3d
       -0.013381613 0.041554853 -0.009996863 0.040311936
0001f0 8f ea 9c bd d5 16 af 3d 9d 48 80 3d 24 04 b7 bb
       -0.07661926 0.08549277 0.0626385 -0.0055852104
000200 a7 35 8e bd c9 04 64 3c e4 e6 d1 bc 23 46 12 bd
       -0.06943827 0.0139171565 -0.025622793 -0.03571142
000210 d7 be 60 3d 52 a3 08 bb a3 80 63 bc 80 db 1d bb
       0.0548695 -0.00208493 -0.01388565 -0.002408713
000220 08 bd 13 bd 81 6d b5 bd b8 1c 13 3c d3 3f ad bd
       -0.036068946 -0.08858777 0.008979015 -0.08459439
000230 40 ff 03 3d 74 e7 23 bd e4 22 64 3d e8 c1 65 3d
       0.032225847 -0.040015653 0.055697337 0.056093127
000240 8b bf 8b bc fd 3e b7 bd 0a 22 89 3d c8 a0 94 3d
       -0.017059108 -0.08947561 0.066959456 0.07257229
000250 7e 66 42 bd 45 37 83 bd f8 04 07 bd e7 2a ba bc
       -0.047461025 -0.06407026 -0.032963723 -0.022725536
000260 5b 62 9e bd 39 01 94 bd 6c f6 00 bd 3f 55 23 3d
       -0.077336036 -0.07226796 -0.031485006 0.03987622
000270 0a 1d ae bd 9a 88 68 3c 0d 65 97 bc 75 14 21 bd
       -0.085016325 0.014192725 -0.018480802 -0.03932615
000280 a1 b8 d8 bc c7 c0 a8 3a 61 f0 53 bd 68 8d 69 3d
       -0.026455225 0.0012874835 -0.051742915 0.05701962
000290 41 d8 ab 3d 82 b8 b7 3d e4 71 ac bd 51 2e 92 bd
       0.083908565 0.08970739 -0.084201604 -0.071377404
0002a0 88 3a ee bc 6e 15 87 3d 96 d5 c4 bd f2 c8 9c bc
       -0.029080644 0.06595884 -0.09611051 -0.019138787
0002b0 cf 54 b3 bc aa 57 4a bd 82 13 b7 bd 18 7b a2 3c
       -0.021891026 -0.04940001 -0.08939268 0.019834086
0002c0 47 dc 4b 3d 35 dd b5 bd 00 92 92 3c af 39 d1 bd
       0.04977062 -0.088800825 0.017891884 -0.102160804
0002d0 2f bc 04 3d 3b 1e 09 3d 27 4b 35 bd 36 43 d4 3c
       0.03240603 0.033476096 -0.044261124 0.025910955
0002e0 98 cc 85 3d 88 51 d8 bc 40 bb b4 bc 30 94 21 bb
       0.06533164 -0.026406065 -0.022061944 -0.0024654977
0002f0 b0 2b 05 3d 13 6f a2 3c be e5 e9 bc 8c 64 72 3d
       0.032512367 0.019828355 -0.028551932 0.05917792
000300 93 9a 13 bd 93 50 1e 3d 68 40 61 3d 5e 0a ab bc
       -0.036036085 0.03865106 0.054993063 -0.020878967
000310 61 4d d2 ba 60 f8 cb bd 5c 00 8d 3d d9 48 4b bc
       -0.0016044789 -0.09959483 0.06884834 -0.012407505
000320 74 cb aa 3d 32 0f a7 bc c4 a9 85 bd 48 2c e3 bd
       0.08339587 -0.020392988 -0.06526521 -0.1109243
000330 9e c0 16 3d be 34 ab 3d 5a a4 bd bd cc 00 52 3d
       0.036804788 0.08359669 -0.09259863 0.05127029
000340 31 9b 61 3d fb d9 12 bd 24 00 86 bd 27 b5 2a 3c
       0.055079643 -0.035852414 -0.065429956 0.010419167
000350 28 93 a6 bc 5c 40 ac 3c c4 4f 1e 3d e1 57 16 3d
       -0.020333841 0.021026783 0.03865029 0.0367049
000360 c9 79 c1 3d 48 0f 88 bc 64 68 94 bc 36 4c 5d bc
       0.09447057 -0.01660885 -0.018116184 -0.01350694
000370 ef 8d 6e 3c dc 85 1d 3c db a6 10 3d 58 0f 9f 3c
       0.014560207 0.009614434 0.035315376 0.019416496
000380 02 4e 81 3d 60 ea 00 bc 93 6d ae bd 45 05 45 bd
       0.06313707 -0.007868379 -0.085169934 -0.04810073
000390 67 31 f1 bd 10 6a d2 bc 78 21 97 bd ec bc 87 bd
       -0.11777001 -0.02568534 -0.073794305 -0.06627831
0003a0 d8 9a 5e bd 68 62 af bd 4a 03 de 3c 6f f5 c1 bd
       -0.05434689 -0.085636914 0.027101178 -0.09470641
0003b0 74 9f bd bc bc 77 84 bd 19 ca e0 bc e8 56 e7 3c
       -0.023147322 -0.0646815 -0.027440118 0.028239682
0003c0 8e 6a 00 bc fc 3a bc 3d ba 05 24 bd e9 14 97 bc
       -0.007837905 0.09190938 -0.040044524 -0.018442588
0003d0 8a 4b 8d bc f8 8e 8e 3c 1b c9 10 bd 66 e4 b3 bc
       -0.017247934 0.017402157 -0.03534804 -0.021959495
0003e0 01 3c a7 bd cf d1 1c bd 94 9f 36 be bd d4 fb ba
       -0.08165742 -0.038286027 -0.17834312 -0.0019213181
0003f0 dc b6 1e 3c c5 cd b7 3d 83 91 09 bd e9 07 15 3d
       0.009687152 0.08974794 -0.033586036 0.036384497

fc2.bias f4 [84]
000000 09 52 74 bd df 94 9a bd 7e 28 a4 3d 99 c2 f5 3a
       -0.059648547 -0.07547926 0.08015536 0.0018750011
000010 ea 82 b2 bd 7e 9f e0 bd aa d1 0d bb 16 99 11 3e
       -0.08716376 -0.10967921 -0.0021639862 0.14218554
000020 11 7a 86 bd cb 24 72 bc e1 f6 b2 3d 9a c1 cb bd
       -0.06566251 -0.01477928 0.08738495 -0.09949036
000030 5a 66 15 be fb d4 04 3e 8a 2e 7d bc bc 98 6f 3d
       -0.14589825 0.1297187 -0.01545299 0.05849527
000040 0e c4 4f bd cf 32 a2 bd b9 c4 d3 bd c5 69 3c 3d
       -0.05072408 -0.07919847 -0.10340256 0.045999307
000050 38 56 11 bd 43 85 2b 3e cb 79 c2 bd 66 77 ee bb
       -0.035482615 0.16750054 -0.094958864 -0.007277417
000060 2c da 07 3e 72 27 15 3e 7f 5e 8c bc 37 1f 7f bd
       0.1326682 0.14565828 -0.017134903 -0.06228563
000070 50 0c 5c 3c 22 62 18 3e eb 41 f6 bc 7a 9e db 3d
       0.01343067 0.14881185 -0.030060729 0.107235864
000080 2d c9 d3 bc a8 87 ad bc bc 94 e9 bc ba 0f 0e be
       -0.025852764 -0.02118285 -0.028513305 -0.13873187
000090 d4 23 98 bd 86 a4 82 3d 60 1f e7 bd 3d 46 ca 3c
       -0.07428709 0.063790366 -0.11285281 0.024691695
0000a0 46 ff ec bc 82 ad 83 3d 28 be dd bd 51 84 10 be
       -0.028930318 0.06429578 -0.10827285 -0.14112975
0000b0 5b 69 b6 3b 6e 85 2e 3e ad f9 ee 3d 70 de c7 3b
       0.0055667586 0.17043087 0.116687156 0.0060995147
0000c0 19 f9 77 b9 b5 dc 85 bd b9 72 9a bd 0e 7e c6 3b
       -0.00023648552 -0.06536237 -0.07541413 0.0060575074
0000d0 97 ae 02 be 3f 37 b7 bd a4 23 11 3e 8c f6 c1 bd
       -0.12761913 -0.08946084 0.14173752 -0.09470853
0000e0 8e 28 d8 bb 91 2d 72 bb 7b 7e 95 bc 1d 40 a5 3b
       -0.0065966314 -0.003695343 -0.018248787 0.0050430433
0000f0 be 41 b8 3b f4 f5 4b 3d 3c a4 c0 bd b4 7f 4c bb
       0.0056230715 0.049795106 -0.09406325 -0.0031204047
000100 af 64 c7 bd 4b 55 4c 3d 0f 4a 0a be 17 51 48 bd
       -0.09736001 0.04988603 -0.13504814 -0.04890546
000110 d0 45 98 3d 51 75 a5 3d a4 e9 81 3d 05 58 e7 3d
       0.07435191 0.08079017 0.063433915 0.11296085
000120 41 70 8b bd 48 88 79 3d a5 d6 ce 3b 1b 4c 11 3d
       -0.0680852 0.060920984 0.0063122087 0.03547297
000130 fb a8 27 3d b9 ac a9 bd 73 5f c5 bc 8b e5 a3 bd
       0.040932637 -0.08284897 -0.024093365 -0.08002766
000140 77 bb 27 be b9 b3 aa 3d ef 81 0f be 42 39 2d 3d
       -0.16380106 0.083350606 -0.1401441 0.042290933

fc3.weight f4 [1, 84]
000000 7a 1f 7f 3d 21 13 4f 38 55 f9 99 3d 0b 22 aa 3d
       0.062285878 4.937046e-05 0.075182594 0.083072744
000010 6e a1 29 bd b4 d9 3f 3c e0 9d 8a 3d 0a 67 06 be
       -0.041413717 0.011709619 0.067683935 -0.13125244
000020 ba 29 8a 3b bd b0 87 3d d0 c6 81 bd 68 e5 39 bc
       0.0042164 0.06625507 -0.063367486 -0.011346199
000030 23 5f 8a bc 75 a4 dd bd a3 3a 1c bd 8d e3 05 be
       -0.016891068 -0.10822383 -0.038141858 -0.13075085
000040 d6 a7 11 3c 5e 01 1a bd 64 0e 56 bc bd d7 55 be
       0.008890113 -0.03759896 -0.013064954 -0.20883079
000050 28 71 25 3d d2 e9 c5 bd 5a 14 1f bc 76 90 64 bd
       0.040391117 -0.09663738 -0.009709442 -0.05580183
000060 01 cc f1 bd da 9b 10 be fb b0 52 bd f0 53 45 3d
       -0.11806489 -0.14121953 -0.051438313 0.048175752
000070 88 28 8d 3d c5 8e 1f be 1b 5a 92 bb 98 9c a3 bd
       0.06892496 -0.15581806 -0.004466308 -0.07988852
000080 49 68 63 bd d6 5b 2d be 0b f5 9d 3d e5 69 95 39
       -0.055519376 -0.16929564 0.07712754 0.00028498392
000090 d3 af 24 bc 0b 91 41 3d 9c 6f 2d bd 56 d8 10 be
       -0.010051685 0.047257464 -0.042342767 -0.14145026
0000a0 78 b4 98 3d fa ae 19 be 27 1a 6c bb 99 34 62 bd
       0.07456297 -0.15008155 -0.003602633 -0.055225942
0000b0 d3 26 30 3d 0c bd f7 bd 32 91 9d bd 6b f4 b9 3d
       0.043005776 -0.12096605 -0.076937094 0.09079822
0000c0 08 b4 3b 3d 51 ab 18 bd 83 4d 7f bc d6 85 5b 3d
       0.045825988 -0.037272755 -0.015582445 0.053594433
0000d0 d3 d5 0e bd bb fa c1 ba 90 70 a5 bd 4d bf 14 3c
       -0.034871887 -0.0014799455 -0.0807811 0.009078813
0000e0 76 b5 58 3d 73 d5 01 bd 70 94 a1 3d 7b 4d 9e bd
       0.05290743 -0.0316977 0.0788964 -0.07729622
0000f0 0a c2 5a 3d 91 04 97 3d 6b 4a 13 bb cb 3f 2e 3d
       0.053407706 0.07373918 -0.0022474776 0.042541306
000100 d8 ba 5f bc 6d 1a d8 bd 05 08 7e 3d e8 45 14 ba
       -0.013655387 -0.10551915 0.062019367 -0.0005656169
000110 66 e1 78 3d 29 06 04 be c4 13 6f 3d 59 87 ff bd
       0.06076183 -0.12892975 0.05836846 -0.124769874
000120 32 e5 6a 3b ff 44 d0 bd 95 61 4e 3d 47 4b 67 3d
       0.0035842177 -0.1016941 0.05038603 0.056468274
000130 8d 09 8e 3d 79 9d 06 3d bb 73 b9 3d 83 17 6b 3d
       0.069354154 0.03286502 0.09055277 0.05739547
000140 d2 b7 92 3a 19 d5 03 be 97 97 19 3c fb c1 5f 3d
       0.0011193699 -0.12874259 0.009374521 0.054628354
