policy_checkpoint.pt (torch, 568485 bytes, 10 tensors)

conv1.weight f4 [8, 14, 3, 3]
-0.0077089183 -0.0039870683 -0.0043960656 -0.09216963 0.043916993 0.01922927 -0.002420148 -0.015850853
-0.11055013 -0.14415203 -0.02616488 -0.040530268 -0.05450962 -0.14463052 -0.01747615 -0.11503936
-0.01581373 -0.030163117 0.04579998 0.02813939 -0.0013143481 -0.07674522 0.0021684275 -0.0515437
0.0039792294 -0.15481493 -0.03386023 0.0152392015 0.087048754 -0.0037785172 -0.0768231 -0.02418653
0.070088774 0.08587296 -0.019306652 -0.06573933 -0.16073512 -0.14602044 -0.2959831 -0.060053494
-0.11101807 -0.14650145 -0.17069131 -0.17794369 -0.16727802 0.029001122 0.1102346 0.21741623
-0.05274905 0.16682306 0.10876497 0.066466354 0.19258073 0.12882361 -0.23736905 -0.12082462
-0.16790049 -0.20228247 -0.14470372 -0.36563846 -0.100323796 -0.20458722 -0.077856764 0.06978563
-0.22826084 -8.3504865e-06 -0.04484465 -0.06410545 -0.30447042 -0.10357757 -0.11133643 -0.10826706
-0.1417469 0.21335287 0.08248819 -0.08644147 -0.01993227 0.056380987 -0.12764068 0.2084107
0.18669805 -0.02814039 -0.09186577 0.029289111 0.0049771713 0.04119586 0.08517778 -0.024122125
0.039720535 0.035100553 -0.0040251315 0.0459546 -0.00022561103 0.025238112 0.036875844 0.037827075
0.002284415 -0.005831681 -0.037143573 -0.082618594 0.028749585 0.055126116 -0.012277558 -0.056099012
0.034924723 -0.060876638 0.056977794 0.0027601048 -0.29509982 0.08487586 -0.10502024 -0.14392854
-0.12450617 -0.1424779 -0.27419972 -0.07125861 0.008745527 -0.18890786 0.14341661 0.031073658
-0.08420704 -0.24337776 -0.081413805 -0.1449561 0.20452343 0.124035195 0.12313434 -0.03585655
0.012688086 0.063973226 0.11349573 0.07035329 0.05212825 0.032690857 0.045692887 0.006800661
0.0690182 0.19900095 -0.00015953495 0.023235943 -0.065944426 -0.09289408 -0.1067951 -0.11866158
-0.112590626 0.008885262 -0.11038456 -0.07689261 -0.08994747 0.0045110737 0.03677667 -0.07018598
0.122183725 0.04139951 0.047862545 0.047626853 0.024603672 -0.02815599 0.07913637 -0.058622636
-0.011673361 -0.06753035 -0.12923925 -0.24887079 -0.16000593 -0.17694524 -0.046371832 -0.12339946
-0.31377032 -0.0997051 -0.133408 0.09601594 0.11704399 0.15122221 0.123943515 0.32930765
-0.029794967 0.06171314 -0.08263717 0.10854323 -0.04585432 -0.082456864 -0.0033701966 -0.14681458
-0.026143946 0.04058848 -0.1786036 0.16673812 -0.11502784 -0.038979173 0.14355311 0.023952385
0.039314233 0.09664074 0.051722135 0.086498156 0.08100684 -0.05742382 -0.03700539 -0.035679698
-0.096019864 -0.081537366 0.068399325 -0.08603794 0.017945513 0.24245977 0.028665362 0.014467261
0.08171287 0.0052285516 -0.005532014 0.03220167 -0.044788714 0.03756915 -0.037174344 0.061100025
-0.0026917458 -0.07027464 -0.062063314 0.057181984 0.016733311 0.002803333 0.03409387 -0.015689902
-0.05053005 0.00805898 0.03229242 0.08172427 -0.0141630545 -0.038328458 0.0863305 0.055273995
0.080512345 -0.07898224 -0.15753347 -0.144437 0.0003921677 -0.049451455 0.022114981 -0.18837368
-0.25276977 0.07168925 -0.08737034 -0.22563489 -0.053688444 -0.08858527 0.26488918 -0.17388251
0.10397178 -0.06189035 0.23037528 -0.14578111 0.17797217 0.11090086 0.10433151 0.14845772
00000000: 189b fcbb f4a5 82bb df0c 90bb 6ec3 bcbd
00000010: 4ee2 333d b486 9d3c 599b 1ebb a6d9 81bc
00000020: 1b68 e2bd 979c 13be bb57 d6bc 1103 26bd
00000030: 7b45 5fbd 061a 14be 252a 8fbc c299 ebbd
00000040: cc8b 81bc a418 f7bc c398 3b3d 9484 e63c
00000050: 3446 acba 992c 9dbd 2d1c 0e3b 7d1f 53bd
00000060: 3264 823b ce87 1ebe 06b1 0abd d8ad 793c
00000070: 9e46 b23d 00a1 77bb 6e55 9dbd d422 c6bc
00000080: b48a 8f3d 2ade af3d fc28 9ebc 58a2 86bd
00000090: bf97 24be 6286 15be 198b 97be a7fa 75bd
000000a0: 715d e3bd 7a04 16be b4c9 2ebe df36 36be
000000b0: ee4a 2bbe c393 ed3c aec2 e13d 5ca2 5e3e
000000c0: 630f 58bd aad3 2a3e 2bc0 de3d 831f 883d
000000d0: e233 453e 56ea 033e df10 73be e672 f7bd
000000e0: 1bee 2bbe 2323 4fbe 362d 14be f734 bbbe
000000f0: 9076 cdbd 507f 51be 5e73 9fbd c5eb 8e3d
00000100: 36bd 69be 1119 0cb7 06af 37bd b849 83bd
00000110: 8ce3 9bbe 7a20 d4bd 5b04 e4bd 1fbb ddbd
00000120: 1926 11be 2d79 5a3e 91ef a83d 3a08 b1bd
00000130: 0049 a3bc c0ef 663d 3db4 02be 9d69 553e
00000140: c62d 3f3e ad86 e6bc 1f24 bcbd b8ef ef3c
00000150: 8a17 a33b fdbc 283d b071 ae3d c39b c5bc
00000160: 00b2 223d 99c5 0f3d 40e5 83bb e43a 3c3d
00000170: 0092 6cb9 28c0 ce3c 200b 173d 90f0 1a3d
00000180: 20b6 153b b017 bfbb dc23 18bd f033 a9bd
00000190: 4084 eb3c eccb 613d d027 49bc 14c8 65bd
000001a0: 3a0d 0f3d c859 79bd 8c61 693d e0e2 343b
000001b0: 5317 97be 65d3 ad3d da14 d7bd 0162 13be
000001c0: 17fd febd bae5 11be e863 8cbe 09f0 91bd
000001d0: 6649 0f3c 1071 41be cedb 123e 2f8e fe3c
000001e0: be74 acbd 0538 79be 48bc a6bd 5f6f 14be
000001f0: 976e 513e 2a06 fe3d db2d fc3d 51de 12bd
00000200: b1e1 4f3c 6504 833d 7370 e83d 6315 903d
00000210: 6f84 553d d9e6 053d 7728 3b3d 14d8 de3b
00000220: 6a59 8d3d e8c6 4b3e d648 27b9 4e59 be3c
00000230: df0d 87bd 403f bebd 64b7 dabd d804 f3bd
00000240: ea95 e6bd 7d93 113c 4d11 e2bd df79 9dbd
00000250: 6136 b8bd a1d1 933b 22a3 163d abbd 8fbd
00000260: 763b fa3d 8892 293d 840b 443d 6014 433d
00000270: a48d c93c 64a7 e6bc 4012 a23d 4a1e 70bd
00000280: a041 3fbc 5a4d 8abd 4b57 04be fcd7 7ebe
00000290: 98d8 23be 2231 35be 64f0 3dbd dbb8 fcbd
000002a0: 81a6 a0be 3032 ccbd 1b9c 08be 01a4 c43d
000002b0: c2b4 ef3d ffd9 1a3e 19d6 fd3d 039b a83e
000002c0: 9314 f4bc ebc6 7c3d ad3d a9bd ea4b de3d
000002d0: bdd1 3bbd 25df a8bd 84de 5cbb 9056 16be
000002e0: d42b d6bc 1b40 263d dde3 36be 66bd 2a3e
000002f0: b793 ebbd a0a8 1fbd 96ff 123e cb37 c43c
00000300: f607 213d 95eb c53d 97da 533d f225 b13d
00000310: eae6 a53d 3d35 6bbd f792 17bd e024 12bd
00000320: 10a6 c4bd 10fd a6bd f214 8c3d a934 b0bd
00000330: 7802 933c 6047 783e 9fd3 ea3c 1708 6d3c
00000340: 1459 a73d 4554 ab3b e645 b5bb e6e5 033d
00000350: 5f74 37bd 1ce2 193d 2044 18bd 0544 7a3d
00000360: 0068 30bb 27ec 8fbd 1a36 7ebd a837 6a3d
00000370: 4c14 893c 20b8 373b 04a6 0b3d 1c88 80bc
00000380: 99f8 4ebd d009 043c 0e45 043d 0e5f a73d
00000390: 280c 68bc 4dfe 1cbd 0cce b03d fc66 623d
000003a0: a8e3 a43d 71c1 a1bd 7450 21be 4be7 13be
000003b0: dc9b cd39 9c8d 4abd 7a2a b53c 08e5 40be
000003c0: 0a6b 81be d0d1 923d 39ef b2bd d50c 67be
000003d0: 6ae8 5bbd 326c b5bd 8e9f 873e 420e 32be
000003e0: 28ef d43d bc80 7dbd 7fe7 6b3e a547 15be
000003f0: 563e 363e fd1f e33d c2ab d53d 4d05 183e

conv1.bias f4 [8]
-0.056392547 -0.07259484 0.015230879 -0.05502353 0.047336515 -0.0037486525 -0.1677941 0.025808837
00000000: dffb 66bd 9aac 94bd f08a 793c 5a60 61bd
00000010: efe3 413d f4ab 75bb 37d2 2bbe 0e6d d33c

conv2.weight f4 [16, 8, 3, 3]
-0.05705212 -0.0072128084 0.10869527 -0.14031462 0.01673846 -0.15381214 0.21335915 -0.038094483
-0.046318136 -0.19644116 -0.12023568 -0.08407636 0.04395038 0.11603612 -0.023916444 0.17025243
-0.017645013 0.052881155 -0.1797872 -0.044054214 -0.25947392 0.06849074 -0.08869479 0.06424646
-0.11124359 -0.039849713 -0.21302994 -0.045810603 0.09403451 -0.028360505 -0.06352146 -0.0029711083
-0.014902089 0.18561989 -0.11675968 0.03837909 0.06840469 0.031982042 0.06864627 -0.011787822
0.010376087 0.10698626 -0.20209266 0.07278919 -0.17326382 0.06865315 -0.10729818 -0.043151397
-0.0836414 0.11084115 -0.028991584 0.13816199 -0.1756953 0.05826023 -0.1909315 -0.030233722
-0.003381893 0.03439685 0.022720993 -0.056132823 0.0416488 0.0073216283 -0.004885827 0.066062115
0.026303843 0.12365207 -0.1748618 -0.0183398 0.06647915 -0.1340412 0.15411021 -0.12374448
-0.10957719 0.04608434 -0.23293191 -0.14274573 -0.107377075 -0.055843074 0.21521415 0.079670824
-0.10728374 -0.070716195 -0.0057651927 -0.045163974 -0.006018209 0.08413926 -0.07909303 0.17697643
0.14076331 -0.005867925 0.19673991 0.28411216 0.11561876 -0.12199245 0.10665491 0.09763022
-0.21830022 -0.10253259 -0.18638398 -0.23763284 -0.15197428 -0.20442241 -0.04349273 -0.15759553
-0.030128498 0.1373634 0.15730362 -0.025094483 -0.07495164 -0.0052344766 -0.09107917 0.027475586
-0.08823209 -0.051457167 -0.100569695 -0.05533052 -0.12051501 -0.15797505 -0.26245698 -0.20049427
-0.026648724 -0.0699035 0.11289746 0.15834403 0.24208823 -0.05682412 0.1393001 0.013484099
-0.016781718 0.056927953 0.117830075 -0.009957284 0.05043889 -0.051091067 0.04156954 -0.09500816
-0.02597911 -0.08893417 0.032512728 -0.17078745 -0.06799866 -0.0015767622 -0.06412683 0.16428071
0.18651785 0.09843018 0.11334305 -0.21507567 0.0006650085 -0.20175493 -0.081310004 0.044595364
0.16553494 0.0060696877 0.08759995 0.03149657 0.012730992 0.072386585 -0.09841522 -0.057220142
-0.045966618 0.17003313 -0.1132616 -0.13751084 -0.07309888 0.0036111777 -0.049285043 -0.07567009
0.07858468 -0.16482398 -0.17057222 0.1340828 0.11378008 0.15731023 -0.03817107 -0.011349885
-0.117033325 -0.17378217 0.09128253 0.10827002 -0.05843218 0.0026824463 0.026070673 0.06156874
0.06930047 0.14524478 -0.038642403 -0.12351025 -0.13569936 0.049762454 0.12297002 0.15823594
-0.13467734 -0.12549698 0.06925628 -0.23495553 -0.0028009359 0.07333868 -0.08484904 0.04892261
-0.006118129 -0.17027153 -0.03135289 0.05434579 -0.061261307 0.056005705 -0.018594854 0.1926376
0.27023184 0.20168492 0.021512745 -0.10168532 -0.084966846 -0.12617232 -0.008250781 -0.19099946
0.08228935 0.021413444 0.13537268 -0.1636301 -0.0061101797 -0.0476783 -0.084474675 -0.09791986
0.0014353446 0.034225486 -0.023406252 0.02895044 0.15943748 0.076228395 -0.10291338 0.091381855
0.005732929 -0.18248484 -0.1487266 -0.1178471 -0.22346744 -0.083272874 0.1215724 -0.12296285
0.0036877412 -0.1899874 -0.1037595 0.17517008 -0.08225185 0.2033866 -0.14961447 0.11311921
-0.17863795 -0.056935977 -0.052900027 0.095878385 0.002980181 -0.14103112 0.14329971 0.13851292
00000000: 7caf 69bd 6c59 ecbb a09b de3d a3ae 0fbe
00000010: 181f 893c ee80 1dbe d27a 5a3e f608 1cbd
00000020: 16b8 3dbd df27 49be 203e f6bd 3a30 acbd
00000030: 5005 343d 58a4 ed3d 6bec c3bc a756 2e3e
00000040: 468c 90bc e999 583d 231a 38be 3172 34bd
00000050: c4d9 84be e044 8c3d 9da5 b5bd a693 833d
00000060: aed3 e3bd 7439 23bd 8524 5abe e6a3 3bbd
00000070: 2a95 c03d 4a54 e8bc 8a17 82bd edb6 42bb
00000080: e427 74bc 2413 3e3e b31f efbd 6533 1d3d
00000090: c217 8c3d 9aff 023d 6a96 8c3d b521 41bc
000000a0: 7700 2a3c 9d1b db3d 61f1 4ebe 8012 953d
000000b0: 126c 31be 069a 8c3d 26bf dbbd 85bf 30bd
000000c0: 2f4c abbd af00 e33d c27f edbc 567a 0d3e
000000d0: 78e9 33be 47a2 6e3d 8c83 43be b6ac f7bc
000000e0: c0a2 5dbb b6e3 0c3d 6021 ba3c 88eb 65bd
000000f0: ef97 2a3d 45ea ef3b 4a19 a0bb 934b 873d
00000100: 287b d73c 4c3d fd3d f90e 33be 593d 96bc
00000110: 3826 883d 1942 09be 11cf 1d3e bf6d fdbd
00000120: 016a e0bd efc2 3c3d b485 6ebe f02b 12be
00000130: 83e8 dbbd b5bb 64bd 1961 5c3e 752a a33d
00000140: 94b7 dbbd a7d3 90bd f1e9 bcbb dcfd 38bd
00000150: 6534 c5bb 3451 ac3d 87fb a1bd 4f39 353e
00000160: 4224 103e b947 c0bb 3076 493e 2677 913e
00000170: 87c9 ec3d 2dd7 f9bd e46d da3d 5af2 c73d
00000180: 188a 5fbe 9bfc d1bd 71db 3ebe 0656 73be
00000190: 259f 1bbe 1c54 51be 6f25 32bd b960 21be
000001a0: 0ad0 f6bc fea8 0c3e 3314 213e f292 cdbc
000001b0: 3f80 99bd f985 abbb b787 babd 7b14 e13c
000001c0: 07b3 b4bd c0c4 52bd 7cf7 cdbd 41a2 62bd
000001d0: 93d0 f6bd 36c4 21be c360 86be 5f4e 4dbe
000001e0: 6d4e dabc 9129 8fbd c936 e73d f024 223e
000001f0: fae5 773e 69c0 68bd afa4 0e3e 69ec 5c3c
00000200: d079 89bc 492d 693d e550 f13d e023 23bc
00000210: 0299 4e3d de44 51bd d244 2a3d a393 c2bd
00000220: 24d2 d4bc 1e23 b6bd 112c 053d e8e2 2ebe
00000230: e242 8bbd 5cab ceba ed54 83bd 3439 283e
00000240: 89fe 3e3e c395 c93d 6720 e83d cc3c 5cbe
00000250: f753 2e3a d898 4ebe dc85 a6bd a1a9 363d
00000260: fe81 293e 3be4 c63b 9a67 b33d 8c02 013d
00000270: a795 503c 6b3f 943d eb8d c9bd ab5f 6abd
00000280: 7e47 3cbd 2a1d 2e3e b3f5 e7bd a4cf 0cbe
00000290: deb4 95bd 82a9 6c3b 1ddf 49bd ecf8 9abd
000002a0: 01f1 a03d 9ec7 28be 7caa 2ebe 004d 093e
000002b0: 8805 e93d ef15 213e 4559 1cbd def4 39bc
000002c0: 2baf efbd f4f3 31be 56f2 ba3d acbc dd3d
000002d0: 9556 6fbd fbcb 2f3b 2a92 d53c 812f 7c3d
000002e0: 68ed 8d3d 0cbb 143e 7f47 1ebd f1f2 fcbd
000002f0: c6f4 0abe b7d3 4b3d b5d7 fb3d 9a08 223e
00000300: dbe8 09be 4882 00be 3dd6 8d3d 2f98 70be
00000310: e88f 37bb 9732 963d 55c5 adbd 1363 483d
00000320: 967a c8bb a95b 2ebe e36b 00bd b199 5e3d
00000330: 23ed 7abd 3d66 653d 3c54 98bc ca42 453e
00000340: d45b 8a3e 7e86 4e3e 7f3b b03c 6540 d0bd
00000350: 1903 aebd 5133 01be 492e 07bc 5d95 43be
00000360: 5287 a83d 3f6b af3c 239f 0a3e a68e 27be
00000370: e737 c8bb 524a 43bd 0f01 adbd 358a c8bd
00000380: 2c22 bc3a 0630 0c3d 78be bfbc 7929 ed3c
00000390: 9443 233e a21d 9c3d 40c4 d2bd 6926 bb3d
000003a0: 4bdb bb3b 4edd 3abe c94b 18be d259 f1bd
000003b0: a6d4 64be f88a aabd f3fa f83d f2d3 fbbd
000003c0: 08ae 713b 0f8c 42be dc7f d4bd c95f 333e
000003d0: a873 a8bd 9444 503e 8934 19be 0bab e73d
000003e0: deec 36be b335 69bd b3ad 58bd e35b c43d
000003f0: 244f 433b 766a 10be 29bd 123e 55d6 0d3e

conv2.bias f4 [16]
-0.030155709 0.022452576 -0.035986174 0.025192672 -0.13498577 -0.10301526 0.029477121 0.06491927
0.009823113 0.016281847 -0.10240926 -0.056502152 -0.05538596 -0.023357112 -0.16627368 0.032557424
00000000: 1b09 f7bc 77ee b73c 3d66 13bd dd60 ce3c
00000010: b639 0abe aaf9 d2bd 017a f13c 65f4 843d
00000020: 1ff1 203c 8261 853c f2bb d1bd cd6e 67bd
00000030: 63dc 62bd 6a57 bfbc a643 2abe ef5a 053d

fc1.weight f4 [120, 576]
-0.012469922 0.010740375 -0.038952097 0.006631515 -0.04289802 -0.01443733 0.002114201 -0.0016148916
-0.0023408805 -0.06274211 0.016535206 0.0048699556 -0.009649301 -0.025634293 -0.044310346 0.00654245
0.006471048 -0.01981679 -0.04082594 -0.027638154 -0.04784329 -0.007749985 -0.02136762 -0.05198941
0.01229508 -0.031008482 -0.007932627 -0.014823901 -0.05305526 0.008417401 -0.036499467 0.018248474
0.015167568 -0.040654745 0.019645108 0.0043299245 0.010685221 0.0057909214 -0.028285882 -0.036366086
-0.0041130357 0.0036298363 0.0008913074 -0.0357725 0.014625296 0.017019464 -0.012704085 -0.0068905232
-0.013960846 -0.0061328574 0.00061309827 -0.027896648 -0.035931617 0.020317003 0.016780231 -0.043076895
0.0051646894 -0.012284539 0.0015911579 -0.01063667 0.020759 -0.010666197 0.010473437 -0.022123424
0.024681102 0.03279679 0.030791465 -0.020510882 -0.01978896 -0.009802819 -0.021917367 0.00065711426
0.047509454 -0.024650555 -0.024034843 -0.034729317 0.03677388 0.017798364 -0.034741223 0.039605517
0.03647243 0.0019672401 -0.031050947 -0.038337465 0.00076179963 -0.008323673 0.022208575 -0.020819327
-0.0042101815 -0.038779274 -0.041701254 0.013060003 -0.018157557 -0.029320052 0.024450049 0.015007651
-0.046747956 -0.03438248 -0.043933798 0.009226462 -0.043743428 -0.013871529 0.0322315 -0.011343077
-0.014888767 0.019449666 -0.0066180564 -0.00039265907 0.0073986165 0.04656881 0.044129804 0.026394753
0.030239686 0.018604582 0.014995847 -0.021955496 0.0045362245 0.03004192 0.025454802 -0.05411384
-0.025440674 0.0073894924 0.0044449526 0.031647306 0.047560137 0.00038024283 -0.039205838 0.00041008426
0.0038209006 -0.006550906 -0.008188702 0.008781214 -0.008105938 -0.03151283 -0.028044965 0.0035283677
-0.021183938 -0.031713024 -0.019984148 0.03420875 -0.01754221 -0.035592668 -0.044254504 0.0032616414
-0.01944378 0.03965545 0.015033588 -0.0044127554 -0.019162392 -0.018836495 -0.0038104951 0.012255523
0.008471478 -0.034497686 -0.012989696 -0.034594916 0.004280228 0.027036805 0.034581695 0.005172301
0.030087326 0.006044477 -0.022887409 0.024831872 -0.023685932 0.014145806 -0.0024838708 0.0013261996
0.033846315 -0.0067528524 -0.025398552 -0.0384294 -0.004269719 -0.009499919 -0.011789229 0.002349425
-0.021996617 0.0005375445 -0.025465509 0.007031787 0.030979786 0.024400825 -0.019348519 0.014152202
-0.03044891 -0.046692792 0.030500207 0.0050500697 -0.030067995 0.010939697 0.013902647 0.013557449
-0.055597894 -0.0015046672 0.014727885 0.032659043 -0.016946524 0.011979604 -0.036785003 -0.022898348
0.025587343 0.0013022824 0.009027559 -0.003257405 -0.034713596 -0.054852933 -0.05570819 0.018637469
-0.0013397299 -0.005387798 -0.011937519 -0.008820286 0.028656486 0.015654568 -0.012347555 -0.01495491
-0.02761453 -0.034872822 -0.034228895 0.011143492 -0.008983667 -0.040825672 -0.02536868 0.015869336
-0.016712166 -0.01672128 -0.053229507 0.007871653 0.009374383 -0.01806194 -0.003040622 -0.03996617
-0.05991751 -0.01869132 -0.059962872 0.01869518 -0.043167613 -0.058481053 0.026746644 -0.045015745
0.008906952 -0.030817749 0.008722625 -0.014084889 -0.041141536 -0.0339065 0.007343064 -0.043138642
0.018876899 0.0025760373 -0.059894502 -0.021631561 -0.00091987127 0.013465558 -0.016666753 0.017149607
00000000: a54e 4cbc 66f8 2f3c 3c8c 1fbd 2e4d d93b
00000010: d6b5 2fbd 8d8a 6cbc 688e 0a3b c5aa d3ba
00000020: 7569 19bb ef7e 80bd d774 873c 2694 9f3b
00000030: 1a18 1ebc 02ff d1bc c47e 35bd 0c62 d63b
00000040: 160b d43b d256 a2bc 1a39 27bd 6969 e2bc
00000050: 53f7 43bd 96f3 fdbb 260b afbc d9f2 54bd
00000060: 4e71 493c 8005 febc d9f7 01bc f2df 72bc
00000070: 7950 59bd 24e9 093c 7780 15bd d37d 953c
00000080: 6481 783c 9785 26bd c7ee a03c 0ae2 8d3b
00000090: 1111 2f3c c5c1 bd3b cbb7 e7bc 9bf4 14bd
000000a0: a5c6 86bb 8ce2 6d3b a1a6 693a 2f86 12bd
000000b0: f09e 6f3c 676c 8b3c cb24 50bc e6c9 e1bb
000000c0: 08bc 64bc 23f6 c8bb 54b8 203a 8387 e4bc
000000d0: 082d 13bd d86f a63c b276 893c 6671 30bd
000000e0: 8e3c a93b 1745 49bc 668e d03a 6d45 2ebc
000000f0: c70e aa3c 46c1 2ebc c798 2b3c 2f3c b5bc
00000100: 0630 ca3c ed55 063d 623e fc3c 7006 a8bc
00000110: 751c a2bc 019c 20bc 0d8c b3bc 3142 2c3a
00000120: 4699 423d f6ef c9bc b8e4 c4bc 5440 0ebd
00000130: 35a0 163d e0cd 913c d04c 0ebd 6539 223d
00000140: 1d64 153d d0ec 003b 8e5e febc bf07 1dbd
00000150: 82b3 473a 0460 08bc c2ee b53c 4b8d aabc
00000160: 90f5 89bb 04d7 1ebd efce 2abd 9ff9 553c
00000170: 28bf 94bc 9b30 f0bc 784b c83c a7e2 753c
00000180: c97a 3fbd a5d4 0cbd edf3 33bd 962a 173c
00000190: 4f2c 33bd 6945 63bc 2d05 043d 50d8 39bc
000001a0: 04f0 73bc e854 9f3c 48dc d8bb cfdd cdb9
000001b0: 1870 f23b f0be 3e3d 74c1 343d cf39 d83c
000001c0: 38b9 f73c a368 983c 24b1 753c 03dc b3bc
000001d0: 9ca4 943b 791a f63c 9786 d03c 79a6 5dbd
000001e0: f668 d0bc 8e23 f23b f7a6 913b 9ba0 013d
000001f0: 6bce 423d 545b c739 4d96 20bd 9400 d739
00000200: 1368 7a3b fca8 d6bb e829 06bc 15df 0f3c
00000210: c5ce 04bc 9913 01bd 8ebe e5bc 303c 673b
00000220: f089 adbc 84e5 01bd ccb5 a3bc 791e 0c3d
00000230: aeb4 8fbc 9ec9 11bd 3644 35bd 43c1 553b
00000240: 9048 9fbc c16d 223d 704f 763c e098 90bb
00000250: 73fa 9cbc fe4e 9abc 80b9 79bb 64cb 483c
00000260: f4cb 0a3c 724d 0dbd bcd2 54bc 66b3 0dbd
00000270: 2841 8c3b 4a7c dd3c 89a5 0d3d 687c a93b
00000280: b279 f63c c010 c63b 607e bbbc 366c cb3c
00000290: 0009 c2bc d0c3 673c 70c8 22bb e0d3 ad3a
000002a0: 6fa2 0a3d 0847 ddbb a010 d0bc 2668 1dbd
000002b0: 00e9 8bbb 8ca5 1bbc 9c27 41bc d0f8 193b
000002c0: 4032 b4bc 00ea 0c3a 0b9d d0bc e86a e63b
000002d0: 52c9 fd3c 3de4 c73c c980 9ebc a3de 673c
000002e0: fe6f f9bc f140 3fbd 92db f93c 0e7b a53b
000002f0: 2851 f6bc 6a3c 333c eec7 633c 1020 5e3c
00000300: 9eba 63bd 4138 c5ba 3a4d 713c 7dc5 053d
00000310: 70d3 8abc 1a46 443c dfab 16bd 5195 bbbc
00000320: 8c9c d13c 59b1 aa3a 54e8 133c 307a 55bb
00000330: d82f 0ebd 78ad 60bd 452e 64bd 9bad 983c
00000340: e099 afba 208c b0bb 9595 43bc f682 10bc
00000350: 02c1 ea3c 023e 803c 664d 4abc 7005 75bc
00000360: de37 e2bc ced6 0ebd 9933 0cbd 3193 363c
00000370: 3b30 13bc d238 27bd fad1 cfbc 6900 823c
00000380: f4e7 88bc 11fb 88bc 2f07 5abd 1bf8 003c
00000390: 0397 193c a2f6 93bc 2c45 47bb 91b3 23bd
000003a0: 106c 75bd 8a1e 99bc a19b 75bd a226 993c
000003b0: 86d0 30bd d489 6fbd c71b db3c 6e62 38bd
000003c0: 77ee 113c 8175 fcbc 57e9 0e3c 4ec4 66bc
000003d0: 0784 28bd 8be1 0abd 169e f03b 25b2 30bd
000003e0: baa3 9a3c bcd2 283b f053 75bd ac34 b1bc
000003f0: 8423 71ba a59e 5c3c b788 88bc 557d 8c3c

fc1.bias f4 [120]
-0.06000243 -0.055638526 -0.018670537 -0.010793591 0.003080405 -0.041562982 -0.0045622485 -0.04753349
-0.023904644 -0.041203536 -0.058850527 0.00503046 -0.064987555 -0.0545664 -0.018633194 0.08680055
-0.010788644 -0.03762536 -0.013856455 0.09218783 -0.06042653 -0.070534445 -0.04739814 -0.038503222
0.0060281893 -0.04819178 -0.04386975 0.016295815 -0.060061216 0.014340546 -0.04697408 -0.040677078
-0.017648395 -0.051575236 0.012059731 0.09166775 0.0036684787 -0.05490369 -0.03842725 -0.048470493
0.012128127 -0.06031171 -0.022082971 -0.020661313 0.052783784 -0.07600882 -0.038465485 -0.0052434187
-0.04973496 -0.019739639 0.03882071 -0.04378416 -0.033255305 -0.009630241 -0.06815699 -0.01768231
0.002691947 0.013785556 0.15671252 -0.05857104 0.06066774 -0.04142873 0.0024706766 0.0073578083
0.0073728575 -0.046874087 -0.027383666 -0.056028355 -0.008206603 0.08805808 -0.008667473 -0.0576755
0.026148638 -0.04344229 -0.052460194 -0.041390684 0.012281499 -0.0740991 -0.043192163 -0.020310726
0.034799792 0.0028295047 -0.014454556 -0.008152063 -0.013065689 -0.026123086 -0.047061574 -0.003111334
-0.04270573 -0.035203367 -0.0027630753 -0.028004896 -0.04191405 -0.03179225 -0.051164083 -0.057006
-0.05855424 -0.037777286 -0.049632452 -0.020381281 -0.011911528 -0.07629256 -0.044328075 -0.038986877
-0.04414935 0.005003907 0.016041977 -0.040457614 -0.011452808 0.02702748 0.009822303 -0.045338456
-0.05135938 0.016113672 0.05505497 -0.02999538 -0.047516834 -0.0063833687 0.024509197 -0.059928156
00000000: 1cc5 75bd 39e5 63bd f4f2 98bc 9ad7 30bc
00000010: 9fe0 493b f23d 2abd ea7e 95bb 7ab2 42bd
00000020: acd3 c3bc 0ac5 28bd 400d 71bd 8fd6 a43b
00000030: 3218 85bd 0481 5fbd a4a4 98bc 7dc4 b13d
00000040: dac2 30bc 0d1d 1abd 2f06 63bc f9cc bc3d
00000050: cf81 77bd 5d74 90bd 8d24 42bd 8eb5 1dbd
00000060: 1e88 c53b be64 45bd c4b0 33bd cd7e 853c
00000070: c002 76bd 9cf4 6a3c e567 40bd 029d 26bd
00000080: 5e93 90bc 8e40 53bd 2e96 453c 4dbc bb3d
00000090: dc6a 703b b1e2 60bd e465 1dbd ff88 46bd
000000a0: 0db5 463c 6909 77bd 59e7 b4bc ea41 a9bc
000000b0: cf33 583d 83aa 9bbd fc8d 1dbd fcd0 abbb
000000c0: e3b6 4bbd 06b5 a1bc 7702 1f3d 0557 33bd
000000d0: b736 08bd 29c8 1dbc e495 8bbd 7eda 90bc
000000e0: 606b 303b d0dc 613c 3f79 203e 30e8 6fbd
000000f0: bc7e 783d 2cb1 29bd 13eb 213b c519 f13b
00000100: 0398 f13b 0bff 3fbd b653 e0bc fd7d 65bd
00000110: fd74 06bc cb57 b43d 0402 0ebc 253d 6cbd
00000120: ab35 d63c 8bf0 31bd 80e0 56bd 4789 29bd
00000130: 5738 493c 45c1 97bd 44ea 30bd ae62 a6bc
00000140: 3a8a 0e3d 366f 393b cdd2 6cbc 3b90 05bc
00000150: 7911 56bc 1500 d6bc a3c3 40bd 86e7 4bbb
00000160: 34ec 2ebd 6831 10bd b614 35bb 866a e5bc
00000170: 11ae 2bbd 9738 02bd 6e91 51bd 207f 69bd
00000180: 92d6 6fbd 5bbc 1abd 664b 4bbd a5f6 a6bc
00000190: 9228 43bc 463f 9cbd 5b91 35bd b4b0 1fbd
000001a0: f3d5 34bd d0f7 a33b 776a 833c e2b6 25bd
000001b0: 8fa4 3bbc bc68 dd3c baed 203c d1b4 39bd
000001c0: 375e 52bd d200 843c 5281 613d dfb8 f5bc
000001d0: 03a1 42bd 942b d1bb 83c7 c83c 3a77 75bd

fc2.weight f4 [84, 120]
0.08942027 -0.06390114 0.08240396 0.039948687 0.07010783 0.030723296 -0.03763182 -0.038859673
-0.004721753 -0.06552463 0.08150271 0.003610166 -0.0044819033 0.10334794 0.012935916 0.06025369
0.09001829 0.16076119 0.0060790884 -0.05104867 0.021898078 -0.011711769 0.050650954 0.07383805
0.034738313 0.004158065 0.034785368 0.0123874135 -0.06593766 -0.10109796 -0.07838676 0.028698316
-0.065965176 -0.08808223 -0.00824839 0.20572433 -0.048758235 -0.046999972 -0.080958374 -0.019406058
0.004695806 -0.03806546 -0.025501478 -0.05685237 0.0064065834 0.0796447 -0.07313101 0.017695973
-0.085907586 0.07307894 0.05846293 0.049863435 -0.016727477 0.041852497 -0.009306192 -0.022973642
0.090673804 -0.025808735 0.0920951 0.022031637 0.18629019 0.05445977 0.002569029 -0.052839693
0.1473952 0.101766095 0.06622395 0.027942795 -0.062126968 0.10324606 0.014632009 -0.020810325
0.07876261 -0.047326922 -0.022456866 0.03727044 0.16901147 -0.120096624 0.008137563 0.051441953
0.06352192 -0.01017192 -0.028206347 0.03494873 0.006421642 -0.02090855 -0.059974343 -0.017240435
0.057268273 0.076785594 0.08668283 -0.027380258 0.017847357 0.033623625 0.03076983 -0.081367716
0.09198311 0.07291219 -0.10232671 -0.07546634 0.013407526 -0.02354729 -0.039182205 -0.02220231
0.020420367 0.05732318 -0.018054787 -0.015462567 0.037617106 0.05977311 0.013482193 0.044662252
-0.06163033 -0.03637059 0.22669323 -0.0036930395 -0.010095566 -0.03358553 0.037055254 0.023267655
-0.083943 0.08929347 0.060330953 0.078655615 0.0018503049 -0.04479519 -0.050480857 -0.061845448
0.017977176 0.05468728 0.079232015 0.040514722 -0.015853586 0.048687518 0.035361215 -0.050505176
0.08053588 -0.09108934 -0.056367487 -0.008833306 -0.038103383 -0.046569306 -0.07461062 0.05310755
0.048899595 -0.04043665 0.031148896 0.023022473 -0.011879529 -0.07826484 -0.075992666 -0.05100577
0.06597695 -0.022802152 0.039614115 -0.049554694 -0.097806245 -0.09225024 0.033399478 0.07806522
-0.08640416 -0.007802628 -0.026774656 -0.048954666 -0.035652775 -0.010063013 0.0042092106 -0.008982271
-0.045439616 0.04242997 -0.14443754 -0.014086245 0.010802108 0.010230386 -0.011105475 0.044099096
0.0252819 -0.007967799 0.029000092 -0.04347778 -0.016217811 0.0862676 0.086777665 -0.13736121
-0.0397589 0.028345114 -0.07344406 -0.018534217 0.055724498 -0.11158018 -0.051707167 -0.11291068
0.024478655 0.041221097 -0.04801439 -0.07746715 -0.11424724 -0.10352329 0.058231663 -0.026848886
-0.12788066 -0.0801238 0.012300393 0.071655825 0.036412742 -0.017485518 0.07754211 0.05760287
-0.012821858 0.01059999 0.046292 0.10217611 -0.077027075 -0.038465187 -0.1087432 -0.08262529
0.02099715 0.08504902 0.045244068 -0.08204577 -0.041456107 0.032212842 0.065304376 -0.017155964
-0.0035916418 -0.0107387705 -0.03029261 -0.006356912 0.037854526 -0.04176861 0.017648842 -0.08161572
-0.0593261 0.04975749 0.027665649 0.046955694 0.06607588 0.045396302 -0.06623528 -0.09299788
0.063067265 -0.060224295 -0.08927198 0.050662287 -0.058437563 -0.07318829 -0.026528899 -0.0034455888
0.065016344 -0.006106507 -0.033776563 -0.07948945 0.01942338 0.08439355 0.05215081 -0.1251038
00000000: f921 b73d 9ade 82bd 68c3 a83d 3ca1 233d
00000010: b294 8f3d 6caf fb3c d323 1abd 522b 1fbd
00000020: efb8 9abb c731 86bd e5ea a63d 8998 6c3b
00000030: eedc 92bb 16a8 d33d 2af1 533c 93cc 763d
00000040: 825b b83d 959e 243e 1733 c73b 6918 51bd
00000050: 9963 b33c b8e2 3fbc 6077 4f3d 6738 973d
00000060: c349 0e3d 6140 883b 1a7b 0e3d 94f4 4a3c
00000070: 530a 87bd 720c cfbd 3d89 a0bd bb18 eb3c
00000080: c018 87bd 7564 b4bd 4124 07bc 66a9 523e
00000090: b7b6 47bd 0b83 40bd 81cd a5bd 74f9 9ebc
000000a0: 47df 993b 87ea 1bbd 7ae8 d0bc 08de 68bd
000000b0: 51ee d13b c31c a33d b6c5 95bd 25f7 903c
000000c0: 51f0 afbd 69aa 953d d376 6f3d 9a3d 4c3d
000000d0: 1008 89bc 866d 2b3d 0079 18bc 3833 bcbc
000000e0: 30b3 b93d d76c d3bc 5b9c bc3d b17b b43c
000000f0: dbc2 3e3e 3511 5f3d 285d 283b 6f6e 58bd
00000100: c4ee 163e be6a d03d 6ca0 873d 4ae8 e43c
00000110: d978 7ebd ac72 d33d 18bb 6f3c 6a7a aabc
00000120: 4b4e a13d e0d9 41bd 76f7 b7bc e4a8 183d
00000130: 5811 2d3e 38f5 f5bd 6a53 053c ccb4 523d
00000140: c817 823d 20a8 26bc ff10 e7bc 6626 0f3d
00000150: a36c d23b 6848 abbc a8a7 75bd d03b 8dbc
00000160: 2392 6a3d c441 9d3d c486 b13d 904c e0bc
00000170: 9f34 923c edb8 093d 0311 fc3c 1ea4 a6bd
00000180: a461 bc3d fc52 953d ab90 d1bd 198e 9abd
00000190: 3dab 5b3c 3fe6 c0bc 857d 20bd 9ee1 b5bc
000001a0: 9d48 a73c b6cb 6a3d a2e7 93bc b556 7dbc
000001b0: 6514 1a3d a6d4 743d 6be4 5c3c c4ef 363d
000001c0: 1670 7cbd 54f9 14bd 4522 683e ec06 72bb
000001d0: df67 25bc fb90 09bd 40c7 173d cf9b be3c
000001e0: 4fea abbd 7fdf b63d 971d 773d 3216 a13d
000001f0: ee85 f23a 297b 37bd 04c5 4ebd a751 7dbd
00000200: df44 933c c5ff 5f3d 6544 a23d c4f2 253d
00000210: 61df 81bc 906c 473d ecd6 103d 84de 4ebd
00000220: ffef a43d 0c8d babd 98e1 66bd 92b9 10bc
00000230: 4b12 1cbd 75bf 3ebd 74cd 98bd 4d87 593d
00000240: f14a 483d e7a0 25bd f82b ff3c a099 bc3c
00000250: 5ba2 42bc 5149 a0bd 0ba2 9bbd 6deb 50bd
00000260: ec1e 873d 94cb babc 6942 223d ddf9 4abd
00000270: a44e c8bd b2ed bcbd e4cd 083d a8e0 9f3d
00000280: aaf4 b0bd 30ad ffbb 8656 dbbc b084 48bd
00000290: a508 12bd 56df 24bc 6bed 893b 602a 13bc
000002a0: e41e 3abd 0ccb 2d3d 6fe7 13be fec9 66bc
000002b0: 53fb 303c 599d 273c bdf3 35bc 41a1 343d
000002c0: fd1b cf3c 5f8b 02bc 9a91 ed3c c215 32bd
000002d0: 37db 84bc 11ad b03d 7db8 b13d 6ba8 0cbe
000002e0: 3ada 22bd 0334 e83c d769 96bd 12d5 97bc
000002f0: 5f3f 643d 2684 e4bd e5ca 53bd b73d e7bd
00000300: 7687 c83c 74d7 283d bdaa 44bd 19a7 9ebd
00000310: 75fa e9bd 0504 d4bd 5384 6e3d 32f2 dbbc
00000320: 26f3 02be f217 a4bd 9687 493c 4ac0 923d
00000330: 8725 153d ca3d 8fbc 66ce 9e3d fdf0 6b3d
00000340: c512 52bc 95ab 2d3c ae9c 3d3d b541 d13d
00000350: 5fc0 9dbd ac8d 1dbd c1b4 debd 7337 a9bd
00000360: 3702 ac3c 2e2e ae3d d851 393d 9d07 a8bd
00000370: e1cd 29bd 9df1 033d 4dbe 853d aa8a 8cbc
00000380: c061 6bbb abf1 2fbc 3528 f8bc a54d d0bb
00000390: 590d 1b3d 9015 2bbd 4e94 903c 2526 a7bd
000003a0: edff 72bd 83ce 4b3d 12a3 e23c 9d54 403d
000003b0: ca52 873d 79f1 393d 5da6 87bd ac75 bebd
000003c0: 6929 813d c0ad 76bd 3ad4 b6bd 4283 4f3d
000003d0: 3a5c 6fbd bee3 95bd 2253 d9bc 63cf 61bb
000003e0: 4a27 853d 1819 c8bb 4b59 0abd 5dcb a2bd
000003f0: c81d 9f3c 87d6 ac3d 169c 553d 361b 00be

fc2.bias f4 [84]
0.032096777 -0.07337398 0.08283148 0.033265572 -0.028636865 -0.07266217 -0.1783741 -0.060288876
-0.08031256 -0.008638462 -0.09910586 -0.07541799 -0.13408701 0.021057956 0.0054128906 -0.1803036
-0.06196507 -0.08594262 -0.0785868 -0.14568827 -0.13657098 0.0659827 -0.18094319 -0.054108053
-0.12809573 -0.12612556 -0.017224025 -0.086692534 0.027117258 0.02604299 -0.16515926 -0.14975792
-0.1376413 -0.09449808 -0.028022565 -0.0028497344 -0.09732464 -0.058738194 0.022901898 0.06554937
-0.1250384 -0.19024651 -0.09285625 -0.20100711 -0.069770195 -0.13563584 -0.012980557 0.1255733
-0.10221661 -0.030488549 0.008342381 -0.0896147 0.050071787 0.046609946 -0.035797894 -0.10558992
-0.15976311 -0.012042406 -0.16494285 0.024102528 -0.23159426 0.08194427 0.13318717 -0.009950956
-0.11963922 -0.08976396 0.027184203 -0.15365191 -0.11984058 -0.037885588 0.044770822 -0.11565489
0.09976979 0.121350616 -0.12093107 -0.01054291 -0.015917107 0.064230844 -0.123968944 -0.064887464
-0.0071629495 -0.11376626 -0.059969444 -0.019263357
00000000: e977 033d 1945 96bd 8da3 a93d 7b41 083d
00000010: dc97 eabc e7cf 94bd b3a7 36be 78f1 76bd
00000020: e97a a4bd 5688 0dbc 03f8 cabd bf74 9abd
00000030: 1b4e 09be bc81 ac3c 9e5e b13b 82a1 38be
00000040: 16cf 7dbd af02 b0bd 1ef2 a0bd 4e2f 15be
00000050: 43d9 0bbe f021 873d 2c49 39be 68a0 5dbd
00000060: 872b 03be 0f27 01be 6619 8dbc db8b b1bd
00000070: 0325 de3c 1c58 d53c 821f 29be 245a 19be
00000080: d7f1 0cbe 3688 c1bd 948f e5bc 9cc2 3abb
00000090: 2452 c7bd 7697 70bd c39c bb3c c03e 863d
000000a0: 110a 00be fbcf 42be 6b2b bebd cfd4 4dbe
000000b0: ade3 8ebd 1fe4 0abe 67ac 54bc 4a96 003e
000000c0: f156 d1bd 1fc3 f9bc 7bae 083c e987 b7bd
000000d0: 1318 4d3d 12ea 3e3d d0a0 12bd 873f d8bd
000000e0: f198 23be 834d 45bc c7e6 28be aa72 c53c
000000f0: 0c27 6dbe 66d2 a73d 3862 083e 5609 23bc
00000100: 6805 f5bd 2bd6 b7bd 68b1 de3c ed56 1dbe
00000110: fa6e f5bd eb2d 1bbd 9c61 373d 79dc ecbd
00000120: 1b54 cc3d ac86 f83d b5aa f7bd 2bbc 2cbc
00000130: 9864 82bc 768b 833d 6ee3 fdbd b8e3 84bd
00000140: 2db7 eabb 49fe e8bd 85a2 75bd 30ce 9dbc

fc3.weight f4 [700, 84]
0.14809878 -0.10531983 0.03389844 0.051683713 0.017944016 0.07223066 -0.00043986738 -0.013867209
0.01158978 0.113138534 0.021414539 -0.09514628 0.029818755 -0.15934876 -0.037338752 -0.11703361
0.019582411 -0.10982002 -0.016247949 -0.04260904 0.068742804 0.0029339092 0.008571186 -0.048967753
0.048684645 -0.14390424 0.05864481 0.07561534 0.030915445 -0.256394 -0.025958112 0.026328564
0.13281208 0.17313907 0.15215348 0.13207924 0.09159092 0.033800464 -0.013096243 0.19028118
0.08939955 -0.09111055 -0.012093402 -0.15669316 -0.08407413 -0.1050507 0.04479122 0.07051109
0.05760603 -0.01920738 -0.025201013 -0.1989058 0.09720205 0.1908681 0.17128168 -0.117337435
-0.08790508 0.15039338 0.09183629 -0.04648903 0.036508117 0.07280297 -0.03142979 -0.14637002
0.046740454 -0.13590859 0.07673094 0.06629513 0.08811926 0.05567122 -0.019538317 0.062776096
0.08839042 0.17218626 0.16172402 0.16065367 0.12770748 0.09849994 -0.0021424247 -0.07643249
0.069847465 -0.035131693 -0.03030593 0.021302246 0.21494442 -0.05709897 0.029748015 0.09402858
0.011199305 -0.0464949 -0.06480753 0.084272146 0.056729812 0.13626531 -0.09542768 -0.051902648
0.081226386 0.08977293 0.073433995 -0.08087005 0.20820405 0.0011365749 0.053220656 0.13500974
-0.07158606 -0.08999287 0.10144256 -0.13216275 -0.02360268 0.016452838 0.027554838 0.072937965
0.13776165 0.09760604 0.0036779286 0.12504342 0.18002255 0.09906107 -0.010964838 0.038003
0.10262704 -0.07091587 -0.18662597 0.19751807 0.020414168 0.008534626 -0.070294745 0.01666526
-0.038836643 -0.050618038 -0.11333577 0.08937322 -0.03889079 0.116643935 -0.04944139 0.08689936
0.11786301 0.12122091 0.100122824 0.042335544 -0.016844157 0.11844941 0.028116828 -0.042919766
0.17595637 0.20443471 -0.15770574 0.094759986 0.0037034883 0.0053556813 0.1177345 0.041237034
-0.0036765647 0.0018690208 -0.06927999 -0.037733458 0.04350616 0.14964162 -0.04792479 0.06863719
0.112689584 0.03813748 -0.1253115 0.028149115 0.15898986 0.0018337198 0.012846137 0.083730325
0.018661287 -0.032430753 0.07910331 -0.092666976 0.049113568 0.016187318 0.029629298 -0.057653237
-0.11397013 -0.05043596 0.10671068 -0.00974191 -0.07158594 -0.027430262 -0.08451695 -0.057591874
0.13172454 -0.049671076 0.04475639 0.016183345 0.014555436 0.08335071 0.045684297 0.06797252
0.05600506 -0.089736484 -0.07735467 -0.048159234 -0.06586713 0.029206479 0.017460542 0.03487441
0.07360041 0.114843644 0.047394942 0.12532291 0.044368763 0.058651533 0.07587807 -0.066698164
0.02269634 0.0003433806 -0.0030126034 0.024558773 0.014881704 -0.027924048 0.07132392 0.056519188
0.03412542 0.08318229 0.052553717 -0.04887451 0.01671717 0.10242633 -0.08165661 -0.025169324
0.029461032 0.07628326 -0.018822202 -0.17351073 -0.04301606 0.11931953 -0.056646924 0.0050000926
-0.02394989 0.030085905 0.010401791 -0.0021199735 -0.097930424 0.107686095 0.06614143 0.0052075745
-0.042850725 0.17018197 0.02488083 -0.07468036 0.046474177 0.012825914 -0.09657316 -0.058810305
0.051759753 -0.02208231 0.041148078 -0.14911914 0.0784931 0.0070232768 0.035518445 -0.15521799
00000000: 35a7 173e ecb1 d7bd 17d9 0a3d 4db2 533d
00000010: 54ff 923c abed 933d 009e e6b9 4a33 63bc
00000020: 10e3 3d3c 2db5 e73d 8b6d af3c 0edc c2bd
00000030: 7646 f43c 522c 23be 85f0 18bd 51af efbd
00000040: 4b6b a03c 52e9 e0bd 6b1a 85bc d186 2ebd
00000050: 07c9 8c3d d446 403b 296e 0c3c 6992 48bd
00000060: 8d69 473d a25b 13be 8a35 703d 37dc 9a3d
00000070: 6342 fd3c 1346 83be 1ba6 d4bc 00af d73c
00000080: e4ff 073e 5e4b 313e 1fce 1b3e c83f 073e
00000090: 0594 bb3d 5b72 0a3d a091 56bc 12d9 423e
000000a0: 1c17 b73d 2b98 babd 6823 46bc 2c74 20be
000000b0: 0f2f acbd d224 d7bd 0077 373d 1e68 903d
000000c0: 4df4 6b3d cc58 9dbc 5b72 cebc f6ad 4bbe
000000d0: de11 c73d ed72 433e 7764 2f3e 9c4e f0bd
000000e0: 9407 b4bd b900 1a3e aa14 bc3d 486b 3ebd
000000f0: 8989 153d b919 953d 86bc 00bd 06e2 15be
00000100: eb72 3f3d 9f2b 0bbe 1c25 9d3d bec5 873d
00000110: df77 b43d 8107 643d d20e a0bc c190 803d
00000120: 0906 b53d 9851 303e fb9a 253e 6582 243e
00000130: c0c5 023e 56ba c93d ec67 0cbb a388 9cbd
00000140: 300c 8f3d 40e6 0fbd 2444 f8bc 0c82 ae3c
00000150: 641a 5c3e 9ce0 69bd 1cb2 f33c 0e92 c03d
00000160: 4a7d 373c 7071 3ebd cfb9 84bd e096 ac3d
00000170: 855d 683d 2289 0b3e 966f c3bd df97 54bd
00000180: 055a a63d dfda b73d 9064 963d 329f a5bd
00000190: 7133 553e 20f9 943a e7fd 593d fe3f 0a3e
000001a0: b69b 92bd 2f4e b8bd 1ec1 cf3d ac55 07be
000001b0: 685a c1bc 1ac8 863c afba e13c 8060 953d
000001c0: 6411 0d3e ade5 c73d 6709 713b 620b 003e
000001d0: d557 383e 88e0 ca3d dda5 33bc 09a9 1b3d
000001e0: 202e d23d 573c 91bd e11a 3fbe 2d42 4a3e
000001f0: 9d3b a73c d1d4 0b3c b1f6 8fbd 9585 883c
00000200: 2c13 1fbd dc54 4fbd 961c e8bd 4f09 b73d
00000210: f34b 1fbd 04e3 ee3d 0e83 4abd 4bf8 b13d
00000220: 2962 f13d ab42 f83d 320d cd3d 0968 2d3d
00000230: c2fc 89bc 9b95 f23d 4355 e63c a3cc 2fbd
00000240: e82d 343e 5557 513e 9d7d 21be 8611 c23d
00000250: 39b6 723b b67e af3b c91e f13d 2ae8 283d
00000260: 85f2 70bb eef9 f43a abe2 8dbd 668e 1abd
00000270: 8433 323d a73b 193e c94c 44bd a891 8c3d
00000280: ccc9 e63d 0c36 1c3d a851 00be f998 e63c
00000290: 3dce 223e 6d59 f03a 9b78 523c ce7a ab3d
000002a0: 8edf 983c 1cd6 04bd eb00 a23d 2fc8 bdbd
000002b0: 4f2b 493d 449b 843c 24b9 f23c cd25 6cbd
000002c0: 2c69 e9bd f095 4ebd 218b da3d 889c 1fbc
000002d0: a69b 92bd 6eb5 e0bc 3917 adbd 75e5 6bbd
000002e0: cce2 063e e673 4bbd 7a52 373d ef92 843c
000002f0: ec79 6e3c c7b3 aa3d 751f 3b3d 2d35 8b3d
00000300: 9065 653d c3c7 b7bd 206c 9ebd 9e42 45bd
00000310: 59e5 86bd 6d42 ef3c 6909 8f3c 78d8 0e3d
00000320: d0bb 963d 2533 eb3d 3321 423d a654 003e
00000330: 05bc 353d 973c 703d f665 9b3d 0c99 88bd
00000340: aded b93c c407 b439 196f 45bb 7b2f c93c
00000350: 64d2 733c f9c0 e4bc 4612 923d aa80 673d
00000360: 19c7 0b3d 7a5b aa3d 9142 573d a330 48bd
00000370: 72f2 883c e5c4 d13d 953b a7bd e62f cebc
00000380: 4358 f13c 663a 9c3d 0531 9abc ccac 31be
00000390: 9c31 30bd cc5d f43d 9b06 68bd d1d7 a33b
000003a0: 8f32 c4bc b776 f63c 466c 2a3c 41ef 0abb
000003b0: bf8f c8bd 878a dc3d 2875 873d 4da4 aa3b
000003c0: 3e84 2fbd 2f44 2e3e e2d2 cb3c 04f2 98bd
000003d0: b55b 3e3d c823 523c 26c8 c5bd 13e3 70bd
000003e0: 0902 543d f6e5 b4bc e38a 283d b0b2 18be
000003f0: fec0 a03d 8423 e63b ca7b 113d 77f1 1ebe

fc3.bias f4 [700]
-0.0025951306 -0.00051553873 -0.048793297 0.051234134 -0.042798243 0.12070334 -0.02427367 -0.0020703073
-0.048383463 0.093864575 0.07050903 -0.09232223 0.06517526 0.045040425 -0.018794248 -0.00011150335
0.06800704 0.06364786 0.008125909 0.03899402 -0.17112109 0.08178662 -0.037739538 0.16702498
0.0058359616 0.04768591 0.10720508 -0.14458361 0.13369867 0.019144617 0.06285696 0.04407904
-0.1775325 0.17491007 0.050529175 0.02042807 0.13419323 -0.0050625275 0.08253467 -0.024669029
0.04833141 -0.29062986 0.11484831 0.15418856 -0.048310824 -0.035015907 -0.11418449 0.101355575
-0.17122361 0.0427173 0.044432554 0.0032298926 0.017594866 0.0533112 0.15915847 -0.028861368
0.03719909 0.06992924 0.10816096 -0.010323695 0.053428117 -0.09724941 -0.010966557 0.020679396
-0.025550563 -0.0645234 0.049391802 -0.054680098 0.027663527 0.00913871 -0.006522073 0.05977255
0.032695383 0.14130893 -0.09874708 0.19406775 -0.07188453 0.06875454 -0.042250376 0.10407071
-0.0047214217 -0.13117783 0.040313903 0.07093207 0.027105974 -0.07109181 -0.086421624 0.010799623
0.021197734 0.026993973 -0.051664494 0.07625497 -0.061182324 0.17312305 0.11787363 -0.16242456
0.06695158 -0.10229568 0.006707505 -0.06486202 -0.0028598234 0.15235682 -0.0024768582 0.0271717
0.016167399 0.057960734 0.09132203 -0.07088865 0.100748055 -0.01625315 0.082093455 -0.13746922
0.1106552 -0.039745744 0.12646857 -0.011032232 0.08877309 -0.0047968854 0.08513086 0.042164564
-0.072431564 0.041855875 0.05062692 -0.102931015 -0.06922705 0.06984344 0.03487873 0.058990955
0.018322742 0.09732965 -0.0050536683 0.053314243 -0.004691248 0.054370224 -0.06787495 0.038777832
-0.08831411 0.085175425 -0.13913825 0.12870136 0.04821208 0.03807024 -0.05962577 0.01292303
0.13248509 0.04759168 0.14412148 -0.11166929 -0.0037670608 -0.088341944 -0.04552451 0.014362345
0.013846536 0.044120897 0.0057862755 0.06503594 -0.13116615 -0.07537208 -0.0666248 0.039555673
0.10320109 0.09353079 -0.17235197 -0.0051842947 0.13522644 0.13571209 0.042287067 -0.24678908
0.10125235 -0.01808816 -0.08274464 0.0809092 0.039697923 -0.017947253 -0.031863924 0.06395666
0.054900974 0.05480037 0.15151797 -0.034559254 -0.017936958 -0.03652327 0.15799803 -0.020372292
0.07486368 -0.00467675 -0.115937635 0.046718627 -0.03008397 0.052995697 -0.01722549 -0.0020818205
0.12240061 -0.05197063 0.15264069 0.005621369 0.058630474 0.04554405 0.1790408 -0.009250388
0.11159037 0.014990996 -0.11174978 -0.13548008 0.024411496 -0.005964625 -0.034149513 -0.03966157
0.05772764 0.12670873 0.12446172 0.09300276 0.092343695 0.13121517 -0.055878934 0.07673852
0.05279481 0.08037319 0.025443979 0.008444082 0.051244404 -0.03297306 0.12450705 0.13102202
0.1595037 -0.08512503 0.011599331 0.022022795 -0.17678007 0.013922991 0.08799935 -0.009590151
0.077213414 0.09029713 0.035046294 0.106858306 0.044484332 0.053347033 0.013834619 -0.04029259
-0.09470689 0.053424034 -0.020695746 -0.025720706 -0.016302334 0.12733108 0.033412375 0.028404547
0.15811087 -0.028713854 0.031386696 0.09123059 -0.1970984 0.042790476 0.1337535 -0.006112713
00000000: 1113 2abb 3825 07ba 7bdb 47bd e2da 513d
00000010: 364d 2fbd 5033 f73d 93d9 c6bc fead 07bb
00000020: bd2d 46bd 123c c03d 0a67 903d 7013 bdbd
00000030: 9b7a 853d 4f7c 383d 65f6 99bc e8d6 e9b8
00000040: 4647 8b3d cf59 823d 8822 053c 32b8 1f3d
00000050: 5e3a 2fbe be7f a73d c694 1abd 9908 2b3e
00000060: 983b bf3b 4d52 433d 568e db3d ba0d 14be
00000070: 4ee8 083e 2cd5 9c3c 26bb 803d 398c 343d
00000080: 14cb 35be a01b 333e aef7 4e3d c558 a73c
00000090: f369 093e 8fe3 a5bb f007 a93d b416 cabc
000000a0: 28f7 453d 70cd 94be 9735 eb3d 9be3 1d3e
000000b0: 92e1 45bd d76c 0fbd 8fd9 e9bd 8393 cf3d
000000c0: 3e55 2fbe 56f8 2e3d e9fe 353d 9bac 533b
000000d0: 1c23 903c d85c 5a3d 70fa 223e ad6e ecbc
000000e0: 135e 183d 1037 8f3d 7e83 dd3d b724 29bc
000000f0: 71d7 5a3d b32a c7bd 13ad 33bc d667 a93c
00000100: 6a4f d1bc d824 84bd 0f4f 4a3d 3df8 5fbd
00000110: 9f9e e23c 87ba 153c 1db7 d5bb 10d4 743d
00000120: 98eb 053d 4ab3 103e e93b cabd b2b9 463e
00000130: 3238 93bd 2ecf 8c3d bb0e 2dbd 0623 d53d
00000140: 28b6 9abb 7b53 06be 3120 253d d544 913d
00000150: 590d de3c 9598 91bd d2fd b0bd e7f0 303c
00000160: dfa6 ad3c 7722 dd3c 269e 53bd 912b 9c3d
00000170: 519a 7abd 2b47 313e bb67 f13d a052 26be
00000180: e91d 893d 6680 d1bd a1ca db3b 61d6 84bd
00000190: e06b 3bbb 6d03 1c3e c952 22bb 2f97 de3c
000001a0: 7e71 843c 3c68 6d3d 0b07 bb3d 122e 91bd
000001b0: ff54 ce3d 5325 85bc 9d20 a83d bbc4 0cbe
000001c0: 329f e23d 6fcc 22bd fa80 013e 89c0 34bc
000001d0: aace b53d 312f 9dbb 1759 ae3d c0b4 2c3d
000001e0: 0057 94bd 1171 2b3d 2c5e 4f3d 7fcd d2bd
000001f0: e9c6 8dbd 140a 8f3d 00dd 0e3d 80a0 713d
00000200: 9319 963c c454 c73d 3e99 a5bb 0960 5a3d
00000210: 0ab9 99bb 50b3 5e3d 0602 8bbd 81d5 1e3d
00000220: 07de b4bd 7470 ae3d 427a 0ebe 4aca 033e
00000230: 087a 453d 8aef 1b3d 273a 74bd 1ebb 533c
00000240: 2caa 073e 7eef 423d 9594 133e deb2 e4bd
00000250: cbe0 76bb 9fec b4bd e977 3abd 0b50 6b3c
00000260: 95dc 623c 1db8 343d cc9a bd3b 9031 853d
00000270: 6b50 06be ad5c 9abd 9572 88bd 2105 223d
00000280: 185b d33d 128d bf3d 097d 30be 04e1 a9bb
00000290: cd78 0a3e 1cf8 0a3e 3435 2d3d 47b6 7cbe
000002a0: 645d cf3d 9f2d 94bc 0676 a9bd b9b3 a53d
000002b0: 4a9a 223d 1e06 93bc bf83 02bd b6fb 823d
000002c0: d8df 603d 5a76 603d 8727 1b3e 018e 0dbd
000002d0: 87f0 92bc 6d99 15bd 3cca 213e cbe3 a6bc
000002e0: 2152 993d 6c3f 99bb b670 edbd 085c 3f3d
000002f0: a872 f6bc 0412 593d 791c 8dbc 276f 08bb
00000300: 2cad fa3d 28df 54bd d74d 1c3e 7633 b83b
00000310: 8226 703d 668c 3a3d 7956 373e f08e 17bc
00000320: 7e89 e43d cb9c 753c 12dd e4bd 4abb 0abe
00000330: 9efa c73c e772 c3bb 5ce0 0bbd 2c74 22bd
00000340: d173 6c3d efbf 013e c9e5 fe3d 3b78 be3d
00000350: b11e bd3d 455d 063e 4fe1 64bd 1629 9d3d
00000360: 5f3f 583d b39a a43d e46f d03c 0c59 0a3c
00000370: a7e5 513d c20e 07bd 8dfd fe3d a32a 063e
00000380: f054 233e 0856 aebd 1f0b 3e3c 2669 b43c
00000390: d605 35be 421d 643c 0139 b43d 0220 1dbc
000003a0: 1122 9e3d b4ed b83d b48c 0f3d 87d8 da3d
000003b0: 3435 363d 6b82 5a3d 99aa 623c d809 25bd
000003c0: b0f5 c1bd 29d3 5a3d 208a a9bc 3bb4 d2bc
000003d0: 798c 85bc 1463 023e 6adb 083d a7b0 e83c
000003e0: d1e7 213e 5139 ebbc 568f 003d 1bd7 ba3d
000003f0: 2ad4 49be 1145 2f3d adf6 083e 274d c8bb
