policy_checkpoint.pt (torch, 568485 bytes, 10 tensors)

conv1.weight f4 [8, 14, 3, 3]
000000 c5 84 51 3e 76 cb ec 3d 87 8f 12 3e d1 8f cf 3d
       0.20460804 0.115622446 0.14312564 0.10134853
000010 0f dc 84 3d 9d 52 a2 3d 4b f7 24 3d d6 72 1a 3d
       0.06487285 0.079259135 0.0402749 0.037707172
000020 ea 65 07 3e 3e 27 bb bb 57 9f a8 bd 53 5b 24 3d
       0.13222471 -0.005711465 -0.08233517 0.040126156
000030 83 41 9f bc 37 29 b0 bd ce 26 cc 3c dc 84 2f 3d
       -0.019440418 -0.08601611 0.024920847 0.042851314
000040 cd b8 ab bd da d5 1e 3d 4b 64 d6 3a 71 44 a0 bd
       -0.08384857 0.038778163 0.0016356794 -0.07825554
000050 b0 91 9b bd 2f 34 41 bd a5 ba 69 3d 62 68 30 bd
       -0.07596147 -0.047168907 0.057062764 -0.043068297
000060 c9 a5 2b bd f4 04 08 3b e0 5f 91 3d ac 92 39 3d
       -0.041906152 0.0020754905 0.07098365 0.045305893
000070 f8 c6 5f bc 21 9a a4 bd a0 2a f7 3b a8 29 91 3d
       -0.013658278 -0.0803721 0.007542923 0.070880234
000080 28 6a d4 bc 14 eb 43 3d d8 17 4f 3d 21 e4 8b bd
       -0.025929525 0.04783161 0.05055985 -0.068306215
000090 d9 c5 63 3e 9b de 39 3d 2e f1 16 3e 50 f4 a6 b9
       0.22243442 0.04537831 0.1474044 -0.00031844014
0000a0 4d cb 1f 3e de 11 db bc c4 cb 1d 3d d7 9c 82 3d
       0.15604897 -0.026741918 0.038524404 0.06377571
0000b0 92 45 bf bc 95 94 88 bd 76 ef a9 bd 43 e8 01 bb
       -0.023348603 -0.06668965 -0.08297627 -0.0019822277
0000c0 66 e9 0e be 1f 67 17 3d 40 0d 03 bc 61 70 b5 3b
       -0.13956222 0.03696358 -0.0079987645 0.0055370783
0000d0 fc 36 f1 bd 03 01 83 3d 73 1d 8e 3e f2 75 ff 3d
       -0.117780656 0.06396677 0.27756843 0.12473668
0000e0 75 f0 7e 3e 6a b3 00 3e 80 0b 5b 3d 0e a5 44 bb
       0.24896415 0.12568441 0.053477764 -0.0030005607
0000f0 22 e3 a0 bc a1 a7 78 3d 04 ad c2 3d 80 71 27 3e
       -0.019639555 0.06070674 0.09505656 0.1635189
000100 24 ce 17 3e ed 08 64 3e 0f 3f 2c 3e 80 e2 ef 3d
       0.1482473 0.2226903 0.1682093 0.11713123
000110 4f 7e b8 3d 21 d4 05 3e 6a b2 07 3d 2b 4f 0f 3d
       0.090084665 0.13069202 0.033129133 0.03498761
000120 63 fd 27 bb 61 d5 fc 3d 38 d0 72 bd ce b4 91 3d
       -0.0025633208 0.12345386 -0.059280604 0.07114564
000130 90 8b ad bd 34 45 52 3d cd bb e6 3c 4c 1b d6 3d
       -0.08473885 0.05133553 0.028165722 0.10454425
000140 09 3f 75 bd 00 13 02 be 44 ca 7d bc 84 16 0f bd
       -0.059874568 -0.1270256 -0.015490118 -0.034933582
000150 21 96 3f bd 88 db 96 3d 97 a5 b1 bc 87 f9 c0 3d
       -0.046774033 0.07366091 -0.021685405 0.094225936
000160 66 27 4e bd 08 aa ae 3d a2 bd 80 3d b4 7d 4f 3d
       -0.050330542 0.08528525 0.062861696 0.05065699
000170 18 71 1c 3d cc 4a 2c 3d c0 89 a4 3c fc 1e b9 bc
       0.038193792 0.04206352 0.020085216 -0.022597782
000180 7c 70 71 3d ac 1d 57 3d b6 bc 23 bd e8 b8 99 bd
       0.058945164 0.05251853 -0.03997489 -0.07505971
000190 1e b1 00 bd 00 2c 7b ba 38 d9 04 3c d2 8c 8a 3d
       -0.031418912 -0.00095814466 0.00810843 0.067651406
0001a0 06 bc 19 bd c0 f6 86 3d 00 54 8d 3c 4e 34 9a 3d
       -0.03753283 0.065900326 0.017251968 0.075295076
0001b0 40 e9 0d 3e 47 ff 87 3d 1b 5e 3d 3e 71 2b 30 3e
       0.13858509 0.06640487 0.1849293 0.17204072
0001c0 cf 24 42 3e f1 43 cc 3d 52 b2 cf 3d e0 23 cc 3d
       0.18959354 0.09973896 0.10141434 0.0996778
0001d0 81 f3 b6 3d 2c 5d 12 bc 40 ab aa 3d 06 64 ee bc
       0.089331634 -0.008933347 0.083334446 -0.02910043
0001e0 92 0c 53 bc 44 f2 4e bc 93 93 fa bd bf 80 c7 3b
       -0.012881415 -0.012631003 -0.12235179 0.006088346
0001f0 25 ba 01 3e 48 2e 9f 3c 44 f6 78 3d 7e b5 58 3d
       0.12668665 0.019431248 0.060781732 0.05290746
000200 3b 5f cb b9 bb d9 00 3e 1b 39 12 3d 4b 0f df 3d
       -0.0003879013 0.12583058 0.03569899 0.10891589
000210 67 56 5a 3e cc 96 d6 3d 56 30 fb 3c c6 87 5c bd
       0.21322022 0.10477981 0.030662697 -0.05384042
000220 78 c7 08 3c 96 ac 86 3d 22 ca df bc 2b 4e 85 3c
       0.008348338 0.06575887 -0.027318064 0.016272625
000230 ab 0c 52 3d b6 ec 54 3c 3c f0 00 3d ae 02 0d bc
       0.051281612 0.012995889 0.031479105 -0.008606596
000240 d2 49 e5 bc 71 e8 c6 3d 99 ef a1 3d ac bc dd ba
       -0.027989302 0.097123034 0.07907028 -0.001691719
000250 aa e8 07 3d 95 57 b0 bd 45 3e c4 bb b8 5e c8 3c
       0.03318087 -0.08610455 -0.0059888684 0.024459228
000260 ce 32 af bd 30 49 8c bd b8 c9 28 bd 08 bd 60 bc
       -0.08554612 -0.06849897 -0.041208 -0.013716944
000270 ac bb 88 3d d8 8c 63 bc 3c da 72 bd c9 cd 0e bd
       0.066764206 -0.01388856 -0.059290156 -0.03486422
000280 50 51 81 bb 74 a2 63 3d 19 cc 35 3d 34 73 6e 3d
       -0.003946461 0.05557485 0.044384096 0.058215335
000290 cf 17 81 bd d2 52 66 3d 72 e4 e1 3d 86 5a 92 3d
       -0.06303369 0.056231327 0.110299006 0.07146172
0002a0 c5 8b 65 3e da b1 46 bc ac 6d f9 3c ea 7a 07 3d
       0.22416599 -0.012127364 0.030447803 0.033076204
0002b0 8a 2f 5c 3d 0e aa 74 3d da 32 33 bd 86 fb 21 be
       0.053756274 0.05973249 -0.043749668 -0.15818605
0002c0 12 48 0a be c2 15 42 be 92 36 42 3d 7c ab 51 bd
       -0.13504055 -0.18953612 0.047415324 -0.05118893
0002d0 20 e2 c1 3c 00 cc 95 3d dc 5e d2 3d 82 51 ef 3d
       0.023667395 0.073143005 0.10271999 0.11685468
0002e0 06 f2 e6 3d 30 77 80 3e 6b a6 15 3e 20 13 2e 3e
       0.11276631 0.25090933 0.14614265 0.16999483
0002f0 77 3e e4 3d 84 67 a8 3d 05 d2 04 3e c7 c7 1c bd
       0.11144727 0.08222869 0.12970741 -0.03827646
000300 2f e2 a5 3d 9f 3f 11 3e ce b3 27 3e 65 ea 67 3e
       0.08099782 0.14184426 0.16377184 0.22648008
000310 1a 9a 1b 3e 3e e2 00 3e 11 c9 9a 3d 86 7c b7 bd
       0.15195504 0.12586305 0.075578816 -0.08959298
000320 34 5a 5f 3d e8 21 0e bd c0 47 9c 3b 20 11 9b bd
       0.054529384 -0.034700304 0.0047692955 -0.07571626
000330 21 fa 97 3d 99 ed 9b 3c 46 15 dd 3d 78 d5 a8 3d
       0.07420755 0.019034194 0.10795073 0.08243841
000340 18 3d 2c 3d 2e 71 1e 3d 70 e3 21 bc f5 66 cf bd
       0.04205045 0.038682155 -0.0098808855 -0.10127059
000350 37 b8 ff 3c 34 bb 24 be 46 f2 d7 3c 27 3d d7 bd
       0.03121577 -0.16087037 0.026360642 -0.10509711
000360 da 74 7d bd 23 15 98 bd 58 ed 8a 3c 00 95 87 3d
       -0.061879016 -0.074259065 0.016958877 0.06620216
000370 dc fb 7b bd 1d 74 08 bd bc a8 cc bc 18 6e 89 bd
       -0.06151949 -0.03331386 -0.024982803 -0.06710452
000380 29 a1 62 bd 1c 36 80 3d 2f ea 45 bd 34 82 05 bd
       -0.055329476 0.062603205 -0.048319038 -0.032594875
000390 54 13 6b bd 6a d7 8e bd d2 09 6c bd 00 b0 ae 3b
       -0.05739148 -0.06974681 -0.057626553 0.0053310394
0003a0 cd 8a 89 bd 80 55 a9 bb 6f ff 89 3d 14 1b 50 bd
       -0.06715927 -0.005167663 0.06738173 -0.050807074
0003b0 6c a1 8e 3d d8 7e bc 3d c8 4e 10 3e 51 92 9b 3d
       0.069643825 0.09203881 0.14092553 0.07596267
0003c0 00 51 2a 3d 7b 1c 0b 3e ab 56 82 bc 49 0c 14 bc
       0.041581154 0.13585083 -0.015910467 -0.009036132
0003d0 ef 3b 9a bd 9d 92 97 3d 24 d3 c3 bd 54 5b 65 bd
       -0.07530963 0.07401011 -0.09561756 -0.0559953
0003e0 07 38 6f bd b0 d1 4c bd cc 32 fa 3d 41 bc 87 3d
       -0.05840304 -0.05000466 0.1221672 0.066277035
0003f0 b1 42 5e bd ad d2 af bd 62 02 02 bd f5 de be bc
       -0.05426282 -0.08585105 -0.031740554 -0.023299674

conv1.bias f4 [8]
000000 8a e3 87 3b f4 f4 04 bd 59 17 eb 3b 88 22 89 3c
       0.004146998 -0.032460168 0.007174414 0.016740099
000010 6a 5b 07 bd f3 cc 81 3c 49 27 50 bd f6 c2 bb 3d
       -0.033046164 0.015844798 -0.050818715 0.09168045

conv2.weight f4 [16, 8, 3, 3]
000000 ad e4 7a bc c3 34 f6 bc a0 28 8c 3d 93 02 eb bd
       -0.01531331 -0.030054456 0.06843686 -0.114751
000010 f8 8d 92 bd b4 72 7e 3d 44 a9 af bd 7a 29 d6 bd
       -0.07155985 0.06212111 -0.08577207 -0.1045713
000020 be c3 84 bd 93 bb 84 3d fa 63 ec bd 78 01 6d 39
       -0.06482647 0.064810894 -0.115425065 0.00022602628
000030 78 76 cf bc 7f a3 74 bd 28 e8 83 3d 46 38 85 bd
       -0.025325045 -0.059726235 0.06440765 -0.06504874
000040 70 4c 60 3c f8 61 a2 bd 4a 6c a3 bd e1 0f 3d bc
       0.013690099 -0.07928842 -0.07979639 -0.01153943
000050 e8 0c 87 bd 9b 24 0f bd 3a 7d b3 3b 0d 6b a7 3d
       -0.065942585 -0.03494702 0.0054775747 0.08174715
000060 c2 79 a0 bd ef 75 6a 3d 45 3a e9 bd 90 0b d0 bd
       -0.078357235 0.057241376 -0.11388067 -0.10158455
000070 d8 b6 0c be 59 85 a4 bd 56 49 15 be 3e 69 95 3d
       -0.13741624 -0.080332465 -0.14578757 0.07295464
000080 f1 95 93 bd ca d6 68 bd 38 c4 3b bd dc 02 cb 3c
       -0.072063334 -0.056845464 -0.045841426 0.024781637
000090 a7 16 42 be 2b ee 17 3d b9 6b 01 be c4 df 6e 3d
       -0.18953954 0.03709237 -0.12638749 0.05831887
0000a0 d2 6a e3 bd dc 9e 48 bd 70 cb 1f be c0 dd cf bd
       -0.11104359 -0.048979625 -0.15604949 -0.10149717
0000b0 e5 74 99 bd 21 f5 61 3c 66 15 a7 bd 4a 5b 82 3c
       -0.07492999 0.013791353 -0.08158378 0.01591267
0000c0 fa d1 c1 3d ed 5e 2f 3d 0e 72 9a 3d fb a4 72 bd
       0.09463878 0.042815138 0.075412855 -0.05923937
0000d0 ff 58 3e 3d ef f1 93 3d 5d 66 1b bd 17 c3 c4 b9
       0.046471592 0.072238795 -0.037939418 -0.00037529386
0000e0 68 a4 c0 3d 9e b0 d2 bd a0 30 85 3c 60 c5 eb bd
       0.09406358 -0.10287593 0.016258538 -0.11512256
0000f0 a9 48 8f bc 9c e4 52 bd da f8 bf 3d 70 da c5 bd
       -0.017490702 -0.05148755 0.093736365 -0.09660804
000100 83 39 92 3d cc 6e 80 bd f4 4d 0a be bd 60 b0 bd
       0.07139876 -0.06271133 -0.135063 -0.08612201
000110 ad d8 ab 3d 01 99 f9 bd 24 71 16 bd 3e 8a 98 bd
       0.08390937 -0.12187386 -0.036728993 -0.074482426
000120 84 a1 5b be 01 c8 5b be fb b9 3a be 17 f4 a2 3d
       -0.21448332 -0.21463014 -0.18235008 0.07956713
000130 3a 6d 1a bc ca 3e 14 3c 91 5f ad bc 68 9b b6 3d
       -0.009425456 0.009048173 -0.021163734 0.0891636
000140 f5 e9 6b 3d ff 07 cb 3c fc c1 0f bc e8 b3 05 3e
       0.057596166 0.024784086 -0.008774277 0.1305691
000150 61 82 08 3e 27 7a 9d 3d 1d e5 2d bd e9 15 8b be
       0.13330986 0.07689314 -0.042454828 -0.27165154
000160 b4 d2 4b be 6a 79 32 be fd a1 1c b9 7d 67 c3 bd
       -0.19904596 -0.17429128 -0.00014937665 -0.09541223
000170 db 28 bf bd 03 bb 0c 3d 4b 87 af bd e4 ee 17 3d
       -0.093339644 0.034358036 -0.08570727 0.03709306
000180 54 54 5c 3c c9 d2 ae bc d5 a8 a3 bd 18 fd b1 3b
       0.01344784 -0.021340745 -0.079911865 0.0054317825
000190 ad d0 96 bc 19 f8 07 be 8b 88 bf bd ec 5e 87 bc
       -0.018410051 -0.13278235 -0.093522154 -0.016524754
0001a0 67 6c c7 bd 61 3b 01 3e 2c 44 29 bd 0f bb 3d bc
       -0.09737473 0.12620308 -0.04132478 -0.011580243
0001b0 60 78 a1 3b a7 24 72 bd a8 29 97 3d f7 b4 a8 bb
       0.00492768 -0.059116986 0.07380992 -0.005148526
0001c0 1e 43 a7 3d 0d 5f e7 3d 43 bb 14 3e fb 5f 08 3e
       0.081670985 0.112974264 0.1452456 0.13317864
0001d0 08 28 10 3e a7 d4 ad 3d f2 9c f3 bd 88 76 86 bc
       0.1407777 0.08487826 -0.11895169 -0.016413942
0001e0 52 bf 8f 3d 3a 90 9b bb 1f df 0e 3e 9b fa a0 3d
       0.07018913 -0.0047474178 0.13952301 0.07860299
0001f0 36 e0 b8 bd 62 5c 41 3d e9 b9 1b be 99 5a cb bd
       -0.0902714 0.047207244 -0.15207638 -0.099293895
000200 41 f8 0d be 7f f3 55 be 37 1f a1 bd db 9d 74 bd
       -0.13864233 -0.20893668 -0.07867282 -0.059720855
000210 3d d7 25 be 2b 9b e5 bd 01 15 e8 bd 29 c1 65 3c
       -0.16195388 -0.112112366 -0.11332131 0.014023104
000220 86 14 22 be 43 ae 9c bc 79 34 f4 bd b7 66 72 bd
       -0.15828142 -0.019126063 -0.11924071 -0.059179988
000230 fe d4 0b 3d 70 35 4e be bb 6c 29 be e6 5e 08 be
       0.034138672 -0.20137572 -0.16545384 -0.13317451
000240 89 95 fd 3c b4 a9 f1 3c 74 e3 6c 3d 63 d7 9f 3d
       0.030955093 0.029499866 0.057834104 0.07804754
000250 ff 7d a8 bc 4d 96 91 bd c9 12 c9 bd 60 1d 1c 3c
       -0.020567892 -0.07108746 -0.09818036 0.009528488
000260 ea c9 b7 bc 0e 80 d6 bd b5 c9 b9 bd 84 30 dd 3b
       -0.022435147 -0.10473643 -0.09071676 0.0067501683
000270 ec 5d ba bd 94 42 d5 bd 42 1e 8a bc b2 00 fb 3a
       -0.090999454 -0.104130894 -0.016860131 0.0019149987
000280 9f 3e b0 bd 4e 96 5d 3d ee a7 c7 3d ed 96 27 b8
       -0.08605694 0.05409842 0.09748827 -3.9956463e-05
000290 00 c3 60 bd 18 ce 84 bd ff 63 f5 bd 58 1e 92 bd
       -0.054873466 -0.06484622 -0.11981963 -0.07134694
0002a0 7e 66 8a bd 0f 30 58 bc 46 b9 48 3d 32 cc 98 3c
       -0.0675783 -0.013195052 0.049004816 0.018652055
0002b0 b1 b6 35 3d 9c 9b a2 3c 42 d9 e2 3c 48 08 66 bd
       0.04436368 0.019849591 0.027691487 -0.05616024
0002c0 3c 53 ed bc 43 b7 62 3d 3c ff 88 bd d7 5d 1f bd
       -0.028970353 0.055350553 -0.06689307 -0.038907852
0002d0 fc db 42 bd f2 ae 1d be 2f 83 cc bd 49 75 31 be
       -0.047573075 -0.15398768 -0.09985959 -0.17329897
0002e0 80 f1 bb 3b 3d d4 2d 3d d3 68 bd 3b f5 29 de bc
       0.005735576 0.042438734 0.0057803183 -0.027119616
0002f0 dd 91 dd bd bf 37 6e bc 2d 63 c8 bd c2 82 af bb
       -0.10818837 -0.014539658 -0.09784541 -0.0053561637
000300 65 50 e6 bc e7 23 06 3d 78 0e 80 3d e9 23 e2 3b
       -0.028114507 0.032749083 0.0625276 0.0069012535
000310 07 0f 05 be 07 cd cd 3c 56 d8 9d bd 3d 2c cf bd
       -0.12994014 0.025122179 -0.077072784 -0.1011586
000320 09 33 0e be dc 36 6c bd 4f 4e 93 3d e8 7d bb bd
       -0.13886656 -0.057669505 0.071926706 -0.09154874
000330 19 00 84 3c 9f 9a 6c bc 80 90 a1 bc 59 83 8f 3c
       0.016113328 -0.014441161 -0.019722223 0.017518686
000340 33 ec 80 3d 4b 41 02 3d 5e f1 f5 bd 2a f8 eb bd
       0.062950514 0.03180055 -0.12008928 -0.11521943
000350 6e e6 f8 bd 59 f9 4e bd 3c 92 9b bd f2 4a 2a bd
       -0.12153326 -0.050530765 -0.07596251 -0.04157538
000360 89 75 da bd 2f bc c9 3d a5 db 28 bd fb d6 ed bd
       -0.10666949 0.09850346 -0.041225094 -0.1161327
000370 57 61 06 be bb fd d9 3d c6 45 50 bd f3 44 96 3d
       -0.1312307 0.10644098 -0.05084779 0.0733737
000380 3a 5c ac bd 36 c0 87 3d a7 5e 9f 3d 9b af 80 3d
       -0.08416028 0.06628458 0.077817254 0.06283494
000390 88 7d bf 3c 7d 2f 86 3b ed 57 ee bd 42 8a 60 3d
       0.023375288 0.0040950165 -0.11637864 0.054819353
0003a0 7c 3b 89 bc 49 08 33 bc 05 e9 b2 3d 9b f6 1a bd
       -0.016751997 -0.010927268 0.08735851 -0.037832838
0003b0 3d d7 aa 3d e8 25 03 3d 43 32 13 bc 97 35 88 bd
       0.08341835 0.032018572 -0.008984151 -0.066508465
0003c0 b3 1d d8 bd ba b8 e4 bc 2e 76 a2 3d 1a e2 15 be
       -0.1055254 -0.027920116 0.07932697 -0.14637032
0003d0 5f 06 47 bd 09 a2 2f bd ab 35 a2 bd dd e0 8b 3c
       -0.04859006 -0.04287914 -0.079203926 0.017074997
0003e0 9e 9b 9b bb 03 db fe bb 23 30 dc 3c 9a 94 a7 bc
       -0.0047487756 -0.007777573 0.026878422 -0.020456601
0003f0 74 c8 95 bc a5 0f dc bd 65 de 1f be 56 15 6a 3c
       -0.01828406 -0.107451715 -0.1561218 0.014287313

conv2.bias f4 [16]
000000 ba 45 ed 3c 24 ed d1 3b 8d fb 73 3d d0 53 2f 3d
       0.028963912 0.006406443 0.05956607 0.04280454
000010 63 96 25 3e 88 60 27 bd c5 77 54 bd ff ac 8e 3d
       0.16170649 -0.040863544 -0.051872034 0.0696659
000020 a0 5a 84 bd 82 f0 fd 3c 58 ba 2d 3d a0 35 61 3c
       -0.06462598 0.030998472 0.04241404 0.013745695
000030 89 d1 3f bd 60 c9 97 3d 11 fc f7 3d c6 b4 4a 3d
       -0.046830688 0.07411456 0.12108625 0.049488805

fc1.weight f4 [120, 576]
000000 9e 14 90 3c c0 36 0f 3c c5 f7 37 3b 54 af e2 3b
       0.017587956 0.008741081 0.0028071266 0.0069178734
000010 5d 0e 2f ba 98 e6 e4 bb 7c 0e e6 bc fc 81 0b bd
       -0.00066778605 -0.0069854967 -0.028083079 -0.03405951
000020 96 b4 27 bd e6 6d 08 bd 17 50 d3 3b 53 ab 4d 3c
       -0.040943705 -0.033307932 0.0064487564 0.012553054
000030 09 a0 1f 3d 66 a4 42 3d ed 2e 5e 3b 1f 6e 90 3c
       0.03897098 0.047520064 0.0033902482 0.017630635
000040 b8 72 4d 3c d5 0e 23 bd fe 6b de 3b bc 83 18 bc
       0.012539558 -0.039809067 0.006787776 -0.009308752
000050 5a 1a ae 3c d9 f2 97 3c 33 f2 fe 3c 9f f3 09 bc
       0.0212528 0.018548416 0.031121349 -0.0084199
000060 58 aa 33 bb 5a a0 37 bd db b0 8e bc 46 00 1b 3d
       -0.0027414765 -0.044830658 -0.017418316 0.037842058
000070 43 bc 36 3d 3c b2 c5 3c c6 11 65 3c 07 8e 2c 3c
       0.044613134 0.02413284 0.013981288 0.010531909
000080 6e 91 a1 b9 cb 40 a4 3b 9f 86 e1 bc 0e 7d 7f 3b
       -0.00030816667 0.0050126067 -0.027530013 0.003898445
000090 5a e0 14 bd 1d d5 64 3c 06 1e f8 3c de 58 7c 3b
       -0.03634677 0.013966826 0.030287754 0.0038505117
0000a0 f5 e2 bc bc a9 be 9f bc 97 5f 84 3b ca 47 96 bc
       -0.02305744 -0.019500094 0.0040397155 -0.018344779
0000b0 50 6b ab 3c 8e c7 3c 3d 01 fd d7 3c 63 0d 43 bd
       0.020925194 0.046088748 0.026365759 -0.04762019
0000c0 ca 21 1d bd 56 79 f8 bc 20 22 9c 3c ab f0 45 bb
       -0.038362302 -0.030331295 0.01905924 -0.0030203264
0000d0 e3 42 7c bc b3 b6 6f 3c 85 e8 fa 3b 22 23 a0 bc
       -0.015396806 0.014630961 0.007657113 -0.019548003
0000e0 9e 49 c1 3a 32 a7 05 39 65 7e 69 bd aa 72 80 bb
       0.0014746671 0.00012746154 -0.057005305 -0.003919919
0000f0 e7 0e 3c bd 8d 66 aa 3c f4 b5 bc 3c 84 1f 20 bd
       -0.04591265 0.020800853 0.02303598 -0.039092556
000100 f8 67 bf bc 36 55 e7 bc b2 4a b5 3b e3 da 35 b9
       -0.023365006 -0.028238874 0.005532586 -0.00017343047
000110 1b d3 f4 3c 2b 00 12 bd dd 81 b0 bc ec 86 bd bb
       0.02988582 -0.03564469 -0.021546299 -0.005783906
000120 f7 1c e9 bc 4a 2f 8c 3c c4 61 25 3c bd 75 07 bd
       -0.028456194 0.017112393 0.01009411 -0.03307127
000130 c8 59 ab 3c d9 67 9c bc 55 ad 40 bd 6e a6 e6 bc
       0.020916834 -0.019092487 -0.047040302 -0.028155532
000140 0c 74 8c bc 49 04 22 bd 65 28 a3 3c ea 85 03 bc
       -0.01714518 -0.039554868 0.019916723 -0.008027533
000150 9c 6f ee bc 46 c5 3d 3b 00 08 e0 bc 87 52 89 3c
       -0.029105954 0.0028956695 -0.027347565 0.016762985
000160 8d 98 35 bd c7 93 0e 3d 11 df ad bc c4 79 a8 bc
       -0.044334937 0.0348089 -0.02122453 -0.020565875
000170 1d 58 4c bc 49 b7 c0 bb 4f 71 51 3a cb 78 96 3b
       -0.01247218 -0.0058812243 0.00079896016 0.0045920364
000180 7a 10 e7 3c c9 9d 4d 3c d9 17 a3 bb 34 53 ad bc
       0.028206099 0.012549826 -0.004977208 -0.021157838
000190 29 b6 21 ba a6 0b 0c 3c 1f df 8a bc c9 c9 f8 bc
       -0.00061688066 0.008547699 -0.016952096 -0.030369656
0001a0 ad a3 3a bd 5c 76 40 bd ed 7c 8b bc 7e bb 2c bd
       -0.04556625 -0.046987876 -0.017027343 -0.042170994
0001b0 b4 d0 fc 3b f8 da 1a bd 00 e1 e0 bc 02 68 c2 bc
       0.007715309 -0.03780648 -0.027451038 -0.023731235
0001c0 ba e0 11 3b d3 d3 0b 3d b0 3b 0c bd cd 4b 30 bc
       0.0022259192 0.03413756 -0.03423661 -0.01076026
0001d0 d0 5d ae bc 84 2e 3b 3c 60 0b c2 3c 3c 52 00 bb
       -0.021284968 0.011424664 0.023687065 -0.0019580266
0001e0 62 41 b5 3c 0e d9 35 3c dd 60 fc bc ef 66 ac bc
       0.022125904 0.011099113 -0.030807907 -0.021045176
0001f0 95 ec d6 3c 89 9a 3b bd 59 85 f0 bc be ca 34 3c
       0.026235858 -0.045801673 -0.02936046 0.011034666
000200 a2 2b 87 3c cf 39 10 3b b4 bf 49 bd ba 32 2d bc
       0.016500298 0.0022007113 -0.049255088 -0.010571176
000210 ea 4f 93 3c 70 1f 93 3c 6e 80 de 3b 6e 3e eb bc
       0.017982442 0.017959327 0.0067902124 -0.028716292
000220 ef 8c 02 3c 86 98 e6 bb 08 77 48 bd 1c 3c d8 bc
       0.0079681715 -0.007037225 -0.048941642 -0.02639585
000230 02 cd 22 3c 41 e7 15 bd 78 a2 90 bc ae 1c 04 bc
       0.009936573 -0.036597494 -0.017655596 -0.008063478
000240 c0 42 9f 3b 99 2d 20 bd 6b 20 0a bd 2a 6d f4 bc
       0.004860252 -0.039105985 -0.033722322 -0.02983721
000250 54 ae 25 bd ec ce 28 3c ce e1 11 3c fb d6 e9 3c
       -0.040449455 0.01030324 0.008903934 0.028544893
000260 3f c8 39 bc aa 1d d3 bc 75 44 1b bd aa cd cd 3c
       -0.011339246 -0.02577098 -0.037907083 0.025122482
000270 2b 71 e1 bc f0 cb dd 3b ca b0 0c bd f8 ba d3 3c
       -0.027519783 0.006768696 -0.034348287 0.02584599
000280 ea 82 db ba c8 7d c7 3c 36 96 1a 3c a1 6d 7c 3b
       -0.001674739 0.02435197 0.009435227 0.0038517492
000290 81 0b 07 3d 52 79 f7 bc df b1 75 bd 31 00 b1 bc
       0.032969955 -0.030209217 -0.059984084 -0.021606537
0002a0 89 f1 1f bd af 1b d9 ba 3d 3c 04 3d 6a 39 b7 3c
       -0.039048705 -0.0016564036 0.03228401 0.022366244
0002b0 12 46 ac bc 1c c7 ef 3c 1a 20 30 bd 80 03 3e bd
       -0.021029506 0.029269747 -0.042999364 -0.046390057
0002c0 3c 91 77 bd 2c ca ec 3c 8b 9f 0f 3d d5 c8 f0 bc
       -0.06044124 0.028904997 0.03506426 -0.02939264
0002d0 29 f6 2c bd d3 9a aa bc 9d 04 19 bd f3 ee 11 bc
       -0.042226944 -0.020825779 -0.037357915 -0.008907068
0002e0 10 d4 c1 bc 20 d8 38 bd 4c 95 c8 bc 36 40 ad bc
       -0.02366069 -0.045127988 -0.024485253 -0.021148782
0002f0 ba e2 93 bc 81 9f 00 3c f3 50 fe 3b 45 06 33 bc
       -0.018052448 0.007850529 0.0077611147 -0.010926788
000300 f7 81 8e bc 23 20 3d bd 4e 3b 80 bc 33 94 26 bd
       -0.017395956 -0.046173226 -0.015653279 -0.040668678
000310 d7 e8 7b bd fc f2 79 bd e1 0f d3 3b 30 80 95 bc
       -0.06150135 -0.061022744 0.006441102 -0.018249601
000320 9f 0b 10 bd e2 d4 b1 bc 80 8d 40 bd 1d fd fd bb
       -0.035167333 -0.021707956 -0.047009945 -0.0077511207
000330 8a bd 0a bd 98 68 03 3b 07 d7 2a bd 8f 11 97 bb
       -0.033872165 0.0020051356 -0.041708972 -0.0046102474
000340 30 3e b0 3a 49 e5 a1 bc 4a 1a 4c bd ea fb 9b 3c
       0.0013446268 -0.019762652 -0.04982976 0.01904102
000350 e6 81 15 bd b7 8e 41 bd a2 51 a3 bc d3 0f c7 3c
       -0.036500834 -0.047255244 -0.019936386 0.024299538
000360 c7 f0 95 3c bb 8e c4 bb 01 0e a5 3b f3 07 9d 3c
       0.018303288 -0.00599846 0.00503707 0.01916883
000370 6a 0a 1e 3c 17 08 72 3c bc 2d 4a 3c ae d2 c7 bc
       0.009646038 0.014772437 0.0123400055 -0.024392452
000380 dd 95 f3 bc ce 97 02 bd 1f c8 97 bc 4f c5 be bc
       -0.029734546 -0.031883053 -0.018528042 -0.023287443
000390 59 e5 1c 3d e9 c3 1b bd b5 be 1a 3d 82 80 05 bd
       0.03830466 -0.03802863 0.03777953 -0.032593258
0003a0 07 c3 a1 3c 97 29 d7 bc d1 30 b7 3c af ad 01 bd
       0.019746317 -0.026264949 0.022362145 -0.03165978
0003b0 cc 91 c6 bc cb 3c 00 3d 72 f7 bd bb 03 3f a4 3c
       -0.024239443 0.031307977 -0.00579732 0.020049578
0003c0 cf 0a 91 bc a5 ba 04 3d ba e6 31 3d 08 85 90 bc
       -0.01770535 0.03240456 0.04343293 -0.01764156
0003d0 d2 52 45 3c b8 a4 14 bd 07 4f 35 bd f3 5b 2e bd
       0.012043672 -0.0362899 -0.04426482 -0.04256816
0003e0 86 0d 2b 3c d1 7a 0b ba 41 68 0a bd 77 72 e9 bb
       0.010440236 -0.000532073 -0.03379083 -0.007124241
0003f0 15 b9 ee 3c 78 31 6f bc 61 20 28 bd f8 b8 11 3d
       0.029140988 -0.014599197 -0.041046504 0.03557679

fc1.bias f4 [120]
000000 71 40 18 3c 27 43 9c bb e4 9a 20 3d c9 f5 f8 3c
       0.009292708 -0.0047687474 0.039210215 0.030390637
000010 2d 9c cb 3c 22 53 31 bd 81 29 33 bb cd b2 7c bc
       0.024854744 -0.043292172 -0.002733797 -0.015423489
000020 64 fb 4b 3c 95 0d 07 bb a9 7e e0 bc 82 46 f6 bb
       0.012450073 -0.002060746 -0.027404146 -0.0075157294
000030 94 56 8a 3c f4 15 45 bd dd 6a 41 bc 62 83 91 bd
       0.016886987 -0.04811664 -0.011805263 -0.071051374
000040 95 4d b0 bb eb bf 88 bc d0 56 48 bd 15 56 71 bd
       -0.0053803422 -0.016693076 -0.048910916 -0.058919985
000050 eb 46 1c bd 0f 48 ee bc 6c b8 6a 3c f2 8c 11 3d
       -0.03815357 -0.029087095 0.014326196 0.035534807
000060 30 fd 2a 3d cf 57 82 bd 50 89 ad 3c fc e7 af bc
       0.041745365 -0.063644044 0.02118364 -0.021472923
000070 c5 6a e1 bc cb e1 2c bd e8 a6 4a bd 7b 86 0a bd
       -0.027516732 -0.04220752 -0.04947558 -0.033819657
000080 8e ec 9b bc f3 12 8b 3d f3 1e 2b bd a4 cc e5 bc
       -0.019033697 0.06790724 -0.041777562 -0.028051682
000090 50 a8 cc bc 05 bb 39 bd 62 26 50 3c c3 a2 d1 bc
       -0.024982601 -0.04534437 0.012704464 -0.025590306
0000a0 1a 81 73 bc e0 0d bf bb 77 a7 01 bd d5 c9 2d bc
       -0.014862323 -0.0058305115 -0.031653848 -0.010607203
0000b0 18 ea 2f bc e8 b3 07 3b 96 73 8f bc 59 33 0e bd
       -0.010736965 0.0020706598 -0.01751117 -0.034716938
0000c0 96 f1 8d 3c ef b7 d3 3c 5e cb ad bc 22 55 24 3d
       0.017327111 0.025844542 -0.021215137 0.04012025
0000d0 00 c4 a3 3a 03 fd ed bc 29 5e b7 bc 36 6b b8 3b
       0.0012494326 -0.02905131 -0.022383766 0.005628015
0000e0 2b 85 2f 39 cf aa 76 bc 87 13 2d 3b d7 5c 8c 39
       0.0001673891 -0.015055372 0.0026409344 0.00026772052
0000f0 a9 32 9e 3c b5 e1 a6 bc f3 18 d8 bc 52 97 b8 3d
       0.019311266 -0.020371297 -0.026379084 0.09013237
000100 8a c8 c0 3b 8c 3b 88 bc af 7e d1 bc b2 95 3f 3d
       0.005883281 -0.016629957 -0.025573103 0.04677362
000110 58 8b 60 bd 9b fb 0b bd fb 62 4d bd d4 32 59 3d
       -0.05482039 -0.034175497 -0.050143223 0.05302699
000120 d7 ec 5a 3b 35 f2 24 3c d5 bb 6c bd be ae 8f bc
       0.0033405328 0.010067512 -0.057796318 -0.017539378
000130 6c a8 62 bc a3 8c 51 bb 7a df 2f 3d a7 80 50 bd
       -0.0138341 -0.0031974695 0.042937733 -0.050903942
000140 03 4c 71 bb 95 99 69 bc e4 6a c2 bc 82 c4 1d 38
       -0.0036818988 -0.014257808 -0.02373261 3.761473e-05
000150 2e 4e 9b bd 55 42 ac bc d5 44 ea bb 98 fb d7 bc
       -0.07583271 -0.021027723 -0.0071493187 -0.026365086
000160 00 5d f6 bc a4 ba ec bc 05 e4 ef 3c d0 3d 9e bb
       -0.030073643 -0.028897591 0.029283533 -0.004829146
000170 e5 2d 4d bc d7 06 11 bd 06 8f 69 bd 5c a6 c3 ba
       -0.012523149 -0.035406914 -0.057021163 -0.0014926898
000180 5c ff 2e bd c7 b8 84 3d e6 da 27 3d 25 8d 75 bd
       -0.042724 0.06480556 0.040980242 -0.05994906
000190 07 c8 48 bd c6 3d 4d 3c ea f1 49 bd 5b 9a 5e ba
       -0.049018886 0.012526935 -0.049302973 -0.00084916287
0001a0 5e 4c 55 3d 54 34 a2 3b 7a 9c 8f 3c 8f e2 01 bc
       0.052074783 0.0049500857 0.017530669 -0.007927551
0001b0 10 d4 5c ba 38 f5 69 bd 77 87 c7 bc d4 25 50 bd
       -0.0008423934 -0.057118624 -0.024356587 -0.050817326
0001c0 7d e9 eb bc 11 71 ac bc 6c 8b 93 3d 9e 8a 25 bd
       -0.02879786 -0.021050008 0.07204327 -0.0404154
0001d0 a9 c3 b9 ba 28 6f 15 ba d9 c9 6a 3c 6c 8c 4b bc
       -0.0014172691 -0.00057004625 0.014330351 -0.012423616

fc2.weight f4 [84, 120]
000000 ea 5e 18 3d 2f bd a3 3d ef 79 09 bd ba 21 3b 3d
       0.037199892 0.07995068 -0.03356355 0.04568646
000010 03 c7 87 3d c4 41 71 3d d2 5e 66 bd 6d 30 12 bd
       0.06629755 0.05890061 -0.05624277 -0.035690714
000020 7c a7 04 be 6b 65 28 bd 49 36 80 3d 4c f2 6a 3c
       -0.12954515 -0.041112345 0.06260354 0.014339995
000030 1e 20 ff ba 2c 27 c2 3d a8 5b b8 3c ab e5 86 bd
       -0.0019464528 0.09480128 0.022504643 -0.065867744
000040 a3 d6 84 bd fd 32 ef bd 71 f7 5f bc be d7 9e bd
       -0.06486251 -0.11679647 -0.0136698345 -0.07755993
000050 ea 81 e5 bc 8d 86 f1 3b 17 ee 54 bd 30 de 00 be
       -0.02801605 0.007370776 -0.051984873 -0.12584758
000060 87 50 75 3c c9 c5 c6 bd fd 9c a7 ba 58 f4 16 3d
       0.0149728125 -0.09705693 -0.0012787875 0.036854118
000070 cc ad 86 3d 24 14 a4 bb 12 bc 92 3d 38 05 57 3d
       0.06576118 -0.0050072838 0.07164778 0.05249521
000080 87 16 2f bc 43 48 f1 3d c2 be 7b bd 74 49 a8 bd
       -0.010686523 0.11781361 -0.061461218 -0.08217135
000090 a4 83 ab 3d c9 81 e1 3b e9 b9 3a 3c 25 9b 97 bd
       0.08374718 0.0068819267 0.0113968635 -0.07402638
0000a0 a0 28 c5 3d 89 22 05 3d ec 31 ae bd ea 04 33 3d
       0.09626889 0.03250364 -0.085056156 0.04370586
0000b0 3a 1d a8 3d 13 88 ac 3d 6a ca ab bc f2 46 b7 3b
       0.082086995 0.084243916 -0.020970542 0.005593174
0000c0 e9 c2 73 3d 95 e7 91 3d 18 ec 29 bd 71 12 00 be
       0.059512053 0.07124249 -0.041484922 -0.12507035
0000d0 17 2e 94 bd c0 39 37 3d 98 e0 2c 3d 38 cd 90 bd
       -0.072353534 0.04473281 0.042206377 -0.07070392
0000e0 99 db b1 3b b9 4f 79 3d bf 59 10 bd 7d 7d 81 bc
       0.0054277894 0.060867045 -0.03524184 -0.015806908
0000f0 2e 50 dc 3d 12 cc 4a bd b8 f1 1f 3d b3 5f 0f 3e
       0.107574806 -0.049511023 0.03904888 0.1400135
000100 73 cc 97 3d d5 51 6e 3d 17 34 14 3d 60 a6 b1 3c
       0.074120425 0.05818351 0.03618249 0.02168578
000110 c9 3f 4c 3d 4c 43 da 3d 40 63 59 3c 1e 7d 06 3d
       0.049865518 0.10657367 0.013268292 0.032834165
000120 e7 53 b9 bd 5a 8d a3 3c 30 68 b1 bb 7a 40 9f bc
       -0.09049206 0.019964863 -0.0054140314 -0.019439925
000130 bf 94 41 3c 62 5b 14 bd 23 63 78 3d 92 6d 42 bc
       0.011815249 -0.036219962 0.06064142 -0.011866944
000140 74 63 24 3d 27 eb b1 3c 3a af 58 bd 53 77 9a ba
       0.04013391 0.021718575 -0.052901484 -0.0011784829
000150 ae 12 41 bd 0f 2d 03 3d 55 e2 51 bd 47 56 e6 3c
       -0.047136955 0.032025393 -0.051241238 0.028117312
000160 49 ce 82 bd 77 76 e3 3c 80 65 a2 3c 59 50 a0 3d
       -0.06387002 0.02776645 0.01982379 0.07827825
000170 4d 17 bf bc 5a 80 97 3d 1a 5a 9a 3c 03 fe 61 bd
       -0.02332654 0.07397528 0.018841792 -0.055173885
000180 67 9b 8a bd 2c 08 9a bd c8 97 80 bd bf 16 87 3a
       -0.06767922 -0.0752109 -0.0627895 0.0010306461
000190 6f 48 51 3c 3d 11 46 3d 96 f3 43 bd 0b da fb bc
       0.012773617 0.048356283 -0.047839724 -0.03074362
0001a0 de 3e e0 3d 73 4b a5 3d de 8a 93 bc 78 7d cc 3c
       0.10949491 0.080710314 -0.018010553 0.024962172
0001b0 63 51 43 3d da 4d 2e 3d 91 7c e4 bc b2 ca 34 bd
       0.04768504 0.042554714 -0.02789143 -0.044138618
0001c0 00 34 27 bd 7e 51 c5 bd fc 22 93 bd 40 c6 a4 3d
       -0.040821075 -0.09634684 -0.07184407 0.08045626
0001d0 d9 5c a3 bb 11 3e 52 3d 05 4b 01 bd 7e c4 05 bd
       -0.0049854335 0.051328722 -0.031565685 -0.032658093
0001e0 20 e3 4e 3c c8 d3 c0 bd f9 f2 e7 3c 8b 19 6e 3d
       0.012627393 -0.09415394 0.0283141 0.05812983
0001f0 d9 72 29 bd 7d 37 14 be 6a 2d 48 bd 47 2b 11 bd
       -0.041369293 -0.14474292 -0.048871435 -0.035441663
000200 94 c2 b2 bd 96 63 54 bd 9f 42 a0 bd 2a da 22 bb
       -0.08728519 -0.051852785 -0.07825207 -0.0024849274
000210 bb 7b 9f 3c 7c f8 e9 3c a7 7f ac bd 38 73 d5 3c
       0.019468179 0.02856087 -0.08422785 0.026055917
000220 3f 6d 3d bb 62 f8 3c bd ca c5 2b bd dc df 55 3c
       -0.0028904227 -0.046135314 -0.041936673 0.0130538605
000230 2a 6e c5 3d 30 2d 8f 3d e4 59 f1 bd 48 d8 0d be
       0.09640153 0.06991041 -0.117847234 -0.13852036
000240 f0 12 72 bd a7 64 85 3d 70 56 04 bc 04 4e d1 bc
       -0.05910009 0.065133385 -0.008077249 -0.025549896
000250 3e 67 82 3d f4 80 88 3c 35 75 1b bd c7 f4 9b bd
       0.06367348 0.016663052 -0.037953574 -0.07615047
000260 f8 88 f3 bd 20 7b df bd 4f 53 c7 bd 38 e5 da 3c
       -0.11891359 -0.10912156 -0.09732687 0.026720628
000270 d2 ce 68 bd b1 6b 91 3d 1c c0 93 3d 0d 54 76 bd
       -0.056837864 0.07100619 0.07214376 -0.06013875
000280 3e 10 7b bd e1 b3 1b bd a5 01 77 bd 90 68 33 3d
       -0.061294787 -0.038013343 -0.060304303 0.04380089
000290 c5 ab 9a bd d4 29 8c 39 de 8f 82 bc 73 a9 2b ba
       -0.07552294 0.00026734045 -0.015937742 -0.0006548382
0002a0 7c 61 ec 3c 8a 3b 60 ba 76 88 04 3c 77 71 e7 3a
       0.028855078 -0.0008553794 0.008089175 0.0017657717
0002b0 19 a0 c4 3c 8b fe e8 bc 49 78 42 3d 3e 30 bb bd
       0.024002122 -0.028441688 0.047477994 -0.09140061
0002c0 51 a5 9d b9 34 b8 74 bd 31 62 7f bd 20 28 be bd
       -0.00030068544 -0.059745982 -0.062349502 -0.09284997
0002d0 12 f8 05 bc 37 ec 90 bd 2d a1 de bc 74 bf 59 bd
       -0.00817682 -0.070763044 -0.027176464 -0.0531611
0002e0 74 4a dd 3c 80 c1 9c bd a9 5b ca bd d0 b7 c8 bd
       0.027013041 -0.07654095 -0.09880764 -0.098006845
0002f0 8c 49 0a 3c df 22 53 3d 2c 90 ce bc fb 65 87 3c
       0.0084403865 0.051546928 -0.02521523 0.01652812
000300 07 ab 33 bd 70 c7 17 bd 4d 64 4a bc d9 3d 57 3d
       -0.043864276 -0.037055433 -0.012353015 0.052549217
000310 65 93 b9 3c 7a f8 a2 bd 9c 92 42 bd a7 e7 93 bd
       0.022653291 -0.079575494 -0.0475031 -0.072219186
000320 bd 6a 3b 3d 99 6f 84 3d 0c d8 d9 3c 70 0c bf bd
       0.04575609 0.06466598 0.026592277 -0.09328544
000330 d6 eb 37 3d ad 9b ac 3d 92 bd e0 bc c0 ed 5f bd
       0.044902645 0.0842813 -0.027434144 -0.054670095
000340 1a 95 bb 3d 98 7c 65 3c 2f 5e e1 3c 14 4c f5 3c
       0.09159298 0.014006756 0.02751073 0.029943503
000350 d0 61 56 bd 68 2f 4c bc 5a d3 c8 3d c3 31 7f 3d
       -0.052339375 -0.012462474 0.09805937 0.062303316
000360 88 70 8c 3d 38 79 5a bd 69 8a 4e 3c 48 4e b7 3d
       0.06857401 -0.05333826 0.012606242 0.08950478
000370 79 ad 2e 3c 05 4d af bd ca 7a ea bc 7d 95 5b bc
       0.010661476 -0.08559612 -0.028623004 -0.01340234
000380 cf c7 62 bd 74 ef 5e bd 63 60 a1 3c b4 e9 08 3d
       -0.055366334 -0.05442758 0.019699281 0.033426
000390 dc 50 e1 bd de c7 77 3d 57 48 22 3d f8 01 37 3d
       -0.11001751 0.060493343 0.03961977 0.044679612
0003a0 59 d7 5f bd 72 7a cb bb 71 07 86 bc 59 7a 11 bd
       -0.05464873 -0.006209665 -0.01636097 -0.03551707
0003b0 71 58 71 bd 32 c0 c2 bc b9 a4 ef 3c be ff 39 3c
       -0.058922235 -0.023773286 0.02925335 0.011352478
0003c0 ac 07 6f bd c3 cd cc bd 05 f6 08 bb 69 66 e5 bb
       -0.058356926 -0.100001834 -0.0020898592 -0.0070007336
0003d0 dd 9d 34 3d e6 3a 8f 3d 21 59 a0 bc 80 eb 83 bc
       0.044095863 0.06993656 -0.01957375 -0.016103506
0003e0 89 97 83 bb ce cd ca 3b 05 c8 47 bd 75 0f 2e bd
       -0.004015867 0.0061890846 -0.048774738 -0.04249521
0003f0 82 2d cc 3c b1 c6 87 bd 85 7a 5f bd 6a bb 62 3c
       0.024924044 -0.06629694 -0.054560203 0.013838628

fc2.bias f4 [84]
000000 d3 54 26 3d 75 e0 2c 3c df 9a 76 bd bd e8 87 3b
       0.04060824 0.010551562 -0.06020629 0.0041476176
000010 65 ad 19 be e3 e7 e2 3d 7a 40 b4 bc ba 72 8a 3d
       -0.15007551 0.11079385 -0.022003401 0.067601636
000020 81 e6 61 bd 5a 85 05 be 65 4f a0 3d 08 a2 cf bd
       -0.055151466 -0.13039151 0.07827643 -0.10138327
000030 38 b6 9a bd 48 de 8f 3c 65 e3 48 bc 0e 92 7f bd
       -0.07554287 0.017562047 -0.012261246 -0.062395148
000040 29 a7 8a bd 87 56 b8 3d 46 ec 0a bd 73 26 e8 3c
       -0.067701645 0.09000879 -0.033916734 0.028338647
000050 19 26 0f 3d fc 04 09 3c 91 73 67 3d f8 20 c3 bd
       0.034948442 0.008363005 0.056506697 -0.09527773
000060 b5 86 22 3d 2f 34 0b 3d 29 8e 10 be ea 58 30 bb
       0.039679248 0.033985313 -0.1411673 -0.0026908466
000070 ce 75 b1 bd 52 d8 d9 bc b3 55 86 3d 91 1c 0a be
       -0.086650476 -0.026592407 0.065593146 -0.1348746
000080 a9 27 9b bd 05 f2 0b 3d 47 a7 80 bd eb 11 1c 3d
       -0.07575924 0.034166355 -0.062819056 0.038103025
000090 06 c0 8e 3d de e8 3f bd dc 89 ca 3d a7 88 e6 3d
       0.06970219 -0.04685294 0.09889576 0.11256533
0000a0 64 55 bf bd b6 4f 89 bd 97 c0 fc 3d f2 45 4d 3a
       -0.09342459 -0.06704657 0.12341421 0.0007830552
0000b0 38 17 18 bd 09 09 69 3d 69 cb 85 bd e1 c1 d3 3c
       -0.037131518 0.056893382 -0.06532938 0.025849285
0000c0 74 f6 56 bd 52 7d a5 3d a6 a2 d6 bb ff 12 7c 3d
       -0.05248113 0.080805436 -0.006550151 0.061541554
0000d0 ff b3 89 bd 53 85 c6 bb 07 40 bd 3a 1f 66 8d 3c
       -0.06723785 -0.006058374 0.0014438637 0.01726061
0000e0 58 ea 87 3d fd 1b 67 3c e0 1a 7c bb 4a ff 1f 3d
       0.066364944 0.014105794 -0.0038468167 0.039061822
0000f0 78 fc a0 3d 34 06 7c 3d a8 78 11 bd b2 6b bf 3d
       0.078606546 0.061529353 -0.035515457 0.09346713
000100 e8 bc f7 3c a3 cc 20 3d 5e 75 47 3d fe c6 08 bc
       0.030241445 0.039257657 0.048695914 -0.008348225
000110 e0 53 93 3d 33 cd 63 bc 0f 3d 00 3d 06 ab 57 3d
       0.07193732 -0.013903904 0.03130823 0.052653335
000120 74 6b 21 bd ed 90 d5 bc e2 1a 88 bd bd 79 c8 bd
       -0.039409116 -0.026070083 -0.066457525 -0.09788845
000130 89 e5 8f 3d ab c5 1d be 8c cf c7 3d b9 48 a5 bb
       0.07026202 -0.15407436 0.09756383 -0.0050440696
000140 80 74 66 3d cd fb 40 bc ac 41 10 bd a4 89 74 3b
       0.056263447 -0.011778784 -0.03521888 0.0037313486

fc3.weight f4 [700, 84]
000000 ba a8 d0 bd 42 1e c1 bd df 01 a0 bd d5 e2 f8 bd
       -0.10188432 -0.09429599 -0.07812857 -0.1215264
000010 af 52 88 bd d0 ab ac ba cf 51 d9 ba 1d 28 8a bd
       -0.06656396 -0.0013173763 -0.0016580167 -0.06745932
000020 05 f4 ff 3d 5c 37 17 3d 7f bc 97 bb e8 da 29 3d
       0.12497715 0.03691803 -0.004630625 0.04146853
000030 9c a7 0b be 2b 63 91 3d ad 47 85 bd b5 b8 e6 bc
       -0.13638157 0.07098993 -0.06507812 -0.028164247
000040 78 4f 66 3c 33 44 f4 3c 59 6a f5 bd 3a 94 a4 bd
       0.014057033 0.029817676 -0.11983175 -0.080360845
000050 1a 67 0f bd ab 33 37 3d 7f 6b 2a bd 36 0e c3 3d
       -0.035010435 0.04472701 -0.041606423 0.09524195
000060 64 54 7b bc e8 b4 ad 3d 5a 4a 12 3e c7 81 59 bd
       -0.0153399445 0.08481771 0.14286175 -0.05310228
000070 53 a9 a2 bd 72 76 a5 bd aa 4e 8e 3d e1 ff 1f bd
       -0.07942452 -0.08079232 0.06948598 -0.039062385
000080 74 52 27 bd 28 91 76 3d 99 c4 57 3d 5c 30 6c bd
       -0.040850118 0.060197026 0.052677725 -0.057663307
000090 55 05 8d 3d 77 cc d7 3d a4 8c 03 bc c3 a4 e9 3c
       0.06885783 0.105370454 -0.008029137 0.028520947
0000a0 85 34 cc 3d 47 50 a3 3c 46 c0 d8 3b 9c 93 05 3d
       0.09970955 0.01993574 0.0066147177 0.032611474
0000b0 4c aa 27 bc 00 f3 80 3d 34 f1 da ba 44 ef 29 be
       -0.010233473 0.062963486 -0.0016703964 -0.16595179
0000c0 6f f5 7b bd b3 27 09 bd c6 a8 ad 3b 00 33 0e 3e
       -0.06151336 -0.033485126 0.0052996604 0.13886642
0000d0 2e f9 1a bd 5f 8e a9 3d 07 f1 f6 3d 31 34 86 bd
       -0.037835293 0.08279108 0.12057691 -0.065529235
0000e0 eb 2a 0e 3d c4 4a 09 be 0e b9 74 3d 6e bd c3 bd
       0.0347089 -0.13407427 0.059746794 -0.09557615
0000f0 5f 8a ab 3d 16 f4 bb 3d 48 98 4b 3c e1 08 9d 3d
       0.083760016 0.09177415 0.012426443 0.07667709
000100 0c c1 b5 3d df 08 98 3a 82 aa 38 bd ec 37 88 bc
       0.088747114 0.0011599323 -0.045084484 -0.016628228
000110 6b d3 95 bd 38 f3 96 bc 40 0e 8a bd bc f5 e4 3d
       -0.073157154 -0.018426523 -0.06740999 0.111796826
000120 b2 f3 9d bc f0 d3 b5 bb 15 b8 e7 3d 6e 68 06 bc
       -0.019281242 -0.0055489466 0.11314408 -0.008203609
000130 0a 66 d2 3c ed d6 03 3e 37 4b df 3c f9 49 b5 3d
       0.025683422 0.12874956 0.027257545 0.08852
000140 d1 ec 8b 3d 8e cb 10 bb c8 8a 9a bd 45 95 73 bb
       0.068322785 -0.0022093984 -0.07546002 -0.003716783
000150 22 8e bf bd 3e c2 96 3d 22 1e 66 bd 7e 19 8e 3d
       -0.093532816 0.073612675 -0.05618108 0.06938456
000160 e5 38 a2 3c 14 07 bc 3c 8e d3 0b bd 27 78 44 3d
       0.01980252 0.022952594 -0.0341373 0.04796615
000170 5d 32 72 bd 2e 89 49 bd 46 00 d6 bc 74 71 e5 ba
       -0.05913006 -0.04920309 -0.026123177 -0.0017505125
000180 77 08 fb 3c 4e 90 47 3d b4 a6 fc bc 59 43 4f 3d
       0.030643685 0.048721604 -0.030841209 0.050601337
000190 86 59 98 3d 5f 9c d0 bd 21 52 a8 bd 34 07 8e bd
       0.0743895 -0.101860754 -0.0821879 -0.06934968
0001a0 8b 3b fa bd 02 74 a3 bd 7f 96 85 bd 67 7b ab bc
       -0.12218388 -0.07981111 -0.065228455 -0.020932866
0001b0 04 8a f5 bc d2 5f e1 3d 74 a9 97 bd 92 39 17 bd
       -0.029973038 0.110046044 -0.074053675 -0.036920138
0001c0 74 29 6e 3d e5 2e c9 3d 92 5f 45 3d 72 57 a5 3d
       0.058145 0.098233975 0.048186846 0.080733195
0001d0 36 cf 38 3c 7c 52 2c bd 43 e5 a4 bd 6d 3c 4a bd
       0.011279872 -0.04207085 -0.08051541 -0.049374033
0001e0 04 60 26 bd 26 83 6e 3d e7 1b 0e 3d 6c 05 c7 3c
       -0.04061891 0.05823054 0.03469458 0.024294578
0001f0 5e 59 c0 bd d2 fb 3b 3d 34 d7 9b 3d 71 9f e4 3b
       -0.093920454 0.04589445 0.07609406 0.0069770147
000200 41 6a e4 bc 88 ab b5 3d 40 b3 c2 3d a8 ae 95 bd
       -0.027882697 0.088706076 0.095068455 -0.07308704
000210 30 7f 94 bd 6a 96 b5 bb fc d7 dd bd 8b e3 3a be
       -0.072508216 -0.0055416124 -0.108322114 -0.18250863
000220 fa 88 0b be 77 2c a1 bd 82 30 8a 3d 1f 2c e0 bd
       -0.13626471 -0.07869809 0.067475334 -0.109459154
000230 9f ae 41 3c ba 5d 0f be 30 de 51 bd a3 ca de 3c
       0.011821418 -0.14000598 -0.051237285 0.027196234
000240 0a 65 06 3d 43 04 81 bd df 83 bc bd 62 49 f4 bd
       0.032811202 -0.06299641 -0.0920484 -0.11928059
000250 88 b1 c7 bd 84 90 12 bc e6 4b 72 bd d4 d1 70 3c
       -0.09750658 -0.008945588 -0.059154414 0.014698464
000260 24 b7 08 be 37 30 45 3d f4 59 31 3d 1e 92 ca bd
       -0.13351113 0.048141684 0.043298677 -0.09891151
000270 f1 4e b3 3c 57 4c 29 3d 3b 0e 2c bd ae ff ef bc
       0.021888228 0.04133257 -0.04200576 -0.029296722
000280 23 2a b8 bd 62 35 91 bd 55 c8 cd bd ea 91 28 be
       -0.08992412 -0.0709026 -0.10047976 -0.16461912
000290 a1 59 44 3d e2 8a 0f be 63 ec 0a bd 94 d7 be bd
       0.04793704 -0.14017823 -0.033916842 -0.09318462
0002a0 f9 00 19 3c 8d 17 ee 3c a1 c6 82 3d c3 c7 4e 3c
       0.009338611 0.029063964 0.06385542 0.012620869
0002b0 b5 19 9d bd 17 90 fe 3d a4 61 6f 3d e0 c7 27 3d
       -0.07670919 0.12429827 0.058442727 0.0409621
0002c0 45 ac ea 3b 16 74 79 bd 1a a6 1c 3e f1 5e ab 3d
       0.0071616494 -0.060901724 0.15297738 0.08367718
0002d0 dc aa 02 bd 0b 2d 97 bd 9d 12 bf bc a5 6f 51 3c
       -0.031901225 -0.07381638 -0.023324305 0.012782966
0002e0 da ae af bc f2 60 0e 3e 5e a4 34 bd c0 3c 22 bd
       -0.02144568 0.13904169 -0.044102065 -0.039608717
0002f0 42 5c ab bd 7a 76 ad 3d f4 d2 41 3e bb 91 20 3e
       -0.08367206 0.08469863 0.18928128 0.15680592
000300 cb 82 38 3d e5 8d 5b bd 50 5f af bd 10 58 f8 3d
       0.04504661 -0.053602118 -0.08563101 0.121261716
000310 ea 28 84 bd 2c 08 69 3d 22 ea cb 3d 96 c1 d4 bc
       -0.06453116 0.05689256 0.09956767 -0.025971215
000320 c7 2f 55 bd 77 b4 1f bd 57 e0 d5 bd c3 c7 2b 3e
       -0.052047517 -0.038990464 -0.1044318 0.16775422
000330 b3 5c 91 3c ca 61 dc 3c bf cb db 3d 82 42 36 3e
       0.017744398 0.026902098 0.10732221 0.17798808
000340 7c 53 db bd f9 42 25 3e c9 ec 0c 3e 5d 4f 95 3d
       -0.10709283 0.1613883 0.13762201 0.07290528
000350 5f 6a 68 bd d0 b0 4d bd 53 9f 68 bd 60 9c 4c 3d
       -0.05674207 -0.05021745 -0.05679257 0.04995382
000360 f9 64 1d 3e 21 72 2e 3e 69 e7 ff 3d 0c e4 00 bd
       0.1537055 0.17035724 0.1249531 -0.031467482
000370 96 00 24 3e 2d 3c 70 bc 7d db a0 3d e4 78 e6 3b
       0.16015849 -0.0146627845 0.07854364 0.0070334543
000380 87 f1 2a bd 52 c2 d3 bd 57 3e e5 3d 9a a5 6e 3b
       -0.041734245 -0.10339798 0.11193531 0.0036414624
000390 63 85 05 bd 87 a1 0a 3d 8d aa a3 3d eb 3c 8c 3d
       -0.03259791 0.03384545 0.07991514 0.06847557
0003a0 52 95 e8 bc 18 5a 9b bc 14 13 17 3e 1e a6 64 3d
       -0.028391514 -0.018963858 0.14753371 0.055822484
0003b0 30 0c e8 3d 70 d3 61 bd 26 5b c1 3d f6 bb 00 3d
       0.113304496 -0.055133283 0.09441213 0.031429254
0003c0 50 b0 1d 3e 1a da 10 3e 61 60 96 bd ce e3 93 bc
       0.15399289 0.14145699 -0.073426016 -0.018052962
0003d0 5c ff 28 3c d3 3d 61 3d 35 60 bd 3c 2b f1 21 3c
       0.010314789 0.0549906 0.023117164 0.009884159
0003e0 dd f8 13 3c e6 fc 98 bc 46 97 b0 bc 9c 54 49 3c
       0.009031502 -0.018675279 -0.021556508 0.012288239
0003f0 59 ca 8f 3c cc 11 91 3d fd 64 1b 3e 5c f7 2c 3d
       0.017552542 0.070834726 0.15175243 0.042228088

fc3.bias f4 [700]
000000 66 90 ac bd 4b 43 e4 3c 63 ba d6 3d e8 e3 31 bd
       -0.08425979 0.027864119 0.10484769 -0.04343024
000010 e2 68 ba 3d 45 43 02 bd 4f 4d 74 3d a6 ab b3 bd
       0.09102036 -0.031802434 0.05964404 -0.08772974
000020 93 c1 82 bd 83 ad af 3d 47 e8 92 3d 51 21 dd 3d
       -0.063845776 0.085780166 0.0717321 0.1079737
000030 89 a4 dd 3d f0 2d b6 bd b2 cf 82 bc c7 40 53 3d
       0.10822398 -0.08895481 -0.015968177 0.05157545
000040 38 db df 3c ed 1b b3 bd 03 4d 82 bb 57 29 24 bc
       0.027326211 -0.08745561 -0.0039764657 -0.010019622
000050 e5 3d 12 bd e4 a8 62 3c 56 3e 67 3d 09 3d 69 3d
       -0.03570356 0.013834212 0.056455933 0.056942973
000060 97 ac 12 bc c4 2e 0d be 7a c4 75 3d ce ae 89 bd
       -0.008952281 -0.13787371 0.060001828 -0.067227945
000070 87 7b 8e 3d 48 33 4b 3c 00 dc 5d 3b 46 04 23 bd
       0.06957155 0.012402363 0.0033853054 -0.039798997
000080 d5 4e ae bd 5c be fd bc 49 0e b6 3d 35 d5 dd bd
       -0.0851113 -0.03097456 0.088894434 -0.10831682
000090 57 c8 a9 3d 72 87 e8 bd 23 1a 84 3c 3f 3c 90 bd
       0.08290165 -0.11353959 0.016125744 -0.07042741
0000a0 15 c9 d6 3b 49 4d 15 bc ec 0f 5d 3d 29 88 bc bc
       0.0065547326 -0.0091126645 0.053970262 -0.023014145
0000b0 2e 1d 29 3d 44 14 b5 3d 79 4d 8b bd 5e d5 bf bd
       0.041287594 0.08841756 -0.06801886 -0.093668684
0000c0 81 67 c2 bd 70 fa d7 3b 20 95 24 bc 62 cb 4e 3d
       -0.09492398 0.006591134 -0.01004532 0.05048693
0000d0 29 c6 d5 3d c1 83 ce 3d ec ff 84 3c fc a4 d9 3c
       0.10438187 0.10083724 0.016235314 0.026567928
0000e0 d2 cc 19 bd 32 a5 1d 3d a1 18 aa bd d0 ff a4 bd
       -0.037548847 0.03848762 -0.08305479 -0.08056605
0000f0 5d 84 d5 3b 8b c0 ae 3c d9 05 50 3c 5a 3e ea 3b
       0.006516023 0.021332046 0.012696707 0.007148546
000100 aa b2 bd 3d 7c fb 2d bd b5 73 0f 3e 5c d0 a0 3d
       0.09262593 -0.042476162 0.14008982 0.078522414
000110 4e 35 bf 3d 2f 7a 51 bd 4c aa 89 bd 45 b6 90 3b
       0.09336339 -0.051141914 -0.06721935 0.0044162595
000120 88 a6 8d bd da 92 fc 3d a3 a8 20 be 56 45 66 3d
       -0.06916529 0.12332697 -0.1568933 0.056218468
000130 4e 62 e6 ba 05 45 44 3d b7 19 37 3d ab 2e 80 bc
       -0.0017576905 0.047917385 0.044702258 -0.015647253
000140 b6 b3 20 3e 2d 5e b9 bd 5a d4 93 3d 2b e0 1b 3d
       0.15693554 -0.09051166 0.07218237 0.03805558
000150 28 15 aa bd 25 a6 de 3c f7 0c 4a bd 63 5a 2d 3e
       -0.083048165 0.027178833 -0.04932877 0.16929011
000160 61 c9 1c be cb 33 f3 bd c6 c7 dc 3b 0f 10 93 bc
       -0.15311195 -0.11875113 0.006737682 -0.017951993
000170 2e c4 54 bd cb 80 98 3c 41 ce b4 3c 7f b1 38 bd
       -0.051944904 0.0186161 0.022071006 -0.04509115
000180 f1 69 1e 3d ce 86 47 3d 61 98 40 bd df 97 b5 bd
       0.038675252 0.048712544 -0.04702032 -0.08866858
000190 b3 a6 f1 bd 72 6f 09 3d 24 3c 05 be 7d ab 66 3d
       -0.117993735 0.03355355 -0.13011223 0.056315888
0001a0 42 b5 48 bc ec da 60 3d 21 b9 c2 bc 99 f8 5d bd
       -0.0122502465 0.05489628 -0.023769917 -0.05419216
0001b0 ce f0 e4 3d 8e da fa bd e7 82 28 3d 24 77 ca bd
       0.11178742 -0.12248717 0.041140463 -0.098860055
0001c0 93 d4 45 bd 0c 27 d3 bc 6b 8e 59 bd 80 f2 2e 3e
       -0.04829843 -0.025775455 -0.053114336 0.17084694
0001d0 ed 6d 4c bd 71 db 91 bb 2c 6e 2f bd b4 42 e8 bd
       -0.04990952 -0.0044512083 -0.042829677 -0.113408476
0001e0 e2 92 26 3c 48 c7 38 be f2 1b 0b 3d da 2c 0f be
       0.0101668555 -0.1804477 0.033962198 -0.13981953
0001f0 32 c8 b2 3d a9 ef c3 3d dd 0e 44 3d 77 14 05 3e
       0.087295905 0.09567196 0.047865737 0.12996088
000200 d1 08 95 bd 66 2d 1e 3e c5 75 39 bd 11 af b5 bd
       -0.07277072 0.15447006 -0.04527833 -0.08871282
000210 46 c5 d1 bc aa 08 eb 3c ad b9 5a 3c 7d 82 0d 3e
       -0.025606763 0.028690655 0.013349933 0.13819309
000220 4d bf c0 3c 9a 27 d2 bd 17 0d bb 3d f7 3b ac bc
       0.02352872 -0.1026146 0.09133356 -0.021024687
000230 8e 8a b8 3c 54 95 56 3d ef da 53 3d fe 6e bd 3d
       0.022527006 0.052388504 0.051722463 0.09249686
000240 f1 e4 ac 3d e6 fe 89 bd 49 45 11 bd 82 08 14 3c
       0.084421046 -0.06738071 -0.035466466 0.009035232
000250 5e bb d6 bd 31 95 2e 3d 69 91 0d bc a5 65 19 bc
       -0.10484956 0.04262275 -0.0086406255 -0.009362613
000260 f3 e0 49 3d e1 62 a5 3c e0 df 60 3c 15 74 bf 3b
       0.049286794 0.02018875 0.013725251 0.0058426955
000270 0b 22 96 3c c5 84 86 3c 25 a4 b7 3c 0b f0 c1 bc
       0.01832678 0.016420731 0.022417137 -0.023674032
000280 0a 08 ce 3c ac 94 56 3b 29 52 09 3d e4 28 9b bb
       0.025150318 0.0032742424 0.03352562 -0.004735099
000290 ea 94 33 3d c2 f5 86 bd b2 6a b1 bd 17 7b ac bc
       0.043843187 -0.06589843 -0.08662929 -0.021054788
0002a0 8b 87 4c 3d ab f9 82 bd 92 11 a5 bb a8 cd bf bc
       0.04993395 -0.06395277 -0.005037495 -0.023413494
0002b0 38 9a c9 bd 44 4d 81 bd 9d 96 35 bd 28 72 57 3d
       -0.09843868 -0.063135654 -0.04433309 0.052599102
0002c0 f5 ba a7 bd b5 ee 5d 3d 21 d0 e1 3c 6e 7c d0 bd
       -0.08189956 0.054182727 0.027565064 -0.10179983
0002d0 99 36 0e bd 00 2c 92 bd 9d 21 70 3d 59 39 7b bd
       -0.034720037 -0.071372986 0.058625806 -0.061333988
0002e0 b0 90 3f bd 52 00 e1 3d 68 59 13 be 75 08 eb 3b
       -0.046768844 0.10986389 -0.14389575 0.007172639
0002f0 ff d1 92 bd 05 27 9a 3d 9a 5e b2 bd 20 68 17 bd
       -0.0716896 0.07526974 -0.0870945 -0.036964536
000300 0d c3 e6 3d 6e 02 90 3d 34 d5 dd 3c 42 b8 ad 3d
       0.11267672 0.070317134 0.027079202 0.0848241
000310 57 75 1f 3a 1d e0 74 bd 7d 6c f2 3d fb d0 62 3d
       0.00060828537 -0.059784044 0.11837099 0.05537508
000320 bb 97 71 bd 44 69 4c 3d 8e b2 d3 bc e6 34 25 bd
       -0.058982592 0.049905077 -0.025841977 -0.04033365
000330 4c ec e7 bd 1e f0 54 3d 99 e7 82 3d b7 7f c0 3c
       -0.11324367 0.051986806 0.0639183 0.0234984
000340 61 7e 72 bd 3a a5 ad 3d 6a f5 84 bc 96 6e b5 3c
       -0.059202556 0.0847878 -0.016230304 0.022147458
000350 09 12 d1 bd b5 f1 ab 3c c5 86 3e 3d b0 20 73 3c
       -0.10208518 0.020989278 0.046515245 0.014839336
000360 0c 01 31 3d c3 fe b6 3c b0 d2 27 3d c1 87 8d bb
       0.04321389 0.022338277 0.04097241 -0.0043191616
000370 96 c4 3e 3d b5 ec 80 bd a0 5c f1 3d e3 8b d9 3d
       0.046574198 -0.06295148 0.11785245 0.106223844
000380 2e bf b7 3c 9d 49 f5 bc 36 c7 e6 bc 1b a5 ce 3d
       0.022430029 -0.029942328 -0.028171163 0.10090085
000390 3c d3 49 3b 0b d4 1f 3d 2f 48 80 3d a2 c4 f4 3c
       0.0030796072 0.03902058 0.06263768 0.029878918
0003a0 c9 ab 50 bc 60 ec bb bd 05 e6 1f 3c df a0 bb bd
       -0.012736269 -0.09175944 0.009759431 -0.09161543
0003b0 32 eb 90 3d ba d7 02 bb fa 4a fe 3c 51 fe 8c 3d
       0.0707611 -0.0019965009 0.031041611 0.068844445
0003c0 31 db 39 bd b3 58 68 3c aa e6 e1 bb 52 20 6e bd
       -0.045375053 0.014181304 -0.0068939524 -0.05813629
0003d0 5f 60 bb 3c 90 e6 ce 3b 4d 35 c2 bd 28 9f d5 bc
       0.022873102 0.0063141063 -0.094828226 -0.026076868
0003e0 cf 6b f4 3c ec d4 d2 3d bd 36 ab bd 12 96 32 3d
       0.029836563 0.10294518 -0.0836005 0.04360015
0003f0 07 7d d1 bc 77 1a 05 3e 1e 5d 3e bd 82 4e d8 3c
       -0.025572313 0.12998377 -0.046475522 0.026404623
